DQN_model_backup/dqn_nor.pth (torch, 36616 bytes, 6 tensors)

0.weight f4 [64, 64]
-0.06854658 0.11379029 0.029095173 -0.10977343 0.11463639 -0.105621144 -0.12163821 0.11255741
-0.086783335 0.09297219 -0.015621573 -0.0694751 -0.02065441 -0.033531353 0.0876427 -0.034819975
0.035402298 0.078274995 -0.103311 -0.028868437 -0.05447577 0.10444674 -0.05392027 -0.03460613
-0.011581734 0.011713892 0.083367035 0.032495916 0.105635345 -0.06132762 0.019589484 -0.09714419
0.055671364 0.123224616 0.027649418 0.0026699007 -0.09547068 0.080804035 -0.037922934 -0.05639924
0.10794036 0.005416259 0.033894837 0.11722374 -0.01560086 0.11437157 0.10189301 -0.089497685
0.07711871 -0.11081369 -0.020162031 -0.10650414 -0.12346564 -0.010375947 -0.092520535 -0.10841963
-0.022097558 -0.014701486 0.100971565 -0.06809585 -0.061794937 -0.032671407 -0.02105859 0.0929755
-0.075879455 0.04990433 0.07186544 0.070445195 -0.08208145 0.07275005 0.067530036 -0.12396678
0.10268898 -0.0697792 0.055574402 0.10721327 -0.111686185 0.059877038 0.03954619 -0.020490512
-0.0279921 -0.10220818 0.05531718 0.02366504 0.060177445 -0.09795 0.019273534 0.06314342
0.07323073 0.019788757 0.106285304 -0.0061029494 0.021936953 -0.08946268 -0.073647246 0.015452862
0.08059198 0.012398377 -0.083917454 0.097971484 0.011727139 0.022036105 -0.029453665 -0.0047258884
-0.10071461 -0.0015002042 0.010529578 -0.121858716 0.022695094 -0.1193416 0.09414618 0.011683539
-0.09064448 0.09163737 0.12214847 -0.02947028 0.09421106 -0.078206554 0.025355816 -0.049990743
0.032114938 0.057765394 -0.11401506 0.058584005 0.06422903 0.023299813 -0.03657733 0.009029508
0.07189083 0.031590343 0.059719667 0.00589855 0.09129369 0.043563142 -0.06467934 0.080742314
0.025885686 -0.017430067 0.09677677 0.06766756 0.11408417 0.04932271 0.117384374 -0.11696647
0.019533306 0.029085279 -0.05627638 -0.10898319 0.071829095 -0.015628874 0.045187652 0.039475933
-0.017030418 0.02431427 0.10815427 -0.096029 0.007722676 -0.0040709227 -0.05541289 0.11416516
0.005790964 -0.020028636 -0.005022645 0.10310994 -0.05902362 -0.118404225 0.10244131 -0.06299129
-0.07909277 0.036505267 0.11976957 0.11992289 0.008812666 0.089401916 -0.017092839 -0.06398742
0.055600837 0.026425079 0.061488748 -0.06672536 0.03481917 -0.024371997 0.05069475 0.07272813
-0.11810154 -0.0142107755 0.06065482 0.07626085 -0.098468035 0.11302079 -0.060073078 -0.01782383
-0.032887235 0.004640281 0.010287926 -0.023621976 0.06966591 0.024636507 0.10780667 0.059726402
-0.0044189394 0.08914848 -0.029972598 0.059884384 0.06628439 -0.0648521 0.078327075 0.039693564
-0.06216459 0.00051507354 0.0961594 -0.1010212 -0.066179425 0.068393275 0.024004146 0.07854965
0.062249452 0.01948297 0.118535176 -0.021868661 -0.02260384 -0.058819592 -0.08360052 0.003702119
-0.044385195 -0.114546895 -0.105561346 0.049013764 -0.013718694 -0.096470654 0.04601568 0.08443044
0.042666644 -0.007856205 -0.095486835 -0.11958262 0.06649797 -0.091624275 -0.10118917 -0.056908146
-0.03136863 0.10655111 -0.0998576 0.0487085 -0.12475802 -0.06502721 0.089253336 -0.11732167
0.12326403 0.05626391 0.085999236 -0.060556367 -0.031199798 -0.001810953 -0.067996725 -0.10822967
00000000: 2662 8cbd e20a e93d 0059 ee3c e4d0 e0bd
00000010: 7cc6 ea3d e64f d8bd 741d f9bd 8084 e63d
00000020: 76bb b1bd 3468 be3d a0f1 7fbc f648 8ebd
00000030: 7033 a9bc 2c58 09bd 047e b33d 649f 0ebd
00000040: 0002 113d a44e a03d b894 d3bd 807d ecbc
00000050: fc21 5fbd 2ce8 d53d 80db 5cbd 28bf 0dbd
00000060: 50c1 3dbc a0eb 3f3c 56bc aa3d 701a 053d
00000070: 5857 d83d ac32 7bbd 207a a03c 88f3 c6bd
00000080: a807 643d 305d fc3d 0881 e23c 80f9 2e3b
00000090: 2286 c3bd 967c a53d 1455 1bbd e402 67bd
000000a0: d60f dd3d e07a b13b 50d5 0a3d 0013 f03d
000000b0: c09a 7fbc a43b ea3d 48ad d03d 904a b7bd
000000c0: 6af0 9d3d 4af2 e2bd d82a a5bc d81e dabd
000000d0: 8edb fcbd e0ff 29bc 687b bdbd 1c0b debd
000000e0: f005 b5bc 80de 70bc 2eca ce3d d675 8bbd
000000f0: b01c 7dbd 74d2 05bd 1083 acbc f069 be3d
00000100: b066 9bbd 7c68 4c3d 302e 933d 9245 903d
00000110: 521a a8bd fafd 943d 304d 8a3d 4ce2 fdbd
00000120: 9a4e d23d 66e8 8ebd fca1 633d a292 db3d
00000130: babb e4bd a041 753d 30fb 213d b8db a7bc
00000140: b04f e5bc 8652 d1bd 4494 623d 30dd c13c
00000150: a07c 763d 029a c8bd 88e3 9d3c 5651 813d
00000160: fef9 953d 081c a23c 1cac d93d 40fb c7bb
00000170: 20b5 b33c 3638 b7bd 5ed4 96bd 002e 7d3c
00000180: 680d a53d 9022 4b3c eadc abbd 46a5 c83d
00000190: 3023 403c 1085 b43c d048 f1bc a0db 9abb
000001a0: 7643 cebd 80a2 c4ba 4084 2c3c 1091 f9bd
000001b0: 10eb b93c 5e69 f4bd b6cf c03d 506c 3f3c
000001c0: d0a3 b9bd 60ac bb3d fa28 fa3d a86b f1bc
000001d0: baf1 c03d c22a a0bd 00b7 cf3c 18c3 4cbd
000001e0: f48a 033d 689b 6c3d ba80 e9bd c8f5 6f3d
000001f0: 828a 833d 40df be3c 1cd2 15bd 80f0 133c
00000200: 803b 933d e064 013d 9c9c 743d a048 c13b
00000210: 30f8 ba3d 446f 323d 9a76 84bd 3a5c a53d
00000220: 380e d43c 80c9 8ebc e632 c63d 4a95 8a3d
00000230: f6a4 e93d 9c06 4a3d 3867 f03d 1e8c efbd
00000240: 5004 a03c 4044 ee3c 1082 66bd 9432 dfbd
00000250: 221b 933d 2008 80bc b016 393d 84b1 213d
00000260: 6083 8bbc b82e c73c fc7f dd3d daaa c4bd
00000270: 800e fd3b 6065 85bb a0f8 62bd 6ccf e93d
00000280: 20c2 bd3b 1813 a4bc 0095 a4bb 4e2b d33d
00000290: c0c2 71bd ea7d f2bd c0cc d13d 9401 81bd
000002a0: 64fb a1bd 8c86 153d c049 f53d 229a f53d
000002b0: 0063 103c 5a18 b73d 4806 8cbc d60b 83bd
000002c0: b4bd 633d 6879 d83c a0db 7b3d 4ea7 88bd
000002d0: 8c9e 0e3d c8a7 c7bc 4ca5 4f3d 7cf2 943d
000002e0: 38df f1bd 50d4 68bc 3071 783d a62e 9c3d
000002f0: 9ca9 c9bd 7277 e73d 300f 76bd 4803 92bc
00000300: c4b4 06bd 800d 983b b08e 283c e082 c1bc
00000310: 00ad 8e3d 80d2 c93c bec9 dc3d aca3 743d
00000320: c0cc 90bb 7a93 b63d 1889 f5bc 5449 753d
00000330: 1cc0 873d 2ed1 84bd f269 a03d b895 223d
00000340: 4ca0 7ebd 0006 073a 38ef c43d 34e4 cebd
00000350: 1489 87bd c611 8c3d 58a4 c43c a4de a03d
00000360: 48f9 7e3d c09a 9f3c 92c2 f23d e825 b3bc
00000370: b02b b9bc d0ec 70bd c036 abbd 409f 723b
00000380: 40cd 35bd 9097 eabd 8c30 d8bd a8c2 483d
00000390: 60c4 60bc 6892 c5bd f07a 3c3d dee9 ac3d
000003a0: 38c3 2e3d 50b7 00bc 9a8e c3bd bce7 f4bd
000003b0: 1630 883d 82a5 bbbd 443c cfbd 8418 69bd
000003c0: 647c 00bd 7837 da3d 2482 ccbd 9082 473d
000003d0: 2281 ffbd fc2c 85bd 74ca b63d 5846 f0bd
000003e0: da71 fc3d fc74 663d 5e20 b03d f409 78bd
000003f0: b896 ffbc 805d edba de41 8bbd 84a7 ddbd

0.bias f4 [64]
0.083265126 0.039834946 -0.015364498 0.119865015 -0.06971322 0.044329703 -0.06843449 0.012840852
-0.12040427 -0.104760215 0.073909044 -0.031568766 -0.090053454 0.010077462 0.009838477 -0.09099284
-0.046149045 0.08387366 -0.10320805 -0.029027224 -0.025658876 0.06808001 0.12162976 -0.07015282
-0.111789435 0.12179768 0.07396838 -0.11890769 -0.04749109 -0.09652664 -0.0021726638 0.07532461
-0.022382408 -0.102592155 0.111188635 -0.07023537 -0.054445267 0.003161475 -0.003671974 -0.08454953
0.057591766 -0.027527496 0.122096285 0.032731697 0.07815467 0.006138101 -0.0058160275 -0.10263941
0.08690259 -0.019249335 -0.031924114 -0.055057883 0.07140128 0.09538801 -0.094256595 0.062119886
0.020011067 0.10728221 0.0094977915 -0.05755754 -0.015456855 -0.0029458702 -0.0084300935 0.064154714
00000000: e886 aa3d f829 233d 60bb 7bbc ca7b f53d
00000010: cec5 8ebd 1093 353d 6227 8cbd 7062 523c
00000020: 8496 f6bd 868c d6bd a05d 973d 404e 01bd
00000030: f26d b8bd f01b 253c 9031 213c 745a babd
00000040: c806 3dbd f4c5 ab3d be5e d3bd 80ca edbc
00000050: 9032 d2bc 886d 8b3d 0619 f93d 48ac 8fbd
00000060: dcf1 e4bd 1071 f93d bc7c 973d e085 f3bd
00000070: 0486 42bd c2af c5bd 4063 0ebb ca43 9a3d
00000080: 505b b7bc d61b d2bd deb6 e33d 90d7 8fbd
00000090: 0002 5fbd c030 4f3b 80a5 70bb 4e28 adbd
000000a0: 58e5 6b3d 5881 e1bc 9e0d fa3d ac11 063d
000000b0: 8e0f a03d 2022 c93b 6094 bebb 9c34 d2bd
000000c0: fcf9 b13d c8b0 9dbc dcc2 02bd 6084 61bd
000000d0: d63a 923d ca5a c33d 9a09 c1bd 6c71 7e3d
000000e0: 40ee a33c c6b6 db3d a09c 1b3c 74c1 6bbd
000000f0: c03e 7dbc 800f 41bb 601e 0abc 8c63 833d

2.weight f4 [64, 64]
0.08964239 -0.024379954 -0.12384449 0.031591073 0.046010643 -0.00012382865 -0.010062486 0.1235514
0.08573313 -0.09504281 -0.024967343 -0.09965034 0.034792557 -0.036337808 -0.09362188 0.11807856
0.049467474 -0.021552145 -0.03877531 0.036413863 0.040191367 -0.023908257 -0.07090907 0.12043621
-0.102963075 0.062252 -0.047197253 -0.045888677 -0.10287282 0.051242635 0.119512975 -0.0057666004
0.030314833 -0.07005602 -0.121534914 -0.012690619 -0.09272373 0.049814552 -0.026282787 -0.040580705
0.110091284 0.0014814138 0.052153975 -0.023111597 -0.118487224 0.09700017 0.1194431 -0.049881354
-0.008174911 0.08559352 0.0745545 0.027947322 -0.09476991 0.015535623 0.012358099 0.022114813
-0.115625665 0.100777 0.029817894 -0.11936127 0.010605246 -0.10820308 0.0054239035 0.010641843
-0.04126063 0.076935485 -0.075735435 -0.07349159 -0.023980737 0.1120898 -0.04912278 -0.08707714
-0.00038175285 -0.055336237 -0.022968411 0.08843002 0.039972708 0.121790886 -0.09018709 -0.01941444
-0.110626385 0.09366879 -0.01871629 -0.08527014 0.041722104 0.017159 -0.08174522 0.029151142
0.05018404 -0.123783454 -0.02935417 -0.0516316 0.030632481 -0.014526457 -0.0064620078 -0.038417384
0.112315476 -0.094466195 0.04860495 -0.063787416 -0.07484381 -0.12225656 0.0404146 0.061002314
-0.009256259 -0.096059546 0.021415561 -0.06870106 -0.068070814 -0.034204885 -0.0819632 -0.004439071
-0.014177412 0.10731226 0.06325336 0.031210184 -0.024208635 -0.04956886 0.00024959445 0.002057165
-0.07157968 0.031359076 -0.04039462 -0.012791112 -0.0046581477 0.040921852 -0.023409247 -0.0061455965
-0.0054376423 -0.027649239 -0.08447267 -0.07508442 -0.092137605 -0.08040695 0.02538696 -0.1013871
0.056073204 0.11028209 0.12221487 -0.11816956 0.05805798 -0.06438343 -0.11911091 -0.041125804
0.06693344 0.018651173 -0.056798846 -0.041590914 0.051844403 0.052302048 -0.030623943 0.056876063
-0.0034607053 0.022822201 0.024431884 -0.07811776 0.097361565 0.018237442 -0.0005182922 0.044835716
0.06090924 -0.09186743 0.08904822 -0.012908697 -0.098393545 0.05303189 -0.116593316 0.10736959
0.10898496 0.021388888 0.12195273 -0.117035806 -0.1197661 -0.065066054 0.12154411 -0.003793791
0.044796854 0.115992755 0.07485494 0.055004045 0.01574403 0.04087934 -0.05555828 -0.052184775
0.038954362 0.05689615 0.05852747 0.00018124282 -0.0752981 -0.062298864 -0.12469344 0.017941207
0.009342685 0.01500681 0.11983676 0.039936393 0.065476224 0.08618924 -0.051893428 -0.013542399
0.07093154 -0.064770564 0.1190543 -0.06889771 -0.004677728 0.08835843 0.10213256 -0.093029216
-0.06525345 0.015052542 0.046614036 -0.124999866 -0.08062376 -0.049295828 -0.03208998 0.108422324
0.09555833 0.03587693 -0.030301467 0.04128386 0.064820096 0.04807754 0.019953936 0.03451091
-0.07614198 0.09667319 -0.035207585 -0.05715856 0.06859282 0.04942918 0.09107919 -0.032341987
0.054916874 0.056450695 0.040682748 0.116227105 -0.05791536 0.025852919 0.101771995 -0.038933843
0.054580122 -0.06389652 0.005579591 0.01835996 -0.031170517 0.020479247 -0.11916141 -0.04457064
-0.12196571 -0.082668886 0.06970608 0.07082471 -0.09957145 0.018252626 0.09132311 0.08775394
00000000: 6e96 b73d 78b8 c7bc 2ea2 fdbd a465 013d
00000010: a875 3c3d 00d8 01b9 20dd 24bc 8408 fd3d
00000020: da94 af3d cea5 c2bd 5088 ccbc 7a15 ccbd
00000030: a482 0e3d f4d6 14bd d4bc bfbd 2cd3 f13d
00000040: 689e 4a3d 208e b0bc dcd2 1ebd b426 153d
00000050: b49f 243d 40db c3bc c638 91bd 42a7 f63d
00000060: 4ede d2bd f4fb 7e3d e851 41bd c4f5 3bbd
00000070: fcae d2bd cce3 513d 38c3 f43d c0f5 bcbb
00000080: d056 f83c 8879 8fbd 4ce7 f8bd 50ec 4fbc
00000090: f0e5 bdbd 580a 4c3d 004f d7bc f437 26bd
000000a0: 8a77 e13d 002c c23a 689f 553d 8854 bdbc
000000b0: 6ea9 f2bd 06a8 c63d 969e f43d 6450 4cbd
000000c0: 10f0 05bc a84b af3d 08b0 983d c8f1 e43c
000000d0: ba16 c2bd 2089 7e3c a079 4a3c 202a b53c
000000e0: 26cd ecbd 2c64 ce3d a844 f43c ae73 f4bd
000000f0: a0c1 2d3c 9499 ddbd 00bb b13b 205b 2e3c
00000100: e800 29bd 5a90 9d3d 2e1b 9bbd c282 96bd
00000110: 4073 c4bc 568f e53d f834 49bd 8055 b2bd
00000120: 0026 c8b9 40a8 62bd 4028 bcbc cc1a b53d
00000130: 6cba 233d 806d f93d 02b4 b8bd 080b 9fbc
00000140: 1690 e2bd 6cd5 bf3d e852 99bc 1ca2 aebd
00000150: cce4 2a3d 0891 8c3c 0a6a a7bd 60ce ee3c
00000160: c88d 4d3d 2e82 fdbd 2878 f0bc a87b 53bd
00000170: f8f0 fa3c 6000 6ebc 40bf d3bb 8c5b 1dbd
00000180: a805 e63d 7e77 c1bd fc15 473d faa2 82bd
00000190: b647 99bd a661 fabd c889 253d 90dd 793d
000001a0: 90a7 17bc deba c4bd b06f af3c 24b3 8cbd
000001b0: b668 8bbd 6c1a 0cbd 52dc a7bd a075 91bb
000001c0: 6048 68bc 88c6 db3d fa8a 813d 80ac ff3c
000001d0: 3051 c6bc b808 4bbd 00dc 8239 80d1 063b
000001e0: 5e98 92bd 6072 003d d474 25bd d091 51bc
000001f0: 60a3 98bb ac9d 273d c0c4 bfbc 0061 c9bb
00000200: 402e b2bb a880 e2bc 0200 adbd dcc5 99bd
00000210: a4b2 bcbd 66ac a4bd 50f8 cf3c 0aa4 cfbd
00000220: 04ad 653d 94db e13d ca4b fa3d e202 f2bd
00000230: 34ce 6d3d 76db 83bd 6cf0 f3bd 8873 28bd
00000240: 6614 893d 58ca 983c e8a5 68bd 3c5b 2abd
00000250: cc5a 543d ac3a 563d 10df fabc e0f6 683d
00000260: 00cd 62bb a0f5 ba3c 6025 c83c 34fc 9fbd
00000270: 8065 c73d b066 953c 00de 07ba a8a5 373d
00000280: f87b 793d fe24 bcbd ea5e b63d 007f 53bc
00000290: 8e82 c9bd f837 593d 7ac8 eebd 96e4 db3d
000002a0: 8233 df3d c037 af3c 5ac2 f93d 78b0 efbd
000002b0: ee47 f5bd 5a41 85bd 1eec f83d 40a1 78bb
000002c0: e87c 373d 9c8d ed3d 8c4d 993d ec4b 613d
000002d0: a0f9 803c 1871 273d 1491 63bd b4bf 55bd
000002e0: 9c8e 1f3d f00b 693d 80ba 6f3d 000c 3e39
000002f0: e435 9abd 182d 7fbd 465f ffbd 70f9 923c
00000300: 1012 193c 20df 753c fa6c f53d 5894 233d
00000310: 6618 863d fc83 b03d 348e 54bd f0e0 5dbc
00000320: 8e44 913d 6ea6 84bd bed2 f33d 3e1a 8dbd
00000330: a047 99bb 44f5 b43d e02a d13d 1a86 bebd
00000340: 9aa3 85bd f09e 763c 5cee 3e3d eeff ffbd
00000350: 121e a5bd 6cea 49bd c870 03bd 860c de3d
00000360: 16b4 c33d b0f3 123d c83a f8bc 4419 293d
00000370: 66c0 843d f4ec 443d 7076 a33c 505b 0d3d
00000380: 54f0 9bbd 98fc c53d d435 10bd 181f 6abd
00000390: 647a 8c3d 4076 4a3d ba87 ba3d 0879 04bd
000003a0: 84f0 603d d838 673d f4a2 263d 7a08 ee3d
000003b0: a838 6dbd 80c9 d33c d66d d03d 1879 1fbd
000003c0: 688f 5f3d 2edc 82bd 00d5 b63b a067 963c
000003d0: 5059 ffbc 18c4 a73c e60a f4bd b48f 36bd
000003e0: 28c9 f9bd 4e4e a9bd 10c2 8e3d 8c0c 913d
000003f0: 1eec cbbd 8886 953c 9c07 bb3d 56b8 b33d

2.bias f4 [64]
0.05265516 0.008902296 0.062971845 -0.05560486 0.031936675 0.06812364 0.0057453364 0.05436644
-0.110966876 0.001975447 0.0745935 0.041321486 -0.10078634 -0.116628334 -0.10669395 0.06429893
0.027486831 0.108436495 -0.03469515 -0.007852942 -0.07265894 -0.03960359 0.041851997 -0.0814565
-0.059217364 0.017216668 -0.05658947 0.09950423 -0.006081924 0.047359154 0.07424094 0.007771492
-0.08457434 0.09956218 0.009733453 -0.10015991 0.0235506 0.053374916 0.09738189 0.012489647
-0.032288745 0.11473705 0.10904172 -0.04694614 0.0740114 -0.122629195 0.11055051 0.11793509
0.017301336 -0.11447683 -0.07380846 0.122796044 0.039910898 -0.03657165 0.028448388 0.041635945
0.07903807 -0.09112866 -0.070376515 -0.11881755 -0.014160141 -0.013737142 0.04009655 0.06365581
00000000: f0ac 573d f0da 113c 62f7 803d ecc1 63bd
00000010: 08d0 023d 6884 8b3d 6043 bc3b 58af 5e3d
00000020: 9a42 e3bd 8076 013b 7ac4 983d b840 293d
00000030: 1269 cebd d6da eebd 5c82 dabd 28af 833d
00000040: 102c e13c f413 de3d 801c 0ebd a0a9 00bc
00000050: 36ce 94bd 6037 22bd 006d 2b3d aad2 a6bd
00000060: e88d 72bd f809 8d3c 5cca 67bd e0c8 cb3d
00000070: e04a c7bb acfb 413d a20b 983d 00a8 fe3b
00000080: 5035 adbd 42e7 cb3d 1079 1f3c a420 cdbd
00000090: 30ed c03c a89f 5a3d 2870 c73d 60a1 4c3c
000000a0: 3441 04bd 42fb ea3d 4451 df3d 984a 40bd
000000b0: 4a93 973d 0425 fbbd 4e68 e23d f487 f13d
000000c0: 88bb 8d3c d472 eabd e428 97bd 7e7c fb3d
000000d0: 9c79 233d 28cc 15bd 980c e93c 748a 2a3d
000000e0: b6de a13d aaa1 babd 9021 90bd 9e56 f3bd
000000f0: f0ff 67bc c011 61bc 483c 243d fa5d 823d

4.weight f4 [4, 64]
0.0737596 -0.024066046 0.06582269 -0.08057295 -0.012754381 -0.0028657764 -0.02284798 -0.08478573
-0.08099131 0.095127836 0.05219336 -0.049077228 -0.06396234 0.023707107 -0.098548055 -0.0054887235
0.0815997 0.07883246 -0.11872503 -0.11735965 0.11117822 0.075959 -0.042381465 0.06595518
0.073800296 0.10718027 0.02790688 0.065270275 -0.07367462 -0.08260584 -0.10389553 0.08966376
-0.08952099 -0.022647455 0.042012274 -0.123055786 0.05866386 -0.052092656 -0.08997922 -0.0411565
0.07039893 -0.12301637 0.09618619 -0.09808037 -0.0348922 0.021675378 -0.01113534 0.05602169
0.083911866 -0.040034145 -0.01932992 -0.000592798 0.05648774 -0.106490806 0.036899164 0.093208596
-0.062322676 -0.026710033 0.08089985 -0.117803246 0.0778698 -0.05112481 0.091811284 0.010471776
0.080228016 0.08152358 0.06592038 -0.05948259 0.06894821 0.010804161 0.028059676 0.113796115
0.04672931 0.10863452 0.0523379 0.05286342 -0.12353976 -0.03550574 0.0025603473 0.12335938
-0.02892743 -0.01968813 0.074190915 -0.05579433 -0.11255038 0.027589649 0.053447977 0.025921598
-0.09883751 0.016396806 -0.10134782 0.07850976 -0.023186296 -0.06449318 0.017821953 0.067899436
0.061275333 -0.009599075 0.02007389 -0.06571442 -0.08794685 -0.026011914 0.10759997 0.016484305
0.102824375 0.04614988 -0.1217255 0.05847247 -0.06589982 -0.05413808 0.045669615 0.031740323
0.018152848 -0.0077510923 0.07362385 0.111227244 -0.03536868 0.07511309 -0.12012297 -0.06017275
0.053941175 -0.07854669 -0.07066117 -0.07006948 -0.08955063 0.09552598 0.04945992 -0.03690411
0.09143564 0.078064784 0.026291922 0.11052273 -0.016899139 0.06832184 0.018495142 0.08170076
-0.033877805 -0.08744532 0.10394859 -0.04791993 0.043416858 -0.09136215 -0.02000703 -0.009183064
-0.078631386 -0.044504985 0.11438811 -0.07090396 -0.0765398 -0.09307738 -0.113343254 0.12496215
-0.025761873 -0.11221327 -0.060049564 0.11380084 0.108027965 -0.09038131 0.042630732 0.08877437
-0.08870353 -0.010773778 -0.11544277 0.11477809 -0.10574837 0.06804417 -0.026699156 -0.009894326
0.076944575 0.10287562 -0.064149976 0.08943689 0.07628685 0.012148604 0.0028125644 -0.03780578
0.10145457 -0.0877562 -0.11097874 -0.022542775 0.118648365 0.0618781 0.08454932 0.07390058
-0.10120307 -0.044550017 0.07855512 -0.109265 -0.07339972 -0.089974076 0.098946154 -0.068093106
-0.005150929 0.111646205 -0.038611293 -0.0902538 -0.015656888 0.04367192 0.058242574 -0.06461246
-0.020871237 0.094401956 -0.04152529 0.099515095 -0.04542522 0.08483267 -0.102659926 0.09395073
0.08457592 -0.059643954 0.05913891 0.118919566 0.019596219 -0.102696404 -0.035796344 0.016352937
0.109971166 0.09225735 0.0859769 0.08074249 -0.080955684 0.10789314 0.02728708 -0.017137304
-0.08870238 0.0778531 0.06524797 -0.09678157 0.057945907 0.092648804 -0.071317 -0.10359438
0.09726852 0.08819178 0.07762647 -0.04000525 0.055658817 0.062121764 -0.09126964 -0.08502193
-0.045116946 -0.050014332 -0.021594033 0.0774252 -0.10997334 -0.03890595 0.03341165 -0.12240064
-0.030853987 0.0046688467 -0.040805593 -0.035750344 -0.113540396 -0.03266418 -0.099586025 0.01088275
00000000: 460f 973d 2826 c5bc 0cce 863d 6e03 a5bd
00000010: c0f7 50bc c0cf 3bbb b02b bbbc 24a4 adbd
00000020: c6de a5bd 62d2 c23d b4c8 553d 3405 49bd
00000030: b0fe 82bd 6835 c23c 90d3 c9bd c0da b3bb
00000040: be1d a73d ea72 a13d 1c26 f3bd 425a f0bd
00000050: 68b1 e33d 6490 9b3d 3098 2dbd 8213 873d
00000060: 9c24 973d 5481 db3d f89c e43c 6cac 853d
00000070: b8e2 96bd 402d a9bd 2ec7 d4bd a2a1 b73d
00000080: c856 b7bd 2887 b9bc 1015 2c3d ac04 fcbd
00000090: 8449 703d 1c5f 55bd 0647 b8bd b893 28bd
000000a0: 502d 903d 02f0 fbbd 44fd c43d 5cde c8bd
000000b0: 20eb 0ebd 9090 b13c 0071 36bc 0077 653d
000000c0: fcd9 ab3d d8fa 23bd c859 9ebc 0066 1bba
000000d0: b05f 673d da17 dabd 9423 173d 26e4 be3d
000000e0: 1046 7fbd 00cf dabc d2ae a53d d442 f1bd
000000f0: 347a 9f3d 4068 51bd 8e07 bc3d d091 2b3c
00000100: 964e a43d d6f5 a63d 4401 873d 04a4 73bd
00000110: b834 8d3d f003 313c 68dd e53c f00d e93d
00000120: 3c67 3f3d c67b de3d 4460 563d 5087 583d
00000130: 6a02 fdbd 786e 11bd 80cb 273b d8a3 fc3d
00000140: 38f9 ecbc 0049 a1bc 68f1 973d 9888 64bd
00000150: d080 e6bd b003 e23c 44ec 5a3d 8859 d43c
00000160: 526b cabd 9852 863c 728f cfbd bac9 a03d
00000170: 30f1 bdbc 0015 84bd 58ff 913c dc0e 8b3d
00000180: d8fb 7a3d 7045 1dbc 0072 a43c 4895 86bd
00000190: 7a1d b4bd f016 d5bc 605d dc3d 180a 873c
000001a0: 9695 d23d a807 3d3d 384b f9bd d480 6f3d
000001b0: 7cf6 86bd e4bf 5dbd 1010 3b3d 2402 023d
000001c0: 48b5 943c e0fc fdbb 1ac8 963d 1ccb e33d
000001d0: c0de 10bd e4d4 993d 0803 f6bd b477 76bd
000001e0: 6cf1 5c3d 16dd a0bd ceb6 90bd 9680 8fbd
000001f0: 5266 b7bd 20a3 c33d 7c96 4a3d c428 17bd
00000200: 9c42 bb3d 6ee0 9f3d 2862 d73c be59 e23d
00000210: 1070 8abc 52ec 8b3d 2083 973c ba52 a73d
00000220: 74c3 0abd 8816 b3bd 00e3 d43d b047 44bd
00000230: e0d5 313d 141c bbbd c8e5 a3bc 9074 16bc
00000240: 7e09 a1bd dc4a 36bd 5044 ea3d 1836 91bd
00000250: e6c0 9cbd 5a9f bebd 8220 e8bd 28ec ff3d
00000260: 900a d3bc 12d0 e5bd 88f6 75bd 6a10 e93d
00000270: c43d dd3d d619 b9bd 909d 2e3d 56cf b53d
00000280: 32aa b5bd 8084 30bc 426d ecbd c610 eb3d
00000290: 9a92 d8bd be5a 8b3d 30b8 dabc d01b 22bc
000002a0: 1e95 9d3d 74b0 d23d 1061 83bd b02a b73d
000002b0: 483c 9c3d f00a 473c 0053 383b 3cda 1abd
000002c0: 6ac7 cf3d 86b9 b3bd d248 e3bd a0ab b8bc
000002d0: eafd f23d e473 7d3d 3228 ad3d 3059 973d
000002e0: 8e43 cfbd 147a 36bd 82e1 a03d 54c6 dfbd
000002f0: 9852 96bd 5444 b8bd 48a4 ca3d 6674 8bbd
00000300: 20c9 a8bb c4a6 e43d e026 1ebd fcd6 b8bd
00000310: e042 80bc 54e1 323d c48f 6e3d 8a53 84bd
00000320: 28fa aabc d055 c13d 6c16 2abd 92ce cb3d
00000330: cc0f 3abd c0bc ad3d 5e3f d2bd 3e69 c03d
00000340: 2436 ad3d 384d 74bd a43b 723d 1a8c f33d
00000350: 4088 a03c 7e52 d2bd 309f 12bd 98f6 853c
00000360: 9038 e13d 6cf1 bc3d a814 b03d 525c a53d
00000370: 18cc a5bd 14f7 dc3d 2889 df3c 8863 8cbc
00000380: 98a9 b5bd 7271 9f3d baa0 853d 6a35 c6bd
00000390: b058 6d3d a8be bd3d a60e 92bd 4a29 d4bd
000003a0: b834 c73d e49d b43d a0fa 9e3d 8cdc 23bd
000003b0: 80fa 633d 6473 7e3d 94eb babd fa1f aebd
000003c0: 8ccc 38bd d4db 4cbd f8e5 b0bc 1a91 9e3d
000003d0: b439 e1bd d85b 1fbd a8da 083d 30ad fabd
000003e0: 80c1 fcbc 20fd 983b c423 27bd f46e 12bd
000003f0: de87 e8bd e0ca 05bd c2f3 cbbd 904d 323c

4.bias f4 [4]
-0.04753466 -0.04546283 -0.0032556355 0.05374843
00000000: b4b3 42bd 3c37 3abd 805c 55bb 5027 5c3d
