DQN_model_backup/trained_model.pth (torch, 36996 bytes, 6 tensors)

0.weight f4 [64, 64]
000000 e0 a9 9d 3c 00 a9 21 3a f0 56 fa bb 30 5d ab 3c
       0.019246042 0.00061668456 -0.0076397583 0.020918459
000010 00 9d c7 3d fa af b9 3d b0 8f 51 bc 00 5a 5d 3c
       0.09746742 0.09066768 -0.012790605 0.013510227
000020 a6 4b f0 bd 20 2f 11 3c 08 21 90 bc f4 45 fc bd
       -0.11733179 0.008861333 -0.017593876 -0.1231803
000030 30 2d 3a bc d4 3e 39 bd 00 1b df 3d 24 52 a3 3d
       -0.011363313 -0.045225933 0.10893822 0.079746515
000040 c0 c1 44 3b b0 2e 06 bd d0 9a 3d 3c 8c 76 e0 3d
       0.003002271 -0.03275937 0.011572555 0.10960111
000050 e0 e1 67 3b 92 28 97 3d fc 33 3d bd 3a 71 be 3d
       0.0035382435 0.07380785 -0.046192154 0.0929894
000060 e0 d8 7e bd 94 55 00 3d 70 00 3a bd b4 85 d5 bd
       -0.062218547 0.031331614 -0.045410573 -0.104258925
000070 00 34 1c 39 60 e6 85 3b f2 cd cd bd fe 36 be 3d
       0.00014896691 0.0040863007 -0.100490466 0.09287833
000080 00 27 f7 3a 83 49 42 3d e3 fe e4 3d 0c c3 be bd
       0.0018856227 0.047433387 0.11181428 -0.09314546
000090 00 0d 6b bd 00 9e b6 bd 28 65 95 3c b5 d3 d2 3d
       -0.057385445 -0.08916855 0.018236712 0.10294286
0000a0 b4 27 b7 bd 3c 18 89 bd d0 2e 9a 3d 50 60 44 3c
       -0.0894312 -0.066940755 0.0752846 0.011985853
0000b0 b1 7c 43 3d dc 9d 63 3d 45 9d d2 bd 40 ff 5a 3d
       0.047726337 0.05557047 -0.10283903 0.05346608
0000c0 6d c4 36 3d 80 5c 7a bc 90 5e d7 3c 2a 42 e7 bd
       0.04462092 -0.015280843 0.026290208 -0.11291917
0000d0 a6 fd 98 bd 80 39 cf 3a 78 ac d8 bc fa 5b e8 3d
       -0.074702546 0.0015809983 -0.026449427 0.11345668
0000e0 e0 7e 8a bd ec 3c 93 3d fa e5 f7 bd ad 72 f9 3d
       -0.06762481 0.07189354 -0.121044114 0.12180076
0000f0 c8 18 b0 3d c0 61 96 bb a0 76 af 3b 33 93 39 3c
       0.08598477 -0.0045892894 0.0053547174 0.011326599
000100 84 d0 ba bd a0 11 9e bd 1d 28 a0 bd f4 f2 25 bd
       -0.091218024 -0.077182055 -0.07820151 -0.0405149
000110 84 e4 4a 3d c0 a2 30 3d 16 3f f0 bd c0 7f e1 bc
       0.049534336 0.04312396 -0.11730783 -0.027526736
000120 d8 da a7 bd 33 1f d8 3d ff bc e8 3d 9a 46 87 bd
       -0.08196038 0.10552826 0.11364173 -0.06605263
000130 e4 0a fd bd da 15 81 3d 54 f2 48 3d 68 cd a5 3d
       -0.12355593 0.06302996 0.049059227 0.08095819
000140 20 d9 59 3c e4 d6 88 3d 20 76 9e bc 58 53 a7 bc
       0.013296396 0.06681612 -0.019343436 -0.020425484
000150 c1 ed 8d bd 80 65 16 3c 5f 0c b7 3d f2 08 df bd
       -0.069301136 0.009179473 0.089379065 -0.10890378
000160 46 b1 b1 bd f6 df bf bd 17 c1 12 3d 84 cd 53 bd
       -0.0867639 -0.09368889 0.035828676 -0.051709667
000170 74 be dc bd 18 4c 08 bd 6a 57 55 3d d5 75 a8 3d
       -0.107785136 -0.033275694 0.052085318 0.082256
000180 5f 4c de 3c 56 ee 81 bd 60 b9 a6 bb 80 a3 3c bc
       0.027136026 -0.06344287 -0.0050880164 -0.011513591
000190 4d e4 05 3d 5c 8d 3b bd e2 1b 84 bd 2b 42 a3 3d
       0.032688428 -0.045789108 -0.06450631 0.07971605
0001a0 f4 37 42 bd 79 56 ec 3d a0 86 1c bd 64 06 24 bd
       -0.047416642 0.11539931 -0.038214326 -0.040045157
0001b0 5d 97 d0 3d d9 a9 90 3d b9 4a 9a 3d ae 81 fc bd
       0.1018512 0.07063646 0.075337835 -0.12329422
0001c0 18 a6 94 3c c7 eb c0 3d ef e1 c4 3d d8 dc a2 3d
       0.018145606 0.09419971 0.09613406 0.07952279
0001d0 1e 8a 96 bd b1 2a d6 3d 54 dd 6c 3d 60 a6 36 bd
       -0.073505625 0.104573615 0.057828262 -0.04459226
0001e0 88 75 17 bd 52 54 8c 3d 48 40 a0 bd 46 42 c1 bd
       -0.03697732 0.0685202 -0.07824761 -0.09436469
0001f0 16 de 9f bd ea 2c b3 bd 60 27 ca 3c e3 e2 44 bc
       -0.078060314 -0.08748801 0.024676979 -0.012016985
000200 55 58 b7 3d 80 1c 3a bc 73 4c 8d bd b8 9e 4c 3d
       0.08952395 -0.011359334 -0.06899347 0.049956053
000210 f0 cf 87 bc f8 99 5b bd 24 00 fb 3d 36 a9 cb bd
       -0.016578645 -0.053613633 0.12255886 -0.09944384
000220 06 17 e1 3d 3c b3 3e bd 47 60 23 3d bc 3d 84 bd
       0.109907195 -0.04655765 0.03988674 -0.064570874
000230 90 8d e4 3d 16 91 9b bd a0 18 fc 3c 40 03 7d 3d
       0.111598134 -0.07596032 0.03077346 0.061770678
000240 51 92 8a 3d 74 87 d5 bd 08 bf e7 3c 0c 4d 8b 3d
       0.06766189 -0.10426226 0.028289333 0.06801805
000250 47 b4 d7 bd 5a aa 82 bd b8 2d 16 3d 20 11 2b 3d
       -0.10532432 -0.06380148 0.036664695 0.04176438
000260 9a f7 c1 3d 0e 1c ba bd 7a e3 d8 bd f0 e5 95 3d
       0.094710544 -0.09087382 -0.10590263 0.07319248
000270 00 de b5 bd 74 39 33 bd d4 c1 f5 3d 24 88 0f 3d
       -0.08880234 -0.043755963 0.119998604 0.035041943
000280 80 a3 bd bc a8 3e 97 bd 28 20 93 bc dc b6 03 3d
       -0.023149252 -0.073849976 -0.01795967 0.03215681
000290 6a 2e a7 bd c8 df 74 bd e6 2a aa 3d c8 bb b4 bd
       -0.0816315 -0.059783727 0.083089635 -0.08824879
0002a0 21 34 61 3d f4 f2 99 bd b6 96 2b 3d 6e b1 89 bd
       0.054981355 -0.07517043 0.041891776 -0.06723295
0002b0 42 6c da bd c8 6b ea bd 29 00 d2 bd 80 42 65 3b
       -0.1066518 -0.11446339 -0.10253937 0.0034982264
0002c0 a2 fa a0 bd 96 83 fb bd c1 b1 79 3d 80 8c 30 3b
       -0.078603044 -0.122809574 0.060960535 0.0026939213
0002d0 98 bb 7a bd ce c9 fa 3d 68 e6 ff 3d b0 20 d7 bd
       -0.06121406 0.122455224 0.124951184 -0.105042815
0002e0 a0 8c 97 bc 48 5e 91 bc dc 0e 23 bd 1b 70 58 3d
       -0.018499672 -0.017745152 -0.039809093 0.052841287
0002f0 26 5f de bd b6 92 86 bd 30 0a a3 bc 45 f5 ad 3d
       -0.10857992 -0.06570952 -0.019902319 0.08494047
000300 a6 7c 97 3c 76 35 33 3d c6 ce 08 3c a4 df 3a bd
       0.018492054 0.043752156 0.00835008 -0.045623437
000310 20 40 38 3d 5c 5b 28 bd c2 a7 a7 bd 6c 21 fb 3d
       0.04498303 -0.041102752 -0.08186294 0.12262234
000320 96 34 06 3d 10 fa 60 3d fe 19 a8 bd 06 37 60 bc
       0.032764994 0.05492598 -0.082080826 -0.013684994
000330 74 7a ae bd 3c 78 98 bd a6 12 e1 3d 5c 95 69 bd
       -0.0851945 -0.07444808 0.10989885 -0.057027206
000340 df 22 c6 3d c7 ed e1 3d 3a 1a 4e bd 64 a4 10 bd
       0.0967462 0.110316806 -0.05031798 -0.035313025
000350 3d c7 c8 bc 38 d6 ea bc 2f 7a 56 3d 36 24 a7 bd
       -0.024509067 -0.0286666 0.052362617 -0.081612036
000360 0d df 28 3d b2 9f 9d bd 6d b0 a4 3d 8a d7 d7 3d
       0.041228343 -0.07696475 0.08041463 0.10539158
000370 10 6e 69 bd 18 11 ad bc 8e 5b 88 bd f7 65 f2 3d
       -0.05698973 -0.021126315 -0.06658088 0.118358545
000380 fc 9b 4a 3d 9d 9b f4 3d e6 bb ba 3d a2 ef e0 bd
       0.049465165 0.119437434 0.0911787 -0.10983206
000390 75 24 d7 3d 40 a9 50 3c 2c 09 27 bd 52 d1 c3 bd
       0.105050005 0.012735665 -0.04078023 -0.09561409
0003a0 5d 0d 16 3d 73 9f fc 3d 78 06 c9 bd c3 68 6a bd
       0.036633838 0.123351 -0.09815687 -0.057228815
0003b0 c4 32 9b bc 57 ba f4 3d 46 c1 64 3d 24 76 6b bd
       -0.018945105 0.11949604 0.055848382 -0.057485715
0003c0 a1 4e 96 3d 3c 3e fa 3d 08 eb ee 3d 3f c0 fe 3d
       0.07339216 0.122189015 0.116659224 0.12439012
0003d0 86 01 bf 3d 52 04 e8 3d b0 43 65 bc b0 28 73 bd
       0.093264624 0.11328949 -0.013993189 -0.059364974
0003e0 52 65 f9 bc c0 e8 9a 3d a8 cb 99 bd 37 4a 0a bd
       -0.030443821 0.07563925 -0.075095475 -0.033762183
0003f0 17 f6 60 3d 12 10 99 3c f8 4d d7 3c 8b 50 ff 3c
       0.05492219 0.01868442 0.026282296 0.031166336

0.bias f4 [64]
000000 e6 13 5b bd 66 90 a0 3c fd 32 6e bc 64 2c b4 3d
       -0.053485774 0.019600105 -0.014538524 0.08797529
000010 02 cb eb bd e1 51 57 bd 2d 87 b3 3d b8 9d ec 3d
       -0.1151333 -0.05256832 0.08766017 0.1155352
000020 40 c5 d6 bc 98 7e fc bd e0 85 e0 3d 0b 2e 31 3d
       -0.026217103 -0.12328833 0.10963035 0.0432568
000030 78 b8 01 3e 9c cf db 3c d2 f0 00 bd 61 c6 b8 bd
       0.12668025 0.026832394 -0.031479664 -0.09022213
000040 39 48 ab bd d2 8a da bb 30 b3 f4 3d fe 00 d8 bc
       -0.08363385 -0.0066693807 0.1194824 -0.02636766
000050 3f 68 2d 3d 6d ef 96 bc 52 11 8c 3d d7 00 50 3c
       0.042335745 -0.018424714 0.06839241 0.012695513
000060 16 f6 96 3d a0 af 67 bd e9 d7 f7 bd e5 e0 70 3d
       0.07371156 -0.056563973 -0.121017285 0.058808226
000070 be d3 67 bd fd 9c 8e bd 53 e7 a7 3d 27 be 85 3d
       -0.056598417 -0.06963537 0.081984185 0.06530409
000080 94 e8 bb bd e4 e3 ae bc 63 ec 6d 3d 13 83 d6 3c
       -0.0917522 -0.021348901 0.058086764 0.026185548
000090 f8 ca b2 bc ec 74 9b 3d 0c d9 f0 3d a0 2c fe 3d
       -0.021825299 0.075906605 0.117601484 0.12410855
0000a0 ac da a0 bd e6 87 66 3d 91 ec 8f bc 3c b9 a7 bd
       -0.07854208 0.056281947 -0.017568858 -0.081896275
0000b0 cc 8d a5 bc 35 91 87 bd 01 3e a7 bd d9 d8 23 bd
       -0.020209216 -0.06619493 -0.08166123 -0.040001724
0000c0 35 ee 16 bd ac 17 c7 bd b1 69 2e bd 25 51 d2 bd
       -0.036848266 -0.09721312 -0.042581264 -0.10269383
0000d0 84 ae d1 3d 94 b6 b8 bc 40 c3 58 3c 11 34 b5 bd
       0.10238364 -0.022547998 0.013230145 -0.088478215
0000e0 dc b1 a1 3c 00 5b f9 bd 64 6a c5 3d 0a 11 47 3d
       0.01973813 -0.1217556 0.09639433 0.048600234
0000f0 29 ff b3 bc 0b 37 24 bd 98 d8 d1 3c 21 07 00 3e
       -0.021972256 -0.040091556 0.025615975 0.1250272

2.weight f4 [64, 64]
000000 c2 82 d5 3d f0 5b 2f 3d 02 d4 b8 bd 80 1d 1f ba
       0.10425331 0.042812288 -0.09024812 -0.00060697645
000010 20 0a e9 3b 1d 36 b3 3d 78 0e 84 bd 94 93 e7 bd
       0.0071118027 0.08750556 -0.06448072 -0.11307445
000020 c9 02 37 3d f4 71 63 3d b0 5c 54 bc 75 7e 86 3c
       0.04468039 0.055528596 -0.012961552 0.016417721
000030 4f b2 85 bc cc 9e 4a 3a b9 e4 c1 bc 6a 89 99 3d
       -0.016320376 0.0007729351 -0.023668634 0.07496913
000040 62 37 16 3d a1 db 9d bd de 38 e1 bd a8 40 a6 3d
       0.03667391 -0.077079065 -0.10997175 0.08117801
000050 84 6e 73 bd 4a de d9 bd f4 c0 9b bd 1c 22 9f bd
       -0.059431568 -0.106381014 -0.07605162 -0.07770178
000060 10 aa a7 bd d0 b0 8f 3d 47 1f fa 3d 1c 08 2c 3d
       -0.08186734 0.07016146 0.12212997 0.04199992
000070 ec 60 ad bd dc 74 b6 bd 76 2b ad bd 0b 2a ed bc
       -0.08465752 -0.08909008 -0.08455555 -0.028950712
000080 dd e8 ca 3c b6 6e 59 bd 3f d6 50 3d 8c d5 0d bd
       0.024769241 -0.053084098 0.05098557 -0.034627482
000090 46 53 e8 bd 0c 7b 56 bd 14 8d b6 bc c8 de 58 bc
       -0.11344008 -0.05236344 -0.022284068 -0.013236709
0000a0 84 2c f6 3d 81 03 09 bd 51 b2 a0 bd 68 55 07 bd
       0.120202094 -0.033450607 -0.07846511 -0.033040434
0000b0 1c f5 72 3d 98 d6 95 3c 20 a0 12 3d 71 7e bd bd
       0.059315786 0.018290803 0.03579724 -0.092526324
0000c0 2b fa 83 bd 22 13 65 3d de 04 c7 bc 84 da 07 3d
       -0.064442 0.05592645 -0.024294313 0.033167377
0000d0 fd 11 ff bd f8 24 2e bd 92 44 61 bd f3 99 07 3c
       -0.12454603 -0.042515725 -0.054997034 0.00827645
0000e0 93 2a c1 3d ac 3e 13 3d c0 a8 6f 3c 4a 8d e1 3d
       0.094319485 0.03594844 0.0146276355 0.11013277
0000f0 5b 67 4f bd 70 8c f7 bc 66 fa e7 3d 18 08 80 bd
       -0.050635677 -0.030218333 0.113270566 -0.06251544
000100 62 e1 c2 3d fc 20 2c 3d 72 33 ed 3d db 25 22 3d
       0.095156446 0.042023644 0.11582078 0.039586883
000110 d9 d5 6e bd 02 40 b3 3d 43 1f 8f 3c 2c b7 08 bd
       -0.05830941 0.08752443 0.017470961 -0.03337781
000120 6c 0c 6f 3d b7 e9 4b bd 99 8c 6a bc dc 49 e1 3d
       0.058361456 -0.049783435 -0.014315748 0.11000416
000130 b6 8b 5d bd 60 e3 df bd 33 da 8c 3d 8c 91 ef ba
       -0.054088317 -0.1093204 0.06877556 -0.0018277629
000140 c6 d2 b6 3d 0b 0f 7d 3d cb e5 38 bd 4b 59 b0 bd
       0.089269206 0.061781924 -0.045141023 -0.08610781
000150 7c e4 d7 3c a3 f2 90 3d a2 0e a9 3c 67 7d 86 bd
       0.026354067 0.07077529 0.02063686 -0.06566887
000160 54 e6 8f bd 34 46 2e bd 13 f0 8a bd 59 9d 71 3d
       -0.070263535 -0.04254742 -0.06784072 0.05898795
000170 dd d7 36 bd 2c 73 c2 3d 8d d5 b0 bc 31 94 11 bd
       -0.044639457 0.094946235 -0.021586204 -0.035541717
000180 15 11 08 bd da 44 74 bd 54 c9 01 3d e1 7e f0 bc
       -0.033219416 -0.059635974 0.031686142 -0.029357376
000190 a3 2b e9 3d 46 95 12 3c db bf 68 3c 93 65 d4 bd
       0.11385276 0.008946722 0.014205898 -0.10370936
0001a0 70 d0 9c bd 2e 48 ea 3d 62 bb 31 bc c1 38 ff 3b
       -0.07656944 0.114395484 -0.010847898 0.007788748
0001b0 26 38 bb bd 13 3c 9e bd bb 1a 99 3d 01 70 f0 bc
       -0.09141569 -0.07726302 0.074758016 -0.029350283
0001c0 b1 0c f5 3d e3 57 62 bd be c0 fd bc 41 30 13 3d
       0.11965311 -0.055259597 -0.030975696 0.03593469
0001d0 1a ba 1d bd 0a 32 81 3d ed 07 fb 3d f6 26 fd bd
       -0.03850756 0.06308372 0.12257371 -0.12360947
0001e0 97 a1 86 3d 9f 50 d7 bd e3 ab d8 3d 36 4d 0e 3d
       0.065737896 -0.10513424 0.1057966 0.034741603
0001f0 79 16 a5 3d 51 4d f1 bb 93 26 ff 3d c0 66 85 3d
       0.08060927 -0.007363953 0.12458529 0.06513739
000200 4b 4b cb 3d 44 42 62 3d f8 8e 0e bc 4c 24 43 bd
       0.0992647 0.055238977 -0.008701079 -0.047642037
000210 a4 6a c9 3d 66 57 ba bd eb a3 93 bd 30 12 93 3d
       0.09834793 -0.09098701 -0.07208999 0.07181203
000220 2e df 97 3d 7d c1 eb 3c fd 9a d3 bc 03 39 34 bd
       0.07415615 0.028778786 -0.02583074 -0.043999683
000230 2b a3 99 bd 67 88 94 bd da 94 87 ba 0b e7 cf bd
       -0.07501825 -0.07252579 -0.0010344044 -0.1015149
000240 78 01 ae bb cf c7 98 bd 53 6d 00 3e 2e 5b bb 3d
       -0.0053102337 -0.074599855 0.12541704 0.091482505
000250 a8 16 11 3d ec 83 b4 3d 1a 8e 9b bc 3c b1 c0 ba
       0.035421997 0.088142246 -0.018988658 -0.0014701257
000260 1a 9a b7 3d b2 43 a8 3d 74 3d f5 bd 57 d6 1d bd
       0.089649394 0.08216037 -0.11974612 -0.03853449
000270 f1 6f a1 3d 5c 64 c8 bc fb 73 f6 3d f2 a3 f3 bd
       0.07882679 -0.024461918 0.1203384 -0.118965045
000280 3a 3c c7 3d 8b b3 f7 bd fc 88 68 3d 0e f0 f8 3d
       0.09728284 -0.12094792 0.056771263 0.12155162
000290 32 a5 d0 bd a0 15 8f bd 12 7d 74 bd 6c 04 e7 bd
       -0.101877585 -0.069865465 -0.05968959 -0.1128014
0002a0 22 cc a8 3d 17 14 de bd 39 b7 f3 3c 67 0a 35 3d
       0.0824206 -0.108436756 0.029750453 0.044199374
0002b0 3a 41 b3 bd 67 ca 7a 3d 70 7e 37 39 66 d5 ae 3d
       -0.08752675 0.061228182 0.00017499342 0.08536796
0002c0 9e 83 94 bd a4 a0 8c bd e6 bf 47 bd 30 a9 d1 3c
       -0.072516665 -0.06866577 -0.048766993 0.02559337
0002d0 ed a4 b2 bd 29 61 9f bd c6 d8 c7 3c 95 e1 d1 3d
       -0.08722863 -0.07782204 0.024395358 0.102481045
0002e0 16 1d f2 3d 12 82 56 3d 6b 97 71 3d 38 db 23 3d
       0.11821954 0.05237014 0.058982294 0.040003985
0002f0 de 66 ab bd 42 71 fa 3d 79 66 d1 bd 10 67 08 3d
       -0.0836923 0.122286335 -0.10224623 0.033301413
000300 bd bf d8 bd fb 03 9f bd 85 77 29 bc cc 56 80 bd
       -0.10583446 -0.07764431 -0.010343437 -0.06266555
000310 58 7a fb 3d 34 36 19 bd 63 7e ed bd 59 7c 3f 3d
       0.122791946 -0.037405208 -0.11596372 0.046749447
000320 9f d4 e0 3d 1b fc 34 bd 70 5b a1 bd 19 1f 22 3d
       0.10978054 -0.04418574 -0.078787684 0.03958044
000330 bf 02 fa bd f1 41 ce 3c 96 ec fa bd 60 ef c9 3d
       -0.12207555 0.025177928 -0.122521564 0.0986011
000340 b4 a3 c6 bc be 20 08 3d 61 b0 6f 3d f8 24 3d bd
       -0.024247982 0.03323435 0.058517817 -0.046177834
000350 dc fc 0b bd f5 14 7b bc 69 42 c9 bd fa 63 a4 3c
       -0.034176692 -0.015324821 -0.0982712 0.020067204
000360 10 d1 72 3d d8 bd c6 3c aa f2 13 3d b0 37 f7 bd
       0.05928141 0.024260446 0.036120094 -0.120711684
000370 5a 6a 97 bc 32 14 9a ba f5 64 f2 bc 40 05 34 3b
       -0.01848333 -0.0011755286 -0.029589156 0.002746895
000380 94 62 5b bd fb 16 84 bd 26 16 1e bc fd b6 ea bd
       -0.05356081 -0.06449696 -0.009648835 -0.114606835
000390 f5 07 c1 3d 31 3e dc 3d d3 95 48 bc 0a f5 99 3d
       0.09425346 0.107540496 -0.012242752 0.075174406
0003a0 0e 47 b9 3d 9c d3 25 3d 68 65 c6 bd a6 9e 99 bd
       0.09046756 0.04048501 -0.096873105 -0.07500963
0003b0 73 21 e1 3a 40 fa ea 3c 47 a0 fa bd 09 28 87 3d
       0.0017176106 0.028683782 -0.12237602 0.06599433
0003c0 db 46 6a bc f8 6d 07 3d d6 d4 cd 3d a7 2b d0 3d
       -0.01429912 0.03306386 0.10050361 0.10164576
0003d0 d0 a8 a8 3d 23 53 07 bd 75 79 ac 3d 0a e6 20 bc
       0.082353234 -0.03303827 0.084216036 -0.009820471
0003e0 ee 28 da 3c 88 f6 79 ba 04 ff c2 3d f0 e6 92 3c
       0.026630845 -0.0009535332 0.095212966 0.017932385
0003f0 ac ae 44 3d bd 87 5f bd 8c 87 d6 bd 1a 6c 05 3b
       0.048018143 -0.05457281 -0.10475072 0.0020358623

2.bias f4 [64]
000000 5e 02 08 3d 82 92 97 bd 21 ba e9 bd c8 46 da bd
       0.033205383 -0.07400991 -0.114124544 -0.10658032
000010 cb f2 cf bd bf ee e5 3d d1 fa 83 3d 95 2b 2c bd
       -0.10153731 0.11227178 0.06444324 -0.04203375
000020 a0 c7 77 3d 16 1f e8 bc b8 1e 2e bd e9 2a cf bd
       0.06049311 -0.028335135 -0.042509764 -0.10115606
000030 ef 65 b0 bd a1 cd c3 3d 29 c5 41 3c ac fe 98 3d
       -0.08613192 0.09560705 0.011826792 0.0747045
000040 66 1a d2 3d 5e 26 f8 bd e9 d2 87 bd 05 2b bd bd
       0.10258941 -0.12116693 -0.06632025 -0.09236721
000050 aa 94 ac 3d ee dd 92 bd be 3c f5 bd 16 39 81 3d
       0.08426793 -0.07171236 -0.11974476 0.063097164
000060 57 63 4f 3d e6 f8 a1 3d 36 f8 a7 3b 20 e4 ad bd
       0.050631847 0.07908802 0.0051260246 -0.08490777
000070 d9 19 c1 3d f5 c6 d3 3d fd 32 ec bd 67 b5 a3 bd
       0.09428758 0.103406824 -0.11533163 -0.07993584
000080 56 58 a8 3d 1d 92 aa 3d a9 4b 96 3d d9 9b f0 3d
       0.08219974 0.0832865 0.0733865 0.117484756
000090 58 76 dd 3d 4f 41 61 3d 00 ad 70 3a 18 59 d3 3b
       0.10813588 0.054993924 0.00091810524 0.00644983
0000a0 dc e0 1b bd 6f 67 57 bd 39 7e 91 bd 3f 91 58 3d
       -0.03805624 -0.052588876 -0.07104153 0.052872892
0000b0 7c 6e 07 3c 6b 04 d5 bd e3 f5 00 be 34 bc 86 bd
       0.008266088 -0.10401233 -0.12593798 -0.06578866
0000c0 72 0b 97 3d 98 bc a3 bd 6c e2 c1 bd 07 e4 a0 bc
       0.0737523 -0.07994956 -0.09467015 -0.019639982
0000d0 c9 f6 58 3d d1 72 de 3c a6 6a ac bd a9 34 f0 3d
       0.052969728 0.027154358 -0.08418779 0.11728794
0000e0 1e e8 fb 3d 77 25 16 3d 15 1e 5e bd 2a 3a be 3d
       0.12300132 0.036656823 -0.054227907 0.09288438
0000f0 ca d6 52 3c 8b 3e bd bc a1 c5 76 bc 17 65 82 3d
       0.0128685925 -0.023101112 -0.015061767 0.063669376

4.weight f4 [4, 64]
000000 e6 77 68 bd 96 3f e4 3d c2 43 d3 3d ef 5c 9c bc
       -0.05675497 0.111449406 0.10315658 -0.019087283
000010 df 5b 9e 3d ab 48 19 3d 7e 60 cb 3d 1f a1 1a bc
       0.07732367 0.037422817 0.09930514 -0.009437828
000020 68 d0 61 bb 01 5f a9 bd 17 23 cb 3d 01 81 9a bd
       -0.0034456495 -0.08270074 0.09918802 -0.07544137
000030 cf 6d 89 bd 5c 8c 4e bc 76 f1 b1 3d 0e a8 6f bd
       -0.067103975 -0.0126067065 0.08688633 -0.05850988
000040 e1 78 60 bd ba f7 ef bd ce 54 a0 3d 59 44 4f bd
       -0.05480278 -0.11717172 0.07828675 -0.05060229
000050 29 83 d5 3d 58 66 f3 3c d2 76 6b 3d a0 ba 95 bd
       0.104254074 0.029711887 0.057486363 -0.073109865
000060 29 93 60 bd 50 b5 c7 bd 0d 0f 50 3d 60 29 ee 3b
       -0.054827843 -0.097513795 0.050795604 0.007268116
000070 3e 48 91 bd 8a 39 e6 bc 8f a8 a1 3d c0 45 91 bd
       -0.07093857 -0.028103609 0.07893478 -0.07093382
000080 ce b9 29 bd b6 ad a0 bd 18 6c 3e 3d 05 cc f6 bc
       -0.041436963 -0.07845633 0.046489805 -0.030126581
000090 61 8e 77 bd 06 04 d9 bd b0 53 ac bd 4f 81 b9 bd
       -0.060438517 -0.105964705 -0.084143996 -0.09057867
0000a0 e0 ef f2 3d f0 fe aa bb 9c 46 a7 bd d9 21 f2 3c
       0.11862159 -0.005218379 -0.081677645 0.029557155
0000b0 0b 9d 03 bd a8 73 04 bc 8f f2 3b 3d 43 bc bb bd
       -0.03213219 -0.008084215 0.04588562 -0.091667674
0000c0 b4 16 cd 3c d0 96 19 3b 76 9c ee 3d f2 e8 cc 3d
       0.02503524 0.0023435839 0.11650936 0.10005368
0000d0 d6 48 d0 bd 1e 71 f7 3d 64 d0 5b 3a cb 06 d1 3d
       -0.10170142 0.12082122 0.00083852396 0.10206374
0000e0 f4 03 79 3c 6e be d5 3d 50 6f df 3d 69 fe f4 bd
       0.015198696 0.10436712 0.10909903 -0.119625874
0000f0 b6 b3 91 3d 5d e4 dc 3b 1e 55 de 3d 77 4c 61 3d
       0.07114355 0.00674109 0.108560786 0.055004563
000100 5c fb 91 bd 1b 06 f9 3d b4 34 e1 3c e2 53 89 bd
       -0.07128021 0.12159368 0.027490951 -0.067054525
000110 7f 9a a4 bd b7 18 6c 3c 64 33 9f bd 15 75 ff 3d
       -0.0803728 0.014410189 -0.07773474 0.124735035
000120 38 1a 77 bd c8 59 3f 3d be c0 4a 3c 52 4a da 3d
       -0.06032774 0.04671648 0.012375055 0.10658707
000130 7b b4 ca bd e2 ea b2 3c 0d 90 88 bd 87 96 ba bd
       -0.09897705 0.021840516 -0.066681005 -0.09110742
000140 f5 ef bb 3d 24 da b7 bd c4 f1 80 bd ab 70 83 bd
       0.091766275 -0.08977154 -0.06296113 -0.06417974
000150 92 a1 f4 3d 6a e0 f6 3d e1 c1 bd 3d 79 63 96 bd
       0.119448796 0.12054522 0.09265495 -0.07343192
000160 b6 d1 ef 3d 80 da 80 bd 27 a8 c5 bd a9 bc 92 bd
       0.11709921 -0.062916756 -0.09651213 -0.0716489
000170 cc 20 d0 3d 41 4b 17 3d 0c 05 ce 3d a3 f6 ca bd
       0.101625055 0.036937002 0.10059556 -0.099103235
000180 d0 8b 9d 3c ca d5 ec bc 66 bf e9 3d 09 42 f3 3d
       0.019231707 -0.028910536 0.114134595 0.118778296
000190 87 da 67 bd 54 9e cf bd dc 77 d2 bd b4 5f 88 3c
       -0.05660489 -0.101376206 -0.102767676 0.016647197
0001a0 8a d6 ba 3d 02 de fd 3d dc 19 d3 bd 2d 52 88 3d
       0.09122951 0.1239586 -0.10307667 0.06656299
0001b0 ea b6 a2 3d 81 8e c7 bc 19 5c de 3d 2a 48 b7 3c
       0.07945044 -0.024359943 0.1085741 0.022373278
0001c0 20 fd 8f bd eb ed 0f bd e8 14 50 bd e1 f2 84 3d
       -0.07030702 -0.035139006 -0.050801188 0.06491638
0001d0 c7 2e f9 3d 2f 74 02 3e 13 c1 76 3d a4 01 42 3c
       0.12167125 0.12739633 0.060242724 0.0118412115
0001e0 21 dc 66 3d c7 9d 71 bd ec 36 11 bd 9d 4e 02 3e
       0.056362275 -0.05898836 -0.03545277 0.12725301
0001f0 c0 c7 67 bd 1f 32 df bd fe bb 9d bd cf 3b 85 bd
       -0.05658698 -0.10898232 -0.07701872 -0.06505548
000200 e0 85 d3 3c f6 fa d6 3c cf 41 bc bc ed 80 49 bd
       0.025820673 0.026242714 -0.022980599 -0.04919522
000210 01 d8 d2 bc 68 df 8c bd 72 11 c4 bd fb 54 aa bd
       -0.025737764 -0.06878549 -0.0957364 -0.0831699
000220 dd 7c 11 3c 07 8a 84 bd 18 b9 dd bd 45 91 57 bd
       0.008879867 -0.06471639 -0.108263195 -0.052628774
000230 67 10 a1 bd 64 98 98 bd 79 1f dd 3d 9d 4f b5 bc
       -0.078644566 -0.07450941 0.107970186 -0.02213269
000240 4e 37 98 3d 6c 6e b0 bd 4e 53 ea bd 9e 7c ae bd
       0.074324235 -0.08614811 -0.1144167 -0.085198626
000250 ed bb 1e bd 10 9b bd 3d 71 60 c9 3d 30 56 fb bd
       -0.03875344 0.092580914 0.09832848 -0.12272298
000260 8c ce 2b bd c6 15 84 3d 9d 39 9d bd a1 c1 df bd
       -0.041945025 0.064494655 -0.076770045 -0.10925604
000270 df 95 69 3d 0c 97 86 3d 9b 2a 66 bd d9 a8 17 3d
       0.057027694 0.06571779 -0.056192975 0.03702626
000280 a5 1b 7d bd 71 dc d9 3d 51 13 5f 3c 8b 07 e1 3d
       -0.061793942 0.10637749 0.013615445 0.10987767
000290 45 1b 65 bd 6e 0f a8 bd d2 61 9d bd 24 b5 da bd
       -0.05593421 -0.08206068 -0.07684673 -0.10679081
0002a0 18 f2 23 bd 9f ee 27 bd 14 e3 2d 3d a2 1c 73 3d
       -0.0400258 -0.04099905 0.042452887 0.05935348
0002b0 0f 5b 71 3d a5 d6 df bd ca cc 59 bc 94 a5 21 3d
       0.05892473 -0.10929612 -0.013293454 0.03946455
0002c0 57 8a 80 bd 77 f9 fc bd 5e d1 f6 bd 6d cf b1 bc
       -0.06276386 -0.12352269 -0.12051652 -0.021705354
0002d0 07 58 f3 3d cf 79 97 bd f2 80 a9 3d 24 1c 85 3d
       0.11882024 -0.0739628 0.082765475 0.06499508
0002e0 c8 b6 a4 3d de aa 50 bb 34 c3 ae 3d 7c 62 ba bc
       0.08042675 -0.0031840126 0.08533326 -0.02275204
0002f0 5e c3 b2 bd 9e 1b cc 3d 59 a3 03 3d 39 6e 1e bd
       -0.087286696 0.09966205 0.032138202 -0.038679335
000300 cc fe d3 3d a2 98 d8 bd a8 cc 31 3c 76 87 e7 3d
       0.10351333 -0.105759874 0.0108520165 0.11305134
000310 c2 20 00 3e 2c 1f 02 3d 2a 55 91 bd 32 5a f4 3d
       0.12512496 0.03176801 -0.07096322 0.11931266
000320 6b d8 f5 3d 54 4f 00 3e d4 b8 69 3d e1 92 fb 3d
       0.12004169 0.12530261 0.05706103 0.12283874
000330 23 01 17 3d 98 35 fd bd b9 64 a8 bd 85 9a db bd
       0.03686632 -0.12363738 -0.08222336 -0.10722832
000340 ee e0 27 3c 92 d8 05 bc 84 a5 85 3d fd 52 a7 bd
       0.0102464985 -0.00816931 0.0652571 -0.08170126
000350 53 1d 99 3d 7e ec ad bd ad b6 13 3d 8c cc e3 39
       0.07476296 -0.08492373 0.036062885 0.00043449213
000360 bf 70 9b 3d 07 52 8b bc 8d 7b ba bd d4 65 9b bd
       0.07589864 -0.017006887 -0.09105597 -0.075877815
000370 5d 73 ec 3d 82 d0 b7 bc 85 27 b0 bb 06 fb ed 3b
       0.11545441 -0.022438291 -0.005375805 0.0072625903
000380 af 0f 4f 3d 97 3f 2b 3c b6 ac ed bb 3f c0 97 3d
       0.050552066 0.010452173 -0.0072532548 0.07409715
000390 0b 72 9d bd f5 46 49 3c 98 d3 ea bd be 73 1c 3d
       -0.076877676 0.012284984 -0.114661396 0.038196318
0003a0 f0 07 eb 3c 10 10 c2 bd f0 21 af bd 49 bd b1 bd
       0.028690308 -0.0947572 -0.08551395 -0.086786814
0003b0 7a 63 94 3d e2 a1 73 bd 80 df d0 bc fe 5b ed 3c
       0.07245536 -0.059480555 -0.025497198 0.02897453
0003c0 ca 8b 9f 3c 50 3a 99 3d 30 cf a6 bd cc 7a 24 3d
       0.019475836 0.07481825 -0.08144987 0.04015617
0003d0 c7 48 80 3c 6a c1 84 bd e9 c1 ef 3d b1 df 9b bd
       0.015659703 -0.06482203 0.11706907 -0.07611025
0003e0 02 91 36 bd 1c 1e ee 3d f6 24 92 3d 61 f6 b6 3d
       -0.044571884 0.11626837 0.07135956 0.08933712
0003f0 0c d8 fd bd 15 6d a6 bc f4 1b 8b bd 4c 73 f0 bc
       -0.12394723 -0.020315686 -0.06792441 -0.029351853

4.bias f4 [4]
000000 ae fb 95 3d fa 7a a3 3d 2d 23 d6 bc d4 64 75 bc
       0.07323395 0.0798244 -0.02613982 -0.014977653
