dqn_nor.pth (torch, 36616 bytes, 6 tensors)

0.weight f4 [64, 64]
000000 40 75 54 3d 3c 9e 32 3d 54 63 75 bd 40 f5 3d 3b
       0.05186963 0.043607935 -0.05990918 0.0028985292
000010 9c 8e c2 bd 9a 90 b4 bd 60 2f 95 bb 92 fd f4 bd
       -0.09499857 -0.08816643 -0.0045527667 -0.11962427
000020 78 35 54 bd f4 fe e2 3d 9c ff 8a 3d ac af 5b bd
       -0.051808804 0.11083785 0.06787035 -0.05363433
000030 d8 01 cc 3d c0 3d 47 3c 50 80 72 bd 84 c7 6f bd
       0.09961289 0.012160718 -0.0592044 -0.058539882
000040 c6 aa eb bd 4e a0 80 bd 80 85 6e bc 00 78 b1 ba
       -0.11507182 -0.06280576 -0.014558196 -0.0013539791
000050 80 da c1 bb e4 00 62 3d 38 ca ae bd b0 b4 6a 3d
       -0.00591594 0.05517663 -0.08534664 0.057301223
000060 f8 ec b5 bd 86 9c 81 3d 50 26 28 3d 0c 79 2a bd
       -0.08883089 0.063286826 0.041052163 -0.041619346
000070 58 2f 05 bd d8 34 e4 bd 34 4d 9b 3d 40 cb 80 3d
       -0.032515854 -0.11142892 0.07583085 0.06288767
000080 18 a7 35 3d 40 e4 1e bc 86 be e6 bd ca c6 d8 bd
       0.044348806 -0.009697974 -0.11266808 -0.10584791
000090 10 da 70 3d 4e 0f e3 bd a4 43 4e 3d a4 ca f9 3d
       0.05880171 -0.110869035 0.050357476 0.12196854
0000a0 2c c2 79 3d 02 e3 d0 bd a0 e9 b3 bd 68 26 43 bd
       0.060976192 -0.10199548 -0.08784795 -0.04764405
0000b0 ca 03 ab 3d 1e 58 be 3d 6c 8d a7 3d 80 ff 70 3c
       0.08350332 0.09294151 0.08181271 0.014709353
0000c0 bc 38 77 3d 7e 06 93 3d 80 49 12 bd 08 85 c6 3d
       0.06035684 0.07178973 -0.035714626 0.096933424
0000d0 60 ef a6 3b 82 1c a4 3d be 7d ae bd 52 64 93 bd
       0.0050944537 0.0801325 -0.08520077 -0.07196869
0000e0 3e 9d 82 bd 5c df 34 3d b6 96 db bd 80 83 3e 3c
       -0.06377648 0.044158325 -0.10722105 0.011628032
0000f0 c0 5c bb 3d 8a 5d f9 3d 80 27 0c 3b fe ce 92 bd
       0.0914855 0.12176044 0.0021385849 -0.07168387
000100 dc 22 b5 bd 72 51 a5 3d cc 6b 8f bd f8 6e cb bd
       -0.088445395 0.08072175 -0.070029825 -0.09933275
000110 3c 8d 60 bd d0 2d 78 bc 34 14 c5 3d e0 96 f6 bd
       -0.05482219 -0.015147641 0.09622994 -0.12040496
000120 c8 4d df 3d ec 65 ed bd 98 d3 ca 3c f8 61 8a bd
       0.109035075 -0.11591706 0.024759099 -0.06756967
000130 2e 70 fd 3d 18 44 81 3d fc 31 26 bd 00 37 96 3b
       0.12374912 0.06311816 -0.040575013 0.004584193
000140 e4 b0 6d bd 88 68 98 3d b0 23 23 3c e2 05 ca bd
       -0.058030024 0.07441813 0.009957239 -0.09864403
000150 54 29 9b bd 60 4d 15 3c f0 2b 6a 3d 00 29 f7 bd
       -0.07576242 0.009112686 0.05717081 -0.12068367
000160 30 d2 38 bc 04 42 cc 3d 88 8b 2c bd a8 68 97 3d
       -0.011280581 0.09973529 -0.042125255 0.073930085
000170 46 b0 99 3d b6 f9 f1 bd 5c de 35 bd 10 c7 d4 bd
       0.075043246 -0.11815207 -0.04440151 -0.10389531
000180 b0 16 0d 3c 00 90 6d 39 e8 7d ed bc d0 27 c6 bd
       0.008611366 0.00022655725 -0.0289907 -0.096755624
000190 34 c6 8c 3d d8 36 84 3d c0 91 78 bd e4 e9 34 bd
       0.06873742 0.06455773 -0.060685873 -0.044168368
0001a0 52 5f ad 3d 96 42 aa 3d 58 0e 67 bd 2e b5 96 bd
       0.084654465 0.083134815 -0.056410164 -0.07358776
0001b0 60 58 b4 3d 24 fb 52 3d e4 7b 65 bd e0 f7 c4 bc
       0.08805919 0.051509038 -0.056026354 -0.024043977
0001c0 08 4b 1e bd 40 2b 37 bd 4c b6 f6 3d ac 2b 8e 3d
       -0.038645774 -0.04471898 0.12046489 0.069419235
0001d0 d4 04 85 bd a8 9c 57 3d 40 a8 49 bb 4a 56 87 bd
       -0.064950615 0.052639633 -0.003077045 -0.06608255
0001e0 88 f6 2f bd 44 03 93 3d d8 38 b5 3c c4 94 13 3d
       -0.04295972 0.07178357 0.022121832 0.036030546
0001f0 04 68 7e bd 38 66 a6 3c 20 53 80 bc 50 61 ca bc
       -0.062110916 0.020312414 -0.015664637 -0.024704605
000200 10 b8 33 3d e0 7e 81 bc 4c c3 ff bd 68 90 84 bd
       0.043876708 -0.015807569 -0.12488422 -0.06472856
000210 b4 99 a8 bd 80 a0 68 3c 06 2a b8 bd 30 f0 24 bd
       -0.082324415 0.014198422 -0.0899239 -0.040268123
000220 e8 97 2e 3d f0 8f f9 bc 7e ab c1 bd 58 ef af 3d
       0.042625338 -0.030464143 -0.09456538 0.08590573
000230 60 b5 e6 3d 7c c5 d3 3d 60 b9 77 3c 1a ba d9 3d
       0.11265063 0.103404015 0.01511988 0.10631199
000240 a2 0f c0 bd 28 d0 92 bd 98 79 0f 3d 04 67 3c 3d
       -0.09377982 -0.07168609 0.03502807 0.04599668
000250 46 b9 94 bd ee 67 86 bd f0 68 f4 3d 58 fb 67 3d
       -0.072619006 -0.06562792 0.11934078 0.056636184
000260 48 72 c9 3c b0 85 73 3d 60 68 f9 3b 48 af 15 3d
       0.024590626 0.059453666 0.0076113194 0.036544114
000270 04 ff 7b bd 88 14 ae bd 38 2b 6a 3d 92 72 db 3d
       -0.0615225 -0.0850001 0.057170123 0.10715212
000280 b2 da d9 bd c6 b3 ba bd 74 5f b5 3d f8 75 7e bd
       -0.10637416 -0.0911632 0.08856097 -0.062124223
000290 82 d4 c4 bd 92 d7 a7 bd d8 9c 5f bd 24 1a 68 bd
       -0.09610845 -0.08195414 -0.054592937 -0.056665555
0002a0 10 0f 58 3d bc aa 32 3d a0 52 04 bd 26 54 a2 bd
       0.05274874 0.043619856 -0.03230536 -0.07926206
0002b0 e0 af ab 3c 22 f5 e7 bd ba d8 86 3d e4 ce 0c 3d
       0.020957887 -0.11326052 0.06584306 0.034376994
0002c0 3c 3a 71 3d b2 64 b2 3d 26 f5 b5 bd 08 65 8f bc
       0.058893427 0.08710612 -0.08884649 -0.01750423
0002d0 50 6f 25 3c 68 52 e6 bd 00 4c ea bc e0 f1 82 bb
       0.01009734 -0.112461865 -0.028600693 -0.003996119
0002e0 da 22 c7 3d cc af 2f 3d a8 9d ad 3c e4 e3 eb bd
       0.09723444 0.042892262 0.02119334 -0.11518076
0002f0 b0 dc 99 3c 10 e7 08 bc 78 47 eb bc 30 33 44 3c
       0.01878199 -0.008355871 -0.028720602 0.011975095
000300 d8 19 01 3d 42 4d f4 3d 9e e2 d4 3d 1c 4f 11 bd
       0.031518787 0.11928798 0.10394786 -0.035475835
000310 b0 5a bd bc 80 2c 3b bd 56 ee d2 3d 80 75 60 3d
       -0.023114532 -0.045696735 0.10299365 0.054799557
000320 0a ec fb bd d4 5a ae bd 98 4b cb 3c e4 f6 ed bd
       -0.1230088 -0.08513418 0.02481632 -0.11619356
000330 d8 0d 34 bd 3a dd 92 bd 1e 26 b9 3d fa 3c eb 3d
       -0.043958515 -0.07171102 0.090404734 0.1148624
000340 20 d5 95 bd 90 a3 f5 bc d8 27 ac 3d 44 f7 58 3d
       -0.07316041 -0.02998522 0.08406037 0.052970186
000350 cc ac 18 3d 5c 9f 04 3d 2e d1 f8 3d f2 ea e7 bd
       0.037274167 0.03237854 0.12149273 -0.11324109
000360 58 56 de 3c 18 01 aa bd 04 fc 8c bd 96 8c a2 bd
       0.027140781 -0.0830099 -0.06884006 -0.07936971
000370 bc e5 91 bd 18 ea fc bd f2 d1 c4 bd e0 b5 f5 bc
       -0.071238965 -0.12349337 -0.096103564 -0.029993951
000380 4c c0 a3 bd 5e 28 90 3d 80 4c 87 bb 34 77 ae 3d
       -0.07995662 0.070389494 -0.0041289926 0.0851883
000390 20 73 a3 3b 4e e9 82 bd 7a 08 a1 3d 74 8e d8 bd
       0.004988089 -0.063921556 0.07862945 -0.10574046
0003a0 54 61 82 3d 38 d5 0a bd 30 6a 71 bd 88 6d a2 bd
       0.0636622 -0.033894747 -0.05893916 -0.07931048
0003b0 98 b2 ef 3c 3c 97 db bd 8c 7c 97 3d 78 52 f8 bc
       0.029259965 -0.10722205 0.07396802 -0.030312762
0003c0 e0 7b 34 bd 00 a4 c8 3a a0 3a f5 bd 00 ed df 3c
       -0.04406345 0.0015307665 -0.119740725 0.02733469
0003d0 90 14 63 bd 58 5d c6 bc c0 f8 e8 bd d8 a0 ba 3d
       -0.05543953 -0.024214432 -0.1137557 0.0911271
0003e0 80 bf 12 bb 28 22 35 3d 80 97 ba bd 18 c3 46 bd
       -0.0022391975 0.044222027 -0.091109276 -0.0485259
0003f0 6e a9 b5 3d 28 9b c6 bc 12 b3 84 3d 8c 48 b3 bd
       0.08870207 -0.024243906 0.064794675 -0.087540716

0.bias f4 [64]
000000 2c 66 b0 bd 68 c5 89 3c ec 10 53 3d 28 f8 83 bc
       -0.08613238 0.016817763 0.05152981 -0.016109541
000010 c0 5f 03 3c 0c 7e 57 3d b0 58 92 3d 94 f0 51 3d
       0.008018434 0.052610442 0.07145822 0.051254824
000020 80 19 ca bc 68 d6 99 bc 40 aa 4c 3d ac 89 f6 bd
       -0.024670362 -0.018778995 0.04996705 -0.120379776
000030 ac 2e 56 3d d6 33 ab bd 20 be 7c bd 72 e3 fd 3d
       0.052290604 -0.08359496 -0.061704755 0.123968974
000040 a0 c7 e3 bb 8c f5 9f bd c4 3d 82 3d 44 f2 df 3d
       -0.0069512874 -0.07810506 0.06359437 0.109348804
000050 6c 5d 67 bd 78 dc 54 bd a0 c0 4c 3c c0 1a 16 bc
       -0.05648558 -0.051968068 0.012497097 -0.009161651
000060 48 ba 79 3d 24 1f 27 3d a4 58 79 bd 94 57 7c 3d
       0.060968667 0.040801182 -0.06087555 0.06160696
000070 82 73 94 bd d2 eb db bd 54 87 98 3d 7c df 4a bd
       -0.07248594 -0.107383385 0.07447687 -0.049529538
000080 80 2c e2 ba 70 a2 ae 3c 6a b0 a5 bd 40 0c 40 bd
       -0.0017255694 0.02131769 -0.08090289 -0.046886683
000090 96 3c 91 3d 7e 0b c8 3d 70 20 81 bc 8e 39 ef 3d
       0.07091634 0.09767817 -0.015762538 0.116808996
0000a0 ea d0 9b bd 38 ad f4 3c 48 41 c1 3c 88 75 ec bd
       -0.076082066 0.029867753 0.023590699 -0.11545855
0000b0 68 82 c5 3d 52 4b 81 3d 88 0d cc 3c 72 0b b6 3d
       0.09644014 0.06313194 0.024908796 0.08888902
0000c0 60 3f a9 bd c0 62 e0 3d 38 0a 95 bd aa c4 94 3d
       -0.08264041 0.10956335 -0.0727734 0.07264073
0000d0 16 88 b3 3d 1a 56 90 bd c4 b9 a5 bd b0 62 5e 3c
       0.08766191 -0.070476726 -0.080920726 0.013573334
0000e0 58 00 09 3d 92 a3 86 bd da 10 cd bd 0c 30 a6 bd
       0.033447593 -0.06574167 -0.1001298 -0.08114633
0000f0 18 cb f1 bd 40 bd 9f bd 60 75 a1 bb 48 ae 44 bd
       -0.11806315 -0.077997684 -0.0049273223 -0.04801777

2.weight f4 [64, 64]
000000 c0 ab e1 3d 0a d7 99 bd dc 30 bc 3d c2 b5 ad bd
       0.11019087 -0.075117186 0.09189007 -0.08481933
000010 12 8e ea 3d e0 9b 64 3c e2 db ad bd d0 99 f5 bc
       0.11452879 0.013953179 -0.08489205 -0.02998057
000020 78 4f ef 3d ae d0 b6 3d 0c 3b 14 bd 80 7d 7e bb
       0.11685079 0.08926521 -0.036189124 -0.0038832128
000030 a0 64 61 3c f0 41 ca 3c 70 9c 92 bc 5e 35 bd 3d
       0.013756901 0.024689645 -0.01789686 0.092386946
000040 a0 72 f9 bb 7a a1 b0 bd 48 58 bc bc cc bf 81 bd
       -0.0076125413 -0.08624549 -0.022991315 -0.063354105
000050 3c ad 1f 3d 40 26 14 3b c2 81 df bd 98 ba c3 3c
       0.03898357 0.0022605807 -0.10913421 0.023892686
000060 a0 27 61 3d 00 14 4c b9 28 6f 94 bd 4a 8e db 3d
       0.05496943 -0.00019462407 -0.07247764 0.10720499
000070 10 2c 29 bc c0 6c e5 3c f0 bb 9b bc c4 06 75 3d
       -0.010325447 0.028005958 -0.019010514 0.059820905
000080 20 00 53 bd 40 8d 7a 3c 58 c4 9a bc 18 cc cc 3d
       -0.05151379 0.015292466 -0.018892452 0.09999865
000090 3a 4f 9a 3d c0 5f d1 bc 90 bd 4d bd 28 8b 83 3d
       0.075346425 -0.025558352 -0.05022961 0.06423026
0000a0 f2 55 9b 3d 98 c9 b5 bc 60 b0 a5 bb 70 47 6a 3d
       0.07584752 -0.022190854 -0.005056426 0.057197034
0000b0 54 98 cd bd 70 28 9b bd bc 4d 16 3d 94 69 61 bd
       -0.1003882 -0.07576072 0.036695227 -0.055032328
0000c0 0c cf 39 3d 2a fa f7 3d 50 a8 b1 3d 40 1e de bd
       0.04536347 0.12108262 0.08674681 -0.108456135
0000d0 04 27 60 bd 16 74 89 bd 98 6d d1 3d 08 63 af bc
       -0.05472471 -0.06711595 0.102259815 -0.021409526
0000e0 4c 48 77 3d b0 8a 2d 3c 46 aa ef 3d 14 fe 2f 3d
       0.060371682 0.010592148 0.11702399 0.042966917
0000f0 a4 3f 99 3d f0 3a 3c 3c 06 e1 f1 bd 40 65 ce bd
       0.074828416 0.011488661 -0.11810498 -0.10077906
000100 80 c3 c7 bd 78 3a 8e 3c 40 5f 2f bb d8 ed d3 bd
       -0.097540855 0.017361864 -0.0026759654 -0.103480995
000110 3c 08 d2 bd 82 cc e1 bd 00 d2 46 3b c8 3a bd bc
       -0.10255477 -0.11025335 0.0030337572 -0.023099318
000120 ec 9c 81 3d dc f1 db bd 9c 9f 66 bd ac 42 1b 3d
       0.063287586 -0.107394904 -0.05630456 0.03790538
000130 76 85 f0 3d 90 04 53 bd b0 78 24 bc 02 a0 97 3d
       0.11744206 -0.051518023 -0.01003854 0.07403566
000140 b6 90 9b bd 00 9e c8 3d c0 8d b0 3c 68 ef cf bd
       -0.07595961 0.09795761 0.021551967 -0.10153085
000150 78 a0 83 3c 00 ee da 3b 02 fc 84 bd 5e c8 a6 3d
       0.016067728 0.006681204 -0.06493379 0.08143686
000160 40 89 2c bb f8 69 07 3d 14 f9 ad bd 3a 8e d2 bd
       -0.0026326925 0.033060044 -0.084947735 -0.10281034
000170 1e 7b ab 3d 5e 51 e1 3d 30 0c 0c bd 5c 81 ad bd
       0.08373092 0.11001848 -0.03419131 -0.08471939
000180 76 44 90 3d 00 f7 c6 bc 00 98 c7 ba 8e 69 e5 bd
       0.07044308 -0.0242877 -0.0015227795 -0.112017736
000190 0a 17 b6 bd f4 33 c1 bd 40 0e fd bd c8 35 6f 3d
       -0.08891113 -0.094337374 -0.123562336 0.0584009
0001a0 84 3f 05 bd bc db b2 bd dc 23 38 bd 70 8c 54 bc
       -0.032531276 -0.08733317 -0.044956073 -0.012972936
0001b0 70 bd 46 bc a2 1c fa 3d a8 e0 e5 3c 44 30 8a 3d
       -0.012130126 0.122124925 0.028061226 0.06747487
0001c0 ac 6a 06 3d 88 16 1a bd 50 f5 58 bd 20 5e 60 bc
       0.032816574 -0.037619144 -0.052968323 -0.013694316
0001d0 84 98 ca bd 00 d4 91 bb 38 b1 37 3d 40 04 90 bd
       -0.09892371 -0.004450321 0.044846743 -0.070320606
0001e0 40 ce 67 3b 90 d1 84 3d a4 09 b0 3d d0 be a5 bc
       0.0035370737 0.064852834 0.08595589 -0.020232588
0001f0 74 7b 6a 3d 20 c3 81 3c 38 ff f2 3d 00 ca 55 bc
       0.05724664 0.015840113 0.11865085 -0.013048649
000200 94 eb 12 3d 7a fa fd bd e2 14 a4 bd 18 3e 83 3d
       0.035869196 -0.1240129 -0.080117956 0.06408328
000210 a0 fe 9e bd 90 e1 34 bc ba 8c 8b bd ac 1c 91 3d
       -0.077634096 -0.011040106 -0.06813951 0.07085547
000220 a2 53 ab 3d d8 15 9c bd b4 e0 20 3d b4 28 2f 3d
       0.08365561 -0.07621354 0.039276794 0.042763427
000230 62 c5 9a 3d ea 98 c4 3d 42 05 d3 bd 40 7a 60 3b
       0.07557179 0.095994785 -0.10303737 0.0034252554
000240 6c 9b 47 bd 40 a4 f4 3b 76 01 b8 3d 30 ea a9 3d
       -0.048732206 0.007465869 0.08984654 0.08296621
000250 6c 60 86 3d b8 ce d9 bc 10 c4 d2 3d b0 f5 ed bd
       0.0656136 -0.026587829 0.10291302 -0.11619127
000260 74 5d d5 bd 40 df 73 3b 8a ba 88 bd 06 05 f0 bd
       -0.104182154 0.0037211925 -0.066762045 -0.11719708
000270 ae 56 b3 3d d8 72 95 3c c0 22 1d 3c a0 54 44 bd
       0.08756767 0.018243238 0.009590805 -0.047932267
000280 90 c1 a9 bc a4 b0 86 3d a4 5e 2d bd 70 30 47 bd
       -0.02072218 0.0657666 -0.042326584 -0.048630178
000290 86 4b e7 3d 4e 4a a1 bd 40 a4 48 3b 9c f6 d6 3d
       0.11293702 -0.078755006 0.0030615479 0.10496256
0002a0 d0 d1 81 bc 9c dc 2d 3d f0 dc e0 bd d8 7c 94 3d
       -0.015847117 0.042446718 -0.109796405 0.072503746
0002b0 ca 4c aa bd 4e b5 f8 bd 92 88 c2 bd 68 7b d0 3d
       -0.083154276 -0.12143956 -0.09498705 0.10179788
0002c0 18 88 ae bd 88 0d 7c bd e0 b6 8b bb a0 8e bb bb
       -0.085220516 -0.061536342 -0.0042637438 -0.0057237893
0002d0 d4 33 cb bd c8 66 4f 3d c8 f7 39 3d 88 f5 cf 3d
       -0.09921995 0.05063513 0.04540232 0.10154253
0002e0 60 81 30 3d ec 44 5e 3d 08 52 4e 3d c8 ff 84 3c
       0.04309213 0.054264948 0.0503712 0.016235247
0002f0 40 44 51 3b 60 c6 83 bd 22 70 ca bd 38 49 5a 3d
       0.003193155 -0.064343214 -0.09884669 0.053292483
000300 18 94 d9 bc 66 09 8a bd e0 6a 7e 3c e4 d9 e9 3d
       -0.026559874 -0.06740074 0.015528411 0.114185125
000310 c4 b8 38 bd 56 d2 d7 3d 1e 6f c2 3d 06 93 c6 3d
       -0.04509808 0.10538165 0.0949385 0.09696011
000320 b2 95 e9 bd 50 3d 88 bd 40 68 19 bd 7e bc b2 bd
       -0.11405505 -0.066523194 -0.037452936 -0.08727358
000330 d4 59 2e 3d c0 c6 22 3d ac 61 12 bd ce b0 bf bd
       0.042566136 0.039740324 -0.03573768 -0.09359895
000340 10 d6 19 3d 9c 1c 38 3d 64 ed dc bd f6 8a fa 3d
       0.03755766 0.04494916 -0.10787466 0.12233536
000350 c8 12 b2 3d 08 92 5b 3d 68 7a 8e 3c 6a 4a db bd
       0.086949885 0.053606063 0.017392352 -0.10707553
000360 80 c8 ab 3b b0 55 fc bd 86 cc ee 3d 2a de d2 bd
       0.0052424073 -0.12321031 0.116601035 -0.10296281
000370 76 43 c2 bd 68 62 5e bd c4 1b 97 3d 74 0c 64 bd
       -0.094855234 -0.054293066 0.07378343 -0.05567594
000380 98 89 11 bd c8 57 0c bd 9a 2a ee bd 06 8b a0 3d
       -0.03553161 -0.034263402 -0.11629219 0.078390166
000390 30 76 a1 bc b0 1c 0e bc d0 2e 14 3d d0 a5 6a bd
       -0.019709677 -0.008673832 0.036177456 -0.057287037
0003a0 94 c8 a9 3d f0 e5 b5 bc 24 52 e9 3d 30 34 5e 3c
       0.0829021 -0.02220437 0.1139262 0.013562247
0003b0 10 e8 13 bc 40 00 b5 bb 30 c4 18 3d 94 2c 7b bd
       -0.009027496 -0.0055237114 0.037296474 -0.06132181
0003c0 c8 a6 ff bd 96 3a a6 bd 80 9d 7d 3d f4 fc ba 3d
       -0.12482983 -0.08116643 0.06191778 0.09130278
0003d0 f0 27 f0 bd ec 0f 5d bd 4a 4c e8 bd 50 00 e8 3c
       -0.117263675 -0.053970262 -0.11342676 0.028320462
0003e0 e0 1f 0c bc 66 d0 a2 3d b2 5b a2 3d 00 7a 32 bd
       -0.0085525215 0.07949905 0.07927646 -0.04357338
0003f0 f4 4e a9 3d c8 ca 1b bd 88 8c e8 3c c8 a1 dd bc
       0.08267012 -0.038035184 0.028387323 -0.027054682

2.bias f4 [64]
000000 3a e2 b6 bd 30 fb 61 3d ce 5b ef bd 2e 72 ec bd
       -0.08929868 0.05517119 -0.11687432 -0.115452155
000010 98 5e a3 bd f0 7c 9d 3d d0 07 05 3d dc 35 40 bd
       -0.07977027 0.076898456 0.032478154 -0.046926364
000020 ea 8d 90 bd 3c 4e 7e 3d 40 73 9b bb e4 21 80 bd
       -0.07058318 0.06208633 -0.0047439635 -0.06256464
000030 00 36 68 bd c0 25 f9 3d ac 0d 3a 3d 3c 41 0d 3d
       -0.056692123 0.12165403 0.045423195 0.03448604
000040 f2 47 e6 3d 18 4f 32 bd b2 e0 af bd 52 ca 9f 3d
       0.11244191 -0.04353246 -0.08587779 0.078022614
000050 76 45 9c 3d 34 e9 55 bd 2c 7c 33 bd ac df 56 3d
       0.07630436 -0.052224353 -0.04381959 0.052459404
000060 90 fb 37 bc a0 0a 2b 3c fe 9a d9 bd 9a 6d 84 bd
       -0.011229411 0.010439545 -0.106252655 -0.06466217
000070 90 11 cf 3c e0 50 9a bb 40 78 d8 bd e8 c1 a4 3c
       0.02527693 -0.004709348 -0.10569811 0.020111993
000080 58 57 16 bd 00 53 e5 3a 28 5f 9d 3c 20 aa 7f bd
       -0.03670439 0.0017496049 0.019210413 -0.062418103
000090 50 82 53 bc 00 71 0a 3b a0 7d c8 bb 70 21 5f 3c
       -0.012909487 0.0021124482 -0.0061184913 0.013618812
0000a0 f8 29 b9 bc e0 cd a3 bc a6 a4 d3 3d 24 25 99 3d
       -0.02260302 -0.01999563 0.103341386 0.07477787
0000b0 aa 96 e0 bd 80 2e ba 3d 54 0e 02 3d 36 c8 ea 3d
       -0.10966237 0.090909004 0.031751946 0.114639685
0000c0 10 d7 1e bc b0 b7 86 bd a8 48 a1 3c dc 65 15 3d
       -0.00969483 -0.06578004 0.019687966 0.036474094
0000d0 88 45 7e 3d 3c 19 0d bd 8c a1 9a bd 4c c5 8f 3d
       0.06207803 -0.034447894 -0.07550344 0.07020053
0000e0 b0 5d d9 3c e8 de 7e bd 16 51 fe bd 44 09 7b bd
       0.026533931 -0.0622243 -0.1241781 -0.061288133
0000f0 48 b1 9b bd ec 37 c5 bd 48 bc 9b bc 90 17 b1 3c
       -0.07602173 -0.09629807 -0.019010678 0.02161768

4.weight f4 [4, 64]
000000 60 a1 4e 3d d0 0b 87 bd 6c 54 95 3d f8 b5 2c bd
       0.050446868 -0.0659405 0.07291493 -0.042165726
000010 88 e0 a3 bc 40 a8 df bd 58 20 b1 bd 38 d6 dd bd
       -0.020004526 -0.10920763 -0.08648747 -0.108318746
000020 b0 1c 69 3d 5c ed a2 bd a8 6b 81 bc 78 f4 dc bc
       0.056912124 -0.07955429 -0.015798405 -0.02697204
000030 f0 f6 58 bc 8c 7c 28 3d 90 22 58 bd 16 8e be bd
       -0.013242468 0.041134402 -0.052767336 -0.093044445
000040 0e 70 d0 bd 40 a4 0e bd 10 f6 ac bc b8 3e e3 bd
       -0.10177623 -0.03482461 -0.021113425 -0.11095947
000050 ce e5 82 3d 00 27 f1 3b 3e 93 d2 bd 72 7b bd 3d
       0.06391488 0.0073593855 -0.102819905 0.09252061
000060 22 98 9c 3d f4 e5 85 bd fa 06 d2 3d 30 05 fa 3d
       0.076462045 -0.06538001 0.10255237 0.12208021
000070 64 96 3b bd ce d0 e3 3d b8 ef 9d bd 00 25 f7 bb
       -0.04579772 0.11123811 -0.07711738 -0.0075422525
000080 00 81 57 3a 76 0e f7 bd e8 05 c3 3c 94 0c 28 bd
       0.00082208216 -0.12063305 0.023806527 -0.04102762
000090 b0 77 60 3d a4 54 7d bd 80 b8 63 bc ce 2e 86 3d
       0.054801643 -0.061848298 -0.013898969 0.06551896
0000a0 e4 38 6d bd 46 80 ff bd 68 6f 0e bd c0 97 5e bc
       -0.057915583 -0.12475638 -0.034774214 -0.013585985
0000b0 00 1d f2 bb bc 05 14 3d 0a 92 c0 bd 80 f0 0a bd
       -0.007388711 0.03613828 -0.09402855 -0.033920765
0000c0 50 9f 39 3c e8 1f 9c 3c 80 c8 a9 bb 94 58 08 bd
       0.011329487 0.019058183 -0.005181372 -0.0332876
0000d0 88 73 05 bd 10 dc 8a bd a8 45 28 bd e0 59 78 bd
       -0.032580882 -0.06780255 -0.041082054 -0.060632586
0000e0 04 b0 b3 bd 4a 0f 82 3d 84 2d 33 bd 7e cf ec 3d
       -0.08773807 0.063505724 -0.04374458 0.115630135
0000f0 dc 2a fd 3d dc 4b 96 bd 5c 1a f7 bd 98 f4 5b bd
       0.123616904 -0.07338688 -0.120655745 -0.05370006
000100 68 aa 6d bd 22 90 ee bd a0 e1 88 3d 0c ba 12 bd
       -0.05802384 -0.11648585 0.066836596 -0.03582196
000110 9a bb 9b 3d e0 17 0a 3d 28 7f 24 3d c2 b6 a4 bd
       0.076041415 0.033714175 0.04016033 -0.08042671
000120 54 53 17 3d 5c e9 93 bd bc ea c4 3d f0 d7 c2 bc
       0.036944702 -0.07222244 0.096150845 -0.023784608
000130 b8 26 e9 bd dc de 75 3d 00 31 a8 bb 00 a9 e2 bb
       -0.11384338 0.06002699 -0.0051327944 -0.006917119
000140 a8 e4 f4 bc 80 50 d1 bb 90 31 d3 bc 30 ba cb bd
       -0.029894188 -0.00638777 -0.02578047 -0.09947622
000150 94 7e be bd 54 24 37 bd b8 af f3 3c a6 68 8f bd
       -0.093014866 -0.04471238 0.029746875 -0.07002382
000160 6c 0d c6 3d e4 a1 ad bd c6 a2 9a 3d 68 9a da 3d
       0.09670529 -0.08478144 0.07550578 0.10673982
000170 20 a7 56 3d c0 84 ba bb 14 44 37 3d a0 ce eb bb
       0.052405477 -0.0056920946 0.04474266 -0.0071962625
000180 10 cb ab bd 24 b9 e6 3d 0c 61 22 3d 20 d3 13 bc
       -0.083883405 0.112657815 0.039643332 -0.009022504
000190 a4 7e 1a bd 54 b8 9e 3d c4 2d 86 3d 88 08 a5 3d
       -0.03771843 0.077500015 0.06551698 0.08058268
0001a0 18 4a 7f bd cc 49 74 bd 68 98 b7 bc 6c ec e3 bd
       -0.06232652 -0.05964069 -0.02241154 -0.11129078
0001b0 ca c1 e3 3d 20 58 a4 3d e2 4c a7 3d ba 93 e9 3d
       0.11120947 0.08024621 0.08168961 0.1140513
0001c0 64 15 21 3d 4c 79 3e bd e4 4b 8a 3d 34 70 71 3d
       0.03932704 -0.046502396 0.06752756 0.058944896
0001d0 e0 df b5 bd 3c 55 df bd 78 7e 94 3c 84 f1 11 bd
       -0.088805914 -0.10904929 0.018126711 -0.035630718
0001e0 b0 3e bb bd c0 f5 62 3b 46 c8 eb bd c0 c2 27 bb
       -0.09142816 0.0034631342 -0.115128085 -0.0025598258
0001f0 b0 c2 9d bc bc be cc 3d 40 9a 91 3b e8 fc 8e bc
       -0.019257873 0.09997317 0.004443437 -0.01745458
000200 a8 38 d4 bc 30 71 f1 3d 18 7a 65 3d 82 48 98 bd
       -0.025905922 0.11789167 0.05602464 -0.07435705
000210 a0 40 54 3d 80 d4 26 bc 70 bd 9c 3c da 12 b6 bd
       0.051819444 -0.0101825 0.0191333 -0.088903144
000220 c0 0d 82 3c 64 94 5c bd 90 21 f6 3c 20 80 df 3c
       0.015875697 -0.053852454 0.0300453 0.027282774
000230 7a 7f bb 3d 74 05 8f bd 78 cc 04 3d 20 65 3b 3c
       0.091551736 -0.06983462 0.03242156 0.011437684
000240 52 46 ef bd b0 3c 55 3c a2 c5 e0 bd 40 f6 1b bc
       -0.116833344 0.013014957 -0.109751955 -0.00951916
000250 c0 e0 ac 3c 92 2a 81 bd 20 c1 0d 3c 2c 6d 1e bd
       0.021103263 -0.06306948 0.008652002 -0.038678333
000260 c0 ba cb 3c fc 45 ac bd 80 96 17 3c 30 77 71 bd
       0.024869323 -0.08411786 0.009252191 -0.058951557
000270 14 50 b3 3d 00 e7 f2 bb 42 c5 ff 3d e8 20 00 bd
       0.08755508 -0.0074127913 0.12488796 -0.03128138
000280 46 20 88 bd 42 b4 8e 3d 54 8d 46 3d c2 0d dc bd
       -0.06646781 0.06967975 0.048474625 -0.107448116
000290 bc d2 03 bd 04 e6 01 3d 64 e9 ae 3d ec 31 45 bd
       -0.032183394 0.0317135 0.085406095 -0.048143312
0002a0 92 5e a8 bd fe cb 83 3d c0 33 71 bd 28 74 f8 bc
       -0.08221163 0.06435393 -0.058887243 -0.030328825
0002b0 be 68 ac 3d d2 dc be bd ac 26 3c bd 00 0e ee bc
       0.084184155 -0.09319462 -0.045935318 -0.02905941
0002c0 24 b2 27 3d fc 93 c0 3d ec 39 c4 bd 10 88 c5 3d
       0.040941373 0.09403226 -0.0958136 0.096450925
0002d0 d4 a1 d2 3d 4c ae 24 bd 0e 18 ce 3d e2 ae a6 3d
       0.102847725 -0.040205285 0.10063182 0.08138825
0002e0 00 30 07 ba 5c 2d eb bd ba 35 e0 3d 00 a0 ab b8
       -0.0005156994 -0.11483261 0.109477475 -8.183718e-05
0002f0 6c e6 a6 bd 7a d4 fd bd 60 8e eb bd 02 ee e9 3d
       -0.08149418 -0.12394042 -0.11501765 0.114223495
000300 a0 b0 6a bc c8 01 87 bd 54 95 a1 bd f2 74 af bd
       -0.014324337 -0.065921366 -0.0788981 -0.085672274
000310 88 be b6 bc e0 23 c3 bc 44 44 6c bd e0 46 e5 bc
       -0.02230765 -0.023820817 -0.05768229 -0.027987897
000320 38 00 8a bc 00 16 96 bc 38 16 1a 3d 78 b7 c0 3d
       -0.016845807 -0.018321037 0.037618846 0.09409994
000330 ec a2 57 3d 88 68 cb bc b0 75 16 3c 6a ff 91 bd
       0.05264561 -0.024830118 0.009183332 -0.071287945
000340 80 99 dd 3a c4 67 1f bd f0 1a ed bc f8 ea 86 3d
       0.0016906708 -0.038917318 -0.028943509 0.065877855
000350 80 58 b9 3d cc 82 fb bd 20 f8 8f bd 2c 7c f7 3d
       0.09050083 -0.12280807 -0.07029748 0.12084231
000360 a8 a4 00 3d c8 56 e8 3d b8 1a 08 bd ce c6 a5 3d
       0.03140703 0.11344677 -0.033228606 0.080945596
000370 80 36 03 3b 36 7d 89 3d e4 0d 5b bd 2e 99 b3 3d
       0.0020021498 0.06713335 -0.053480044 0.08769451
000380 76 d0 c4 3d 12 03 97 bd b4 7c de 3d 40 10 56 3c
       0.09610073 -0.073736325 0.10863629 0.013065398
000390 f0 7d d4 3c 48 64 85 3c 78 cb a3 3d 04 a7 8a 3d
       0.025938958 0.01628317 0.07997793 0.06770137
0003a0 6c bf 38 3d b4 15 ed 3d 6c a5 fd 3d 66 f3 dd bd
       0.04510443 0.11576405 0.12385067 -0.1083744
0003b0 e2 3d 8c bd e8 0f 64 bd 40 7a f4 3d 4c 1e 6e bd
       -0.06847741 -0.055679232 0.1193738 -0.058134362
0003c0 34 60 9b bd 60 e5 7c bd d8 3c 8b 3c a0 31 f0 3b
       -0.07586709 -0.061742187 0.016996786 0.0073301345
0003d0 40 61 58 bb 28 2d 46 bd 24 c0 44 bd ac fe 2b 3d
       -0.003301695 -0.048382908 -0.048034802 0.04199092
0003e0 38 85 f0 bd c0 6c 57 3c ac 11 56 bd e0 cd 07 3c
       -0.117441595 0.013148487 -0.052262947 0.0082888305
0003f0 80 54 eb bc 60 38 04 3c 60 b4 b7 bc 38 21 26 bd
       -0.028726816 0.0080700815 -0.022424877 -0.040559024

4.bias f4 [4]
000000 b0 e3 b4 bc cc de 1a 3d 8a a4 da bd f0 81 4f 3d
       -0.022081226 0.037810132 -0.106759146 0.050661027
