dqn_nor.pth (torch, 36616 bytes, 6 tensors)

0.weight f4 [64, 64]
0.08025478 0.054816827 -0.0788738 -0.023145705 0.040680245 -0.01382564 0.022725567 0.09062633
-0.058405757 0.017026082 -0.08893147 0.030960962 -0.019967258 0.07512407 0.105205104 -0.021777406
-0.013694659 -0.026979104 0.03395824 0.0069274753 0.11375187 -0.070008814 0.11600715 0.07357974
0.05859089 -0.11008829 0.10031155 0.038697794 0.010941133 0.08818364 0.014738768 0.07771914
-0.08168511 -0.12498514 0.035930812 0.06348801 0.090005696 -0.0040898323 0.075754225 -0.031400934
0.06845917 -0.105636716 -0.04892832 -0.0048486292 -0.012782216 -0.040250152 -0.042063132 -0.0021221936
-0.047068194 -0.043684393 -0.09694266 0.07568085 -0.037645712 0.07374412 -0.10337216 -0.014001071
-0.06923218 -0.032514468 0.042974234 -0.020487309 0.053039774 0.05768785 0.12347935 -0.09092027
0.017785892 0.055895552 -0.05939743 0.086533874 -0.026910573 -0.09456058 -0.06368226 0.059156716
-0.000695765 0.028177544 0.019395724 0.079510406 0.048934504 -0.012460083 -0.09721427 -0.036867633
-0.09855586 0.01887913 -0.03571105 0.02299741 -0.06074506 -0.07079674 -0.08693968 -0.10004301
-0.01265873 0.085090324 -0.054238707 0.003077805 0.10489626 0.034376368 0.08994582 -0.041665256
-0.017282426 -0.107725576 0.013024792 0.01252839 -0.11668661 -0.10285452 0.008180261 -0.040124804
-0.008070648 0.021172449 0.089771256 0.10876748 0.037606776 -0.04984507 0.018399313 -0.045873553
0.104031354 -0.09352122 0.025114372 0.003321588 -0.04930006 0.022496596 -0.023755342 -0.056536123
0.08436409 -0.0548957 0.11765441 -0.08448225 0.08101161 -0.09184039 0.046391234 -0.08476217
0.11462055 -0.124880776 0.06653692 0.0185512 -0.052721053 -0.027248338 0.044457823 0.091668144
-0.10383277 -0.10635191 0.026981235 -0.061326027 -0.09689881 -0.07730867 0.034044296 0.035105497
0.06482713 -0.09241098 0.03314866 -0.06407677 -0.121087864 -0.06805053 0.052286744 0.083591014
-0.12143199 0.033572853 -0.09778744 0.06745313 -0.11538601 0.11526467 -0.021836385 -0.066585526
-0.0813746 0.11974044 0.116104364 -0.113812834 -0.013868466 -0.06212242 -0.039718628 0.041088045
-0.08073944 -0.06559858 0.027543694 -0.052932307 0.1180425 -0.029716656 0.06206645 0.019729316
0.060049877 -0.04588692 0.10915041 0.017123237 0.04091084 0.06787814 -0.091845036 -0.021410733
-0.062345073 -0.09367289 -0.037850127 -0.03493452 0.06812978 -0.07555829 0.09951937 0.06374225
-0.010221079 -0.104485765 -0.10751301 -0.10425328 0.082683474 -0.023918703 0.036356777 -0.03885424
-0.0026987493 -0.11443438 0.08339237 -0.06783156 0.029261723 -0.11260226 -0.036118135 -0.035592735
0.0007573962 -0.030312613 -0.023687959 0.09109339 0.006155759 0.033952415 0.057230502 -0.059495375
-0.010070771 0.029218405 -0.04732503 -0.01718609 -0.049771562 -0.0290284 -0.043172494 0.10865462
0.061533332 0.12453319 0.05162181 -0.0068829358 -0.1117204 -0.094784245 -0.038541153 -0.10475172
-0.017029613 0.047925353 -0.010325745 0.08272222 -0.0014814734 -0.10937379 0.0343125 -0.11616652
0.024254397 0.06308353 0.041018933 0.07004933 -0.025351256 0.042543173 -0.022175163 -0.097838536
-0.06615858 0.034234524 0.036086157 0.104443476 -0.060909882 -0.043517634 0.06261948 0.019961864
00000000: 9e5c a43d 9c87 603d 9688 a1bd 109c bdbc
00000010: 54a0 263d f084 62bc f82a ba3c 4c9a b93d
00000020: e03a 6fbd 487a 8b3c b421 b6bd d8a1 fd3c
00000030: 6092 a3bc a6da 993d c675 d73d 8866 b2bc
00000040: 905f 60bc 4803 ddbc cc17 0b3d e0ff e23b
00000050: bef6 e83d c860 8fbd 2895 ed3d fab0 963d
00000060: 00fd 6f3d f875 e1bd 2470 cd3d 9481 1e3d
00000070: 7042 333c a099 b43d e07a 713c 362b 9f3d
00000080: 864a a7bd 36f8 ffbd 302c 133d 0006 823d
00000090: e854 b83d 0004 86bb 0825 9b3d 449e 00bd
000000a0: 5234 8c3d 1058 d8bd 1069 48bd 40e1 9ebb
000000b0: 806c 51bc 58dd 24bd 644a 2cbd 8014 0bbb
000000c0: 94ca 40bd 68ee 32bd e089 c6bd 90fe 9a3d
000000d0: 6432 1abd 2807 973d c8b4 d3bd c064 65bc
000000e0: 9ac9 8dbd e42d 05bd c005 303d 00d5 a7bc
000000f0: 3c40 593d 184a 6c3d bee2 fc3d 6834 babd
00000100: b8b3 913c bcf2 643d b84a 73bd ac38 b13d
00000110: 9073 dcbc faa8 c1bd d86b 82bd 504e 723d
00000120: 0064 36ba 98d4 e63c c8e3 9e3c 5ad6 a23d
00000130: 8c6f 483d 6025 4cbc 4618 c7bd 8402 17bd
00000140: a8d7 c9bd 68a8 9a3c c045 12bd 1065 bc3c
00000150: d0cf 78bd e2fd 90bd 6e0d b2bd 5ae3 ccbd
00000160: 9066 4fbc d643 ae3d 6829 5ebd 00b5 493b
00000170: dad3 d63d 3cce 0c3d 8435 b83d 30a9 2abd
00000180: e093 8dbc 3a9f dcbd f065 553c e043 4d3c
00000190: 64f9 eebd 64a5 d2bd 8006 063c e859 24bd
000001a0: c03a 04bc d871 ad3c fed9 b73d 7cc1 de3d
000001b0: 9009 1a3d 582a 4cbd 28ba 963c e8e5 3bbd
000001c0: 640e d53d 0e88 bfbd a8bc cd3c 00af 593b
000001d0: dcee 49bd c84a b83c 909a c2bc 6c92 67bd
000001e0: 14c7 ac3d 50da 60bd ccf4 f03d 0805 adbd
000001f0: 6ae9 a53d d016 bcbd bc04 3e3d ca97 adbd
00000200: 2ebe ea3d 7ec1 ffbd 8244 883d b0f8 973c
00000210: 08f2 57bd e837 dfbc 6819 363d 82bc bb3d
00000220: 46a6 d4bd 08cf d9bd c007 dd3c 0031 7bbd
00000230: e272 c6bd 0254 9ebd 0872 0b3d c8ca 0f3d
00000240: 16c4 843d f841 bdbd e4c6 073d ae3a 83bd
00000250: eafc f7bd 145e 8bbd a02a 563d c431 ab3d
00000260: 56b1 f8bd b083 093d c844 c8bd de24 8a3d
00000270: 804f ecbd e20f ec3d 38e2 b2bc fe5d 88bd
00000280: baa7 a6bd 7a3a f53d 20c8 ed3d b416 e9bd
00000290: 9038 63bc 1474 7ebd 00b0 22bd f04b 283d
000002a0: b85a a5bd 8c58 86bd 50a3 e13c 8ccf 58bd
000002b0: 44c0 f13d 5870 f3bc 6439 7e3d 609f a13c
000002c0: dcf6 753d ecf3 3bbd 408a df3d 0846 8c3c
000002d0: 2092 273d b203 8b3d 4019 bcbd 9065 afbc
000002e0: 8c5d 7fbd 92d7 bfbd bc08 1bbd 8017 0fbd
000002f0: a087 8b3d 4ebe 9abd d0d0 cb3d 4c8b 823d
00000300: 5076 27bc a2fc d5bd c82f dcbd be82 d5bd
00000310: f455 a93d 28f1 c3bc d8ea 143d a025 1fbd
00000320: 80dd 30bb 925c eabd 9ec9 aa3d 46eb 8abd
00000330: 48b6 ef3c 049c e6bd 9cf0 13bd b0c9 11bd
00000340: 008c 463a 2852 f8bc 400d c2bc 2c8f ba3d
00000350: 40b6 c93b b011 0b3d 886a 6a3d 6cb1 73bd
00000360: e0ff 24bc 705b ef3c e4d7 41bd d8c9 8cbc
00000370: 44dd 4bbd f8cc edbc a4d5 30bd 5086 de3d
00000380: 600a 7c3d 420b ff3d 6471 533d 408a e1bb
00000390: aacd e4bd 3e1e c2bd 54dd 1dbd 1288 d6bd
000003a0: b081 8bbc 604d 443d 502d 29bc 446a a93d
000003b0: 002e c2ba 5eff dfbd 448b 0c3d b6e8 edbd
000003c0: 28b1 c63c f031 813d 7803 283d 0676 8f3d
000003d0: 70ad cfbc c041 2e3d b0a8 b5bc 925f c8bd
000003e0: 267e 87bd 8039 0c3d 14cf 133d 76e6 d53d
000003f0: a47c 79bd 8c3f 32bd a43e 803d 1087 a33c

0.bias f4 [64]
-0.087849274 0.047867104 -0.005073741 -0.03946781 -0.11472836 0.0034017712 0.02265802 0.124924764
-0.03323646 -0.0863606 0.03166282 -0.11269042 0.061066136 0.065621495 0.098501235 0.08517027
-0.007424906 0.039283544 -0.04666637 0.07481407 -0.118779436 -0.048301786 -0.09058094 0.12118073
0.06454228 -0.031643406 0.07792288 -0.0435614 0.048946917 0.08405486 -0.0457889 -0.0009796619
-0.03847921 0.019990891 -0.10769035 -0.026153892 0.10686742 -0.12457138 0.013255879 0.073832884
0.09780413 -0.04842162 -0.09389268 0.05761817 0.046142995 -0.10299431 -0.10344775 -0.04761432
-0.031677037 -0.0034266263 0.08401029 -0.06943914 -0.010843739 0.04741718 -0.065228045 -0.08063261
-0.049250603 0.053559437 0.1038295 -0.0037312955 -0.0803165 0.057845697 -0.013401017 0.08229688
00000000: 52ea b3bd 4c10 443d a041 a6bb 00a9 21bd
00000010: b4f6 eabd 40f0 5e3b 509d b93c 8ed8 ff3d
00000020: f422 08bd d4dd b0bd e0b0 013d 3cca e6bd
00000030: 7c20 7a3d 9064 863d 04bb c93d c06d ae3d
00000040: a04c f3bb c8e7 203d 3c25 3fbd 1e38 993d
00000050: a242 f3bd 18d8 45bd 8082 b9bd 9a2d f83d
00000060: be2e 843d 849c 01bd 0896 9f3d 706d 32bd
00000070: 907c 483d f424 ac3d 248d 3bbd 0068 80ba
00000080: 609c 1dbd f0c3 a33c c28c dcbd b040 d6bc
00000090: 4edd da3d 481f ffbd 302f 593c b235 973d
000000a0: 884d c83d c055 46bd ce4a c0bd 0801 6c3d
000000b0: 7000 3d3d aeee d2bd 6adc d3bd 3c07 43bd
000000c0: c8bf 01bd 4091 60bb 960d ac3d 1c36 8ebd
000000d0: f0a9 31bc 8438 423d 4896 85bd b622 a5bd
000000e0: 00bb 49bd 2461 5b3d 90a4 d43d c088 74bb
000000f0: fa7c a4bd 9cef 6c3d f08f 5bbc 448b a83d

2.weight f4 [64, 64]
0.021998703 0.043961704 -0.05873348 0.12367424 -0.04644899 0.04806079 0.07956493 0.00040225685
0.0062384307 -0.0068665296 0.027778924 -0.0983855 0.024702176 -0.08706981 -0.02400349 -0.04394956
-0.11172311 0.09750745 -0.069336504 0.106623456 0.12120317 0.09860039 -0.07681309 -0.051026136
-0.023236752 -0.094750196 -0.01414001 0.0040097237 0.11959578 0.020309836 -0.044776633 -0.12317535
0.11966364 -0.06404361 -0.09504582 -0.00068704784 -0.106351495 -0.067895114 0.08074397 -0.02590762
-0.10913023 0.008028328 0.10251805 0.054864228 0.04851383 0.010665044 -0.12487109 -0.10559316
0.0822667 0.07455151 0.0724553 -0.12321147 -0.11778867 0.02558726 0.042234868 -0.021538645
-0.1225232 0.04843737 0.069435626 0.09600562 -0.0011498928 0.038404763 -0.032678083 0.0757827
-0.021716908 -0.04173076 -0.08857663 0.057324424 0.08603072 -0.0714657 0.10858309 0.09219542
0.047046542 -0.04259461 0.0975804 -0.063627675 -0.0451909 0.09879868 -0.0038982034 -0.06642912
0.07569566 0.09093027 -0.025213107 0.03570433 0.012416318 0.07535799 0.021767527 -0.035399586
-0.054433346 0.048602223 0.037515476 0.08067925 0.09631275 -0.07950355 0.011071369 0.11734946
-0.03348434 0.0569223 -0.0339268 0.10722934 0.029418886 -0.018625349 0.11042696 0.02955757
-0.122059524 -0.008584261 0.11781143 0.10803853 0.11292641 -0.07256098 0.07537992 -0.016233027
0.040484205 -0.033096462 -0.0758978 -0.0150295645 0.05068156 -0.014967084 -0.052709684 -0.11096217
0.039712906 0.082321346 -0.08170019 0.01612562 0.07981019 -0.117249966 0.033698335 0.052413344
0.076440886 0.04220566 -0.027586445 -0.084401146 -0.028811604 0.102047876 -0.08697088 -0.008350059
0.016105354 0.085736126 -0.014876515 -0.0070581883 0.10659662 -0.025957093 0.116514176 -0.083840564
0.049377427 -0.10069895 -0.08704354 -0.08678301 0.031198144 -0.089484096 -0.02617228 -0.00882256
0.09352054 -0.10327332 -0.025823921 -0.11342834 0.04057005 0.06553778 -0.0600473 0.0823942
0.029521555 -0.046396136 0.076443285 0.026050046 -0.078331366 0.021969289 0.03213796 0.048071712
0.04890549 -0.052444786 -0.027300015 0.12409459 0.09235984 0.06583251 -0.066983104 0.0917975
0.0026521534 0.036153004 0.088933274 -0.036410287 -0.09673026 0.08823024 0.08124994 -0.042756274
-0.12153208 -0.054110885 -0.009639874 -0.09548187 0.10791685 0.012744486 -0.08819693 -0.011207148
0.044138 -0.015319422 0.026483357 0.10797483 -0.013740435 -0.0057717115 -0.07021378 0.032790557
-0.04141575 0.04997395 0.07714668 0.045438394 -0.10174002 -0.08356996 0.11659555 0.06273256
0.06145008 0.12207821 -0.08770795 0.07967894 -0.08846329 -0.10833584 0.0443784 -0.05546978
-0.07746704 0.058772445 -0.022192344 0.03830391 -0.067718714 0.011243969 -0.11241554 -0.11422874
0.055371642 -0.088825956 0.10530864 -0.1218261 0.021191016 0.098202094 0.06528869 -0.11363791
-0.008473769 -0.0096304715 -0.075444445 0.068133235 -0.08600126 0.10567616 0.038450897 0.068981856
-0.028748527 -0.10642558 -0.102366135 -0.040433273 0.08884068 0.012520552 0.11888252 -0.082674176
0.11260541 -0.06576973 -0.091933265 -0.060688153 -0.028480873 0.0249753 0.09295146 0.030008003
00000000: a036 b43c 3011 343d 8492 70bd ec48 fd3d
00000010: 4c41 3ebd 64db 443d f0f2 a23d 00e6 d239
00000020: c06b cc3b a000 e1bb a090 e33c 567e c9bd
00000030: 385c ca3c a851 b2bd f8a2 c4bc 7404 34bd
00000040: 16cf e4bd fcb1 c73d 4c00 8ebd 665d da3d
00000050: 5e39 f83d 00ef c93d 2e50 9dbd c800 51bd
00000060: 005b bebc 640c c2bd 80ab 67bc 0064 833b
00000070: a2ee f43d d060 a63c b467 37bd 5c43 fcbd
00000080: 3612 f53d 4c29 83bd 62a7 c2bd 001b 34ba
00000090: d0ce d9bd 980c 8bbd 185d a53d 383c d4bc
000000a0: ac7f dfbd 4089 033c fcf4 d13d 50b9 603d
000000b0: 70b6 463d 70bc 2e3c 6abc ffbd 3a41 d8bd
000000c0: 727b a83d 76ae 983d 7263 943d 4c56 fcbd
000000d0: 303b f1bd 609c d13c 78fe 2c3d d071 b0bc
000000e0: 72ed fabd 4466 463d 4434 8e3d 989e c43d
000000f0: 00b8 96ba 504e 1d3d 74d9 05bd f633 9b3d
00000100: a8e7 b1bc e0ed 2abd aa67 b5bd 04cd 6a3d
00000110: e030 b03d 9c5c 92bd d060 de3d f4d0 bc3d
00000120: e0b3 403d b077 2ebd 3cd8 c73d 3a4f 82bd
00000130: 181a 39bd f656 ca3d 0079 7fbb fe0b 88bd
00000140: 5406 9b3d a639 ba3d b88b cebc b43e 123d
00000150: d06d 4b3c 4a55 9a3d d051 b23c 28ff 10bd
00000160: 80f5 5ebd 2013 473d d4a9 193d 2a3b a53d
00000170: 9e3f c53d c2d2 a2bd b064 353c ea54 f03d
00000180: e026 09bd 5c27 693d d4f6 0abd 0e9b db3d
00000190: e0ff f03c 3094 98bc 8827 e23d b822 f23c
000001a0: 58fa f9bd 00a5 0cbc 1e47 f13d 4e43 dd3d
000001b0: f645 e73d da9a 94bd ca60 9a3d 20fb 84bc
000001c0: c4d2 253d 2890 07bd 4e70 9bbd 903e 76bc
000001d0: 7897 4f3d 8038 75bc 1ce6 57bd 2240 e3bd
000001e0: 00aa 223d 1898 a83d 6e52 a7bd e019 843c
000001f0: 8673 a33d c020 f0bd 4407 0a3d 60af 563d
00000200: 0a8d 9c3d d8df 2c3d f8fc e1bc 82da acbd
00000210: 5006 ecbc 7afe d03d ca1d b2bd b0ce 08bc
00000220: 60ef 833c 6c96 af3d a0bc 73bc 6048 e7bb
00000230: 544f da3d f8a3 d4bc fc9e ee3d 9ab4 abbd
00000240: fc3f 4a3d 403b cebd e243 b2bd 4abb b1bd
00000250: 4093 ff3c 7043 b7bd 4067 d6bc 808c 10bc
00000260: b287 bf3d f680 d3bd b08c d3bc 1e4d e8bd
00000270: c82c 263d ac38 863d 28f4 75bd 4abe a83d
00000280: 30d7 f13c e009 3ebd 4c8e 9c3d e866 d53c
00000290: 326c a0bd f0f8 b33c 18a3 033d d8e6 443d
000002a0: 2051 483d 58d0 56bd 48a4 dfbc 4e25 fe3d
000002b0: 2827 bd3d 32d3 863d 702e 89bd 5400 bc3d
000002c0: c0cf 2d3b 2c15 143d a622 b63d f422 15bd
000002d0: 841a c6bd 0eb2 b43d 5e66 a63d 3421 2fbd
000002e0: d0e5 f8bd 60a3 5dbd 90f0 1dbc 008c c3bd
000002f0: 8203 dd3d 40ce 503c 98a0 b4bd 309e 37bc
00000300: 0cca 343d 50fe 7abc a0f3 d83c e821 dd3d
00000310: 901f 61bc a020 bdbb 3ecc 8fbd 644f 063d
00000320: 90a3 29bd 7cb1 4c3d 14ff 9d3d 9c1d 3a3d
00000330: 125d d0bd ba26 abbd a6c9 ee3d ee79 803d
00000340: 14b3 7b3d 2404 fa3d 3aa0 b3bd b62e a33d
00000350: 3e2c b5bd 2edf ddbd 20c6 353d 4834 63bd
00000360: 0aa7 9ebd 60bb 703d b8cc b5bc 90e4 1c3d
00000370: 1cb0 8abd a038 383c 1e3a e6bd c2f0 e9bd
00000380: 60cd 623d 62ea b5bd 0eac d73d f67f f9bd
00000390: c898 ad3c 2e1e c93d 14b6 853d feba e8bd
000003a0: 90d5 0abc 20c9 1dbc 9e82 9abd 7089 8b3d
000003b0: 6e21 b0bd be6c d83d b07e 1d3d 5c46 8d3d
000003c0: 0882 ebbc a8f5 d9bd 56a5 d1bd 5c9d 25bd
000003d0: 1af2 b53d 0023 4d3c ae78 f33d 1451 a9bd
000003e0: aa9d e63d 48b2 86bd 8247 bcbd 2494 78bd
000003f0: b850 e9bc 0099 cc3c 565d be3d 58d3 f53c

2.bias f4 [64]
0.02237469 -0.033265263 -0.018636346 0.07653409 -0.06414877 0.0024100542 -0.00997667 0.112298116
0.0842884 -0.06243168 0.027577654 -0.023130134 0.06695123 0.06304996 0.0045378655 0.104601756
0.050797716 -0.015971512 0.012929544 -0.07281481 -0.016289696 0.099067554 0.103891864 0.08597815
-0.058112815 0.104794964 0.055243984 0.0713781 0.0053916723 0.023297533 0.048091367 0.07697059
0.030692413 -0.042935506 0.115939826 0.019380331 0.09311478 0.0034837276 0.08764394 -0.10692927
-0.027270898 0.016377375 -0.007584527 -0.11729735 -0.032068163 -0.10963017 0.11064488 -0.082197815
0.02576667 0.11783002 0.030067518 0.121773586 0.087334126 0.035927758 0.018087894 0.003557384
-0.07082339 -0.07950793 -0.03322123 0.1093556 -0.103017196 -0.011403516 -0.03660685 0.038340658
00000000: 204b b73c 2841 08bd 40ab 98bc e8bd 9c3d
00000010: 6e60 83bd 00f2 1d3b 3075 23bc 8efc e53d
00000020: 669f ac3d 5cb8 7fbd 88ea e13c 687b bdbc
00000030: ba1d 893d 5620 813d 60b2 943b 7239 d63d
00000040: 4411 503d b0d6 82bc 70d6 533c ee1f 95bd
00000050: f871 85bc eee3 ca3d 42c5 d43d 5015 b03d
00000060: b407 6ebd be9e d63d 8447 623d ae2e 923d
00000070: a0ac b03b 78da be3c 74fb 443d c2a2 9d3d
00000080: a86e fb3c 24dd 2fbd dc71 ed3d 80c3 9e3c
00000090: f6b2 be3d 404f 643b aa7e b33d bcfd dabd
000000a0: 3867 dfbc d829 863c a087 f8bb 9839 f0bd
000000b0: e859 03bd c885 e0bd c899 e23d 5457 a8bd
000000c0: a014 d33c de50 f13d 2850 f63c 6e64 f93d
000000d0: 3cdc b23d fc28 133d 102d 943c 0023 693b
000000e0: da0b 91bd 0ed5 a2bd fc12 08bd d4f5 df3d
000000f0: aefa d2bd d0d5 3abc 10f1 15bd 180b 1d3d

4.weight f4 [4, 64]
-0.111002594 0.017019019 -0.045959204 -0.06124726 -0.029015332 0.026081622 0.11955866 0.10123493
0.07684079 0.08126442 -0.0041135997 -0.06545052 -0.01811196 0.011298031 -0.032117322 -0.10342406
-0.025036141 0.1008959 -0.005953908 0.101871476 -0.060269445 0.104197055 0.10594596 -0.021757498
-0.12325573 -0.08957429 -0.08391392 -0.04604049 0.060004458 0.07731302 -0.09748204 -0.02008143
-0.08108084 0.08141436 0.0012905449 -0.07760969 -0.036251485 0.0068523884 -0.11252327 -0.054688036
0.06331883 -0.090126365 0.06859043 -0.088075 0.07931219 -0.073813945 -0.0017796755 -0.10809222
-0.10111202 -0.06978248 -0.09748933 -0.031744853 -0.08812949 -0.020704478 -0.0016314685 0.09398264
0.110467404 -0.06955472 0.06293753 -0.061627448 0.0051777065 -0.08163418 -0.020771548 0.09457235
-0.06439483 -0.03246969 -0.08210398 -0.0002386272 -0.124901935 -0.046178117 -0.030888125 0.0157886
0.09037307 0.040491924 -0.018618584 0.04496862 0.090523526 0.075787604 -0.002642721 0.06124416
-0.11468926 0.049105123 0.11452311 -0.095486686 -0.060195222 -0.11796914 0.12005481 0.06952123
-0.117174536 0.04692401 0.1114151 0.037734985 -0.093107775 -0.059111103 0.046524182 0.09830238
-0.020073205 0.0191686 -0.08607483 -0.050335392 0.109249115 -0.02588664 -0.04363589 -0.124512464
-0.081675485 -0.06887916 0.013825089 0.005755082 -0.011430234 0.059803918 -0.122914374 -0.029872298
-0.110464334 0.032364458 0.05300799 0.0012888312 0.1205983 0.041096553 0.10760032 -0.08680807
-0.032644466 -0.0029619932 -0.04922676 -0.11864714 0.040720254 -0.040658504 -0.013497338 0.043584093
0.0838929 0.066598356 -0.0754379 -0.0035607368 0.0934003 -0.0074010342 0.104048654 0.08666
-0.11910841 0.002604559 -0.09221287 0.10593644 -0.1124796 -0.05381836 -0.063551396 0.051799893
-0.056574017 -0.058661908 -0.10947916 -0.007834524 0.012776926 -0.053883895 -0.09553079 -0.012021765
0.08711773 -0.10848655 0.028241187 0.0018759519 0.035179123 -0.03548324 0.059692383 -0.07625204
0.06464793 -0.09456763 -0.09431712 0.11958647 0.11234856 -0.116264224 0.08907388 -0.02026157
-0.034121618 0.09867093 -0.11340661 -0.06419648 0.10245162 0.10651675 0.047805756 -0.097574666
0.114545 0.05995789 0.06461397 -0.04295546 0.044920415 -0.079122186 -0.01729469 -0.07585512
0.07829119 0.037776083 -0.04282394 -0.09124823 0.04435639 0.014269054 0.092206165 -0.044562683
-0.08864471 0.09768437 0.07014145 0.11381073 0.0962079 0.07922657 0.10306834 0.0043550283
-0.054693148 -0.010242537 0.10589561 0.020804822 -0.0025944412 -0.04230748 0.09508042 0.12188657
-0.038860217 0.07681768 0.087159485 0.10936828 -0.10199019 0.03925295 -0.01269269 0.09510344
0.035731703 -0.01580961 0.012234643 0.092620626 0.07761571 -0.0031626076 -0.076256424 0.11101265
0.0024130642 0.110476464 -0.10541421 0.006711751 0.11505884 0.12156884 0.11474067 0.05447273
-0.024205714 -0.059813067 0.100988865 -0.00848417 -0.06270954 0.07707088 0.036992237 0.09666513
-0.09324314 -0.06628956 -0.009531781 0.039092958 -0.0032795966 0.10044657 0.09934646 0.042958125
0.031353205 0.051893607 -0.11392285 -0.084247276 0.014740378 -0.042454958 0.0489365 0.08408433
00000000: 5455 e3bd 786b 8b3c b83f 3cbd 68de 7abd
00000010: 90b1 edbc 20a9 d53c 2cdb f43d 4254 cf3d
00000020: b45e 9d3d f66d a63d 60cb 86bb ec0a 86bd
00000030: 885f 94bc 601b 393c 748d 03bd fecf d3bd
00000040: 9818 cdbc 82a2 ce3d 0019 c3bb fea1 d03d
00000050: 18dd 76bd 4465 d53d 32fa d83d c83c b2bc
00000060: 806d fcbd ba72 b7bd 10db abbd f494 3cbd
00000070: 3cc7 753d 4a56 9e3d aaa4 c7bd d081 a4bc
00000080: b60d a6bd 92bc a63d 8027 a93a d4f1 9ebd
00000090: 707c 14bd 008a e03b 9a72 e6bd 9000 60bd
000000a0: 4ead 813d 2c94 b8bd 2479 8c3d aa60 b4bd
000000b0: 6e6e a23d c42b 97bd 0044 e9ba 745f ddbd
000000c0: d213 cfbd 1eea 8ebd 7ca8 c7bd e406 02bd
000000d0: 3c7d b4bd 709c a9bc 00d7 d5ba f879 c03d
000000e0: bc3c e23d b472 8ebd 64e5 803d 106d 7cbd
000000f0: c0a9 a93b d22f a7bd 1829 aabc 26af c13d
00000100: 70e1 83bd f0fe 04bd 2226 a8bd 0038 7ab9
00000110: 96cc ffbd 4425 3dbd 1809 fdbc 1857 813c
00000120: 8415 b93d dcda 253d 0086 98bc 0431 383d
00000130: 6664 b93d 8836 9b3d 8031 2dbb 28db 7a3d
00000140: 34e2 eabd 7422 493d 188b ea3d 868e c3bd
00000150: 448f 76bd ce99 f1bd 4cdf f53d 2661 8e3d
00000160: 34f9 efbd 6433 403d 9a2d e43d 0090 1a3d
00000170: 4aaf bebd 7c1e 72bd 2490 3e3d c252 c93d
00000180: 9070 a4bc 7807 9d3c 0048 b0bd 7c2c 4ebd
00000190: 00be df3d 3810 d4bc 8cbb 32bd 6400 ffbd
000001a0: 7a45 a7bd 8410 8dbd a082 623c 2095 bc3b
000001b0: e045 3bbc f4f4 743d 88ba fbbd c0b6 f4bc
000001c0: 203b e2bd 9890 043d e81e 593d 00ee a83a
000001d0: 3efc f63d dc54 283d 8e5d dc3d 6ec8 b1bd
000001e0: 34b6 05bd 001e 42bb 00a2 49bd 46fd f2bd
000001f0: 48ca 263d 8889 26bd f023 5dbc 3c85 323d
00000200: 0ad0 ab3d b864 883d 307f 9abd 405b 69bb
00000210: a848 bf3d 6084 f2bb 7617 d53d cc7a b13d
00000220: 1cef f3bd 40b1 2a3b 1ada bcbd 34f5 d83d
00000230: b45b e6bd a470 5cbd 3c27 82bd 202c 543d
00000240: 28ba 67bd 7847 70bd 9c36 e0bd 605c 00bc
00000250: 5056 513c 5cb5 5cbd a6a5 c3bd f0f6 44bc
00000260: c86a b23d 322e debd 105a e73c 80e2 f53a
00000270: fc17 103d e056 11bd 0080 743d 082a 9cbd
00000280: 2266 843d acac c1bd 5629 c1bd c0e9 f43d
00000290: 0017 e63d f01b eebd 5e6c b63d 98fb a5bc
000002a0: 1cc3 0bbd fc13 ca3d ba41 e8bd 7279 83bd
000002b0: 28d2 d13d 7425 da3d f8cf 433d 3ad5 c7bd
000002c0: 9296 ea3d 6896 753d 5454 843d 10f2 2fbd
000002d0: 78fe 373d d00a a2bd 98ad 8dbc ee59 9bbd
000002e0: 2257 a03d 18bb 1a3d 2868 2fbd 5ae0 babd
000002f0: 0caf 353d c0c8 693c 96d6 bc3d 5c87 36bd
00000300: 5c8b b5bd be0e c83d 52a6 8f3d 9a15 e93d
00000310: a608 c53d 8a41 a23d 7e15 d33d a0b4 8e3b
00000320: ec05 60bd 50d0 27bc ccdf d83d e06e aa3c
00000330: 8007 2abb 9c4a 2dbd 86b9 c23d aa9f f93d
00000340: e42b 1fbd 9652 9d3d ac80 b23d 7afc df3d
00000350: 3ce0 d0bd b4c7 203d 00f5 4fbc 98c5 c23d
00000360: 685b 123d 2883 81bc d073 483c e2af bd3d
00000370: fcf4 9e3d c043 4fbb 542c 9cbd 9a5a e33d
00000380: 8024 1e3b 7c41 e23d 68e3 d7bd 40ee db3b
00000390: f8a3 eb3d 16f9 f83d 28fd ea3d cc1e 5f3d
000003a0: 104b c6bc 8cfe 74bd 40d3 ce3d 3001 0bbc
000003b0: dc6d 80bd 56d7 9d3d 2c85 173d 5ef8 c53d
000003c0: 42f6 bebd d2c2 87bd 302b 1cbc f01f 203d
000003d0: 80ee 56bb eeb6 cd3d 2876 cb3d dcf4 2f3d
000003e0: 386c 003d 648e 543d 6250 e9bd d689 acbd
000003f0: a081 713c 40e5 2dbd a471 483d 6834 ac3d

4.bias f4 [4]
-0.06974743 0.09792355 -0.014301509 -0.03376089
00000000: bed7 8ebd 248c c83d e050 6abc dc48 0abd
