dqn_nor.pth (torch, 57096 bytes, 6 tensors)

0.weight f4 [64, 144]
00000000: 06bd 3bbd 20a9 6f3c ae94 0f3d f19b c03e
00000010: 90fc ceb8 4c55 ceb9 0102 0abc b8bc 4c3d
00000020: 5d64 52bc 73ff 143d 97f2 0abc 6665 95bd
00000030: 33aa 093e 0cea 41bd 36e1 ce3c 73b2 03be
00000040: 8d20 ae3d fcad 1a3e 71d8 efbd 9b5a 613d
00000050: 590b 55bc c31b 5d3e 36cb 0abc 204a d83d
00000060: 2f2d c7bb 62df 2a3d 204e 8dbd 2ac3 ffbc
00000070: de7c 2f3d fce7 2a3d 28c2 a33d bdac b83b
00000080: a218 0c3e d20f 1cbe fc99 fe3e 6a5b 23bd
00000090: 38cb cbbb 0f38 bd3d e932 393d 0b3d 16bd
000000a0: 33ac 27be 9003 a53d 5b2c e3bd 03cf 993d
000000b0: c21d 643d c779 013d 192f d33c fcaa b83d
000000c0: a6a1 e0ba e271 1a3c 59d7 fabc 86af dd3d
000000d0: 5b88 1abc abf2 893c 0e47 043c 6ef4 e8bc
000000e0: c26c 713b 46c4 95bb 544d b03d ca00 593b
000000f0: 33de b13d ce05 f63e b191 0f3d d824 c5bd
00000100: 5333 a8bc 1e8c e7bc 0a0f a6bc a2cc b4bb
00000110: f62e d53c 0b22 c4bc 5c2e 023e 0184 9b3e
00000120: e906 b13d 87e9 d83c ab9b b03c c712 db3c
00000130: cdb0 3e3d 7588 2e3e 03bf d7bd 719a 023e
00000140: 9131 bd3d b319 17bd 03ab fe3d ef48 823e
00000150: 6ed7 e8bc a31f d8bd ed99 063e 6267 4c3e
00000160: 0af6 87bc 2934 81bc cf0b 353d a4cd 283c
00000170: edf0 143d ff6c e13d 4602 103e a1c4 153e
00000180: 8d82 aa3d f5a4 f7bd 3a74 7a3d 9773 183d
00000190: 2b97 8ebc 6c27 02be 5d84 d33d 291a 963c
000001a0: 11c2 b03d 28ae 023e e92f 823c 9ab7 203e
000001b0: 16c7 a13d e7f6 5d3d 546b 8e3c e8b1 c6bd
000001c0: 41e5 13bd 9b3e 023e a2b2 ab3d c84c 583c
000001d0: dd2c 94bd 35d5 38bd c9c0 bdbd 61a1 133e
000001e0: a8a3 893e e282 413c ada1 d33d 7bfc d33d
000001f0: 3675 1e3e 7b04 d63d eb5e 4c3e 98cf d93c
00000200: e38d d9bd ec04 f0bb 263f 123c 2428 943d
00000210: d844 ae3d 6cd8 03bd 212a 6f3d 5bd1 0d3c
00000220: 0998 153c 8512 6c3d 3701 2d3d 6544 763f
00000230: 6815 843e 1da3 d0bc dd02 9ebd 0e5f d23f
00000240: bfcb eabd b01e a5bd 471b 0ebe ecfb dd3e
00000250: 1a59 92be 4ce5 203d 17ad a23f 3a14 d6bc
00000260: 6c15 c1bc 3bf0 953a 98a6 b1bd 75fd 76bd
00000270: 8a9d 70bd 11ab b1be 9252 5c3c 7e8d c0be
00000280: 0fc6 a1bc 395d 99bc 5f2b 52be 5bed a23c
00000290: a713 3bbd d57b 9c3c 0fca a13c af60 3dbd
000002a0: 301a 5ebd 75a7 233d 551b 87be 2c30 43bd
000002b0: a584 af3d cf20 00bd f3cc 993d 2634 c7bd
000002c0: 200d 883d c250 37bb 9212 823f 8b13 cd3d
000002d0: 5b6c 3d3c a297 923d b4f9 e43d ab5a be3d
000002e0: d297 82be 3ee6 b83c 876b 10be 0bd7 a9bd
000002f0: dbda 29bd 9cd7 62bc 90e2 853e d240 3abc
00000300: 099f c9bb 8de5 05bd 6027 90bd f37e d53c
00000310: 578e 3b3d ee4b 7c3d 8520 e43b 804d 12bf
00000320: 5352 8cbd 4e5a f2bc c25f 0cbc 56c9 18be
00000330: b86f 703d 4160 e63e 6202 3a3d a3f5 67be
00000340: 89a0 993d cbf3 00bd a042 893d 0efd 80bd
00000350: 384f 563c ecc2 b33f 758f 2c3d 88b0 b0be
00000360: b432 0dbd aa2d 273a 94a9 e93c 7819 92bb
00000370: 23fb 1abe 9601 d5bd 871d f03e 8d10 91bb
00000380: 41d7 8d3d 8f99 913d 009f 0d3e f738 d53c
00000390: a37b d5bc 6d06 a83c 8e47 363d 71e8 d7bb
000003a0: 5282 e1bc 6dd2 093d 7707 aebd fe9d d33d
000003b0: 12e5 ac3d 7b16 093e 09dd 783d bd18 653d
000003c0: b42c 96bd f24f 94bd 0ce9 ee3c 966f 523c
000003d0: e362 75bc e659 d43e 2183 2a3c 125a 1e3d
000003e0: eb13 163e 3864 1c3e 5995 593e 86a4 5bbd
000003f0: e6f7 1cbc a606 a83f a9bb b63d f849 a63f
-0.045834564 0.014627725 0.0350539 0.37618974 -9.869889e-05 -0.00039354933 -0.008423329 0.049984664
-0.012841311 0.036376428 -0.0084806895 -0.07294731 0.13443832 -0.047342345 0.025253873 -0.12861042
0.08502302 0.15105432 -0.11711205 0.05501805 -0.013003194 0.21592622 -0.008471301 0.10561013
-0.0060783844 0.04171694 -0.06899667 -0.031220991 0.042843692 0.041725144 0.07996017 0.0056358264
0.13681272 -0.1524041 0.49726856 -0.0398821 -0.006219294 0.09239208 0.045214567 -0.03667931
-0.16374283 0.0805732 -0.110924445 0.075101875 0.05569244 0.031610277 0.025779294 0.09016988
-0.0017138019 0.009426566 -0.030620264 0.10824494 -0.009431924 0.016839346 0.008073581 -0.028436866
0.0036838506 -0.0045705168 0.08608499 0.0033112043 0.08684959 0.48051304 0.03505105 -0.09626168
-0.020532286 -0.028265055 -0.020270843 -0.005517558 0.02602337 -0.023942014 0.12712997 0.30374148
0.08643896 0.026478542 0.021558603 0.026742352 0.04655533 0.17044242 -0.105344795 0.12754227
0.0923797 -0.036889743 0.12434962 0.2544627 -0.028423037 -0.10552909 0.13144656 0.19961312
-0.016596813 -0.015771942 0.044200715 0.010302935 0.036362577 0.110071175 0.14063367 0.14625789
0.08325682 -0.1209201 0.061146 0.03721961 -0.017406067 -0.12710351 0.10327981 0.018323021
0.08630765 0.12761748 0.015891986 0.15695038 0.07899301 0.054190543 0.017385162 -0.09701902
-0.036107305 0.12719195 0.08383681 0.0132019 -0.072351195 -0.045125205 -0.092652865 0.1441703
0.26882672 0.01181099 0.103335716 0.10350891 0.154744 0.10450073 0.19958083 0.026588246
-0.10622766 -0.0073248055 0.008926189 0.07234219 0.08509225 -0.032188818 0.058389787 0.008655871
0.009130486 0.05763485 0.042237487 0.9619811 0.25797582 -0.025468403 -0.0771539 1.6435258
-0.11464643 -0.08062494 -0.13877593 0.43356264 -0.28583604 0.039281175 1.2709073 -0.026132692
-0.023569785 0.0011439392 -0.08674353 -0.06030031 -0.05874399 -0.34700826 0.013447421 -0.3760795
-0.019747762 -0.01872121 -0.20524357 0.01988857 -0.04567304 0.019102016 0.01974967 -0.046234783
-0.054224193 0.03995462 -0.2638804 -0.047653362 0.08570222 -0.03128129 0.07509794 -0.097267434
0.066431284 -0.002797172 1.0161917 0.10013493 0.0115614785 0.07157828 0.111804396 0.09294637
-0.25506455 0.022570726 -0.14103518 -0.08292969 -0.041468482 -0.013845351 0.26149416 -0.011367993
-0.0061529917 -0.03268962 -0.0703876 0.02606151 0.045790043 0.06159585 0.0069618844 -0.57149506
-0.068516396 -0.029584076 -0.008567752 -0.14920554 0.058700293 0.4499531 0.04541243 -0.22652297
0.07501323 -0.0314825 0.06702161 -0.06298266 0.013080411 1.404386 0.042129 -0.34509683
-0.034472182 0.0006377349 0.028523244 -0.0044586025 -0.15134864 -0.10400693 0.46897528 -0.004427022
0.06925822 0.07109367 0.13830185 0.02602814 -0.026059931 0.020510877 0.044501834 -0.0065889885
-0.027527962 0.033647943 -0.084975176 0.10332869 0.08442129 0.13387482 0.06075767 0.055931795
-0.07332745 -0.07241811 0.02916386 0.012843987 -0.01497719 0.41474837 0.01040724 0.038660116
0.14656036 0.15272605 0.21248378 -0.0536237 -0.009580588 1.3127029 0.08922512 1.2991323

0.bias f4 [64]
00000000: f706 db3f 51c0 0140 efd0 9dbd 3537 9640
00000010: cd22 9a3f b853 c7bd 2b13 0f41 909b 2ebe
00000020: ee47 80be ef37 87bd 1bd6 7ebe 677c e6bd
00000030: 03b6 b2be da38 b2be 0b87 2040 b854 8840
00000040: 59ee 0f40 34c9 23be cc6e 8fbe 29bb 8fbe
00000050: ad06 89be e8fd b53f b923 fe3f 7c81 5cbe
00000060: 3cf7 d43e 1b61 efbd dbc0 9dbe 12ae 85bd
00000070: 0b59 8bbe df8e d83f 18e3 59bb 098c efbd
00000080: 7f32 7c3e 2b78 273f 673f 5fbe 22e6 dcbd
00000090: c405 05be dce2 15be 7ad9 b3bd d2c3 babd
000000a0: 8628 5fbc c124 c43e d26a 05be ae56 7740
000000b0: cb2e 0f3f e8af 91be dd7d acbe 65bd 4040
000000c0: 6a1f ad3f 9bdc 663e 81b9 6dbd 78f2 b0be
000000d0: 6376 d640 6c3b 513f 41d9 9bbe 58bd 10be
000000e0: d466 403d d778 aa3e 89cb 51be e5f4 3340
000000f0: e650 ec3f 47f4 6fbd bc7c 92be d582 21be
1.71115 2.027363 -0.077058665 4.694239 1.204187 -0.09732765 8.94218 -0.1705153
-0.25054878 -0.06602465 -0.24886362 -0.112541966 -0.3490449 -0.34809 2.5082424 4.2603416
2.2489226 -0.15994722 -0.2801422 -0.2807248 -0.26762906 1.4218111 1.9854652 -0.2153377
0.41594875 -0.11688443 -0.308112 -0.06527342 -0.27216372 1.6918601 -0.003324693 -0.116966315
0.24628638 0.65417737 -0.2180153 -0.10786082 -0.1299048 -0.14637321 -0.08781715 -0.09119381
-0.013620501 0.3830929 -0.1302903 3.8646655 0.55930775 -0.28454518 -0.33689776 3.0115597
1.3525212 0.22545092 -0.05803824 -0.3455999 6.7019515 0.81731296 -0.3043919 -0.14134729
0.046973065 0.33295318 -0.20487799 2.8118222 1.8462188 -0.05858257 -0.2861079 -0.15772565

2.weight f4 [64, 64]
00000000: 33d8 b53d ba5a c03d 3fed 51be 176b 8a3d
00000010: da4d 1d3e d8c5 c2bd b0ed 84bd 995b 303e
00000020: abef 593d 49d1 cfbd 69f4 b83d 3007 d9be
00000030: 008a f03b ccc3 643c 4d7b 19be aab8 693e
00000040: 77fd f8be a1ea dabd 1879 95bd 6e50 6a3e
00000050: c9aa fcbd 2c39 a03d 462d 10bd 215e b1be
00000060: 27fc 2a3d e234 64be 2212 fdbb 5cd6 df3d
00000070: b88b fabd fa0e 5d3e b9ee d6bd d0d4 dcbd
00000080: bd7f a3be 8e8d 48bd 7bde cd3b 55ee 2b3e
00000090: e22a 3dbe 56fa 39bd d84a e7bd 3037 b8bd
000000a0: d78e 21be 8e08 75bd 6159 81bb 1b01 ce3c
000000b0: e3f9 b6bb 8c87 82be b278 f5bd 0f41 bfbe
000000c0: 0a3b 5d3d fc30 d539 b03d c6be 5c84 7c3e
000000d0: 69b2 21bd bf60 a13d d479 8b3d be88 2ebe
000000e0: efb4 2b3e 5fd4 383e a265 07be 4320 853d
000000f0: 4029 973d 3ec2 acbc 479c c53d 7e9d a1bd
00000100: 7bc8 dfbd 8e74 a63b 7109 993d e1a8 bdbd
00000110: 3957 84bc 2168 8abd b45d 6ebd 4301 9b3d
00000120: 2169 f2bd 9caf 8c3d 043f dc3d 202b 873c
00000130: 3de3 dbbd 4995 ad3d 5628 dcbd 747b 0abe
00000140: cc42 f5bd 0add 5ebd 6a88 c2ba 4890 ca3d
00000150: 73c1 9c3d e030 fd3b af16 6a3c ab89 c5bc
00000160: 565b 62bd 5d7a c03d 143d 05be 38e1 a53a
00000170: fd23 91bd 9004 afbd 8cdc 2c3d 5c44 9cbd
00000180: cf5c 47bd 36fe 163d 5efd 99bc a119 9f3d
00000190: c789 e73d 080d 943c 377a f13d 787b c0bd
000001a0: 5a02 513d d3cb d6bc 980f 92bd f3ed 4b3d
000001b0: 6bcd 2c3c 13f0 8a3d be3f 16bd cbed 16bd
000001c0: 0387 a33d ae2c a9bd 0fae 7c3d 84f7 993d
000001d0: be11 afbc e2ac 6b3d ab81 a1ba 20cc a7bd
000001e0: 5a6d 09be cb9d cabd 8a1c ab3c 8e87 42bd
000001f0: 6d0d d2bc fcc3 15be e91f 14bd b544 6d3d
00000200: b40f 92bd f92c 53be 4850 823c b41a 28be
00000210: ea15 3c3d f94c 16be 491d be3d 77a1 cabd
00000220: 0317 4ebc 6e92 60bd d996 4a3d b75c 9bbb
00000230: 58d2 8fbd 55fc 81bd 459f 9bbd 9ca3 64bd
00000240: 2cf8 03bd 1e90 15be 90ae 35bc 35b4 923d
00000250: 6723 8fbd c4e0 8cbd f022 1e3e 9948 233c
00000260: 945c f8bd c260 0cbc 7eee 63bd f729 dabc
00000270: c377 63bd 531a c0bd c540 983c 0b60 ac3c
00000280: 2e1e a4bd dbd7 aabd f399 82bb a939 af3d
00000290: fb25 81bd b252 9cbd 9a15 f13d 5396 cabd
000002a0: 2c35 29bd 0122 123d a531 5bbd ae8a 313d
000002b0: ba0e 9fbd a785 3bbd 3615 b6bc 3108 a3bd
000002c0: 39bf 98bd 0e31 16bc fa78 4c3d 21f8 3f3d
000002d0: aad2 583d af74 39bd 37ac 303d b4c5 9ebd
000002e0: 4457 803d 4845 86bd ac4b 7f3d fd14 25be
000002f0: 780c ebbd e2fe 823d c782 a43c 0ac1 9d3d
00000300: 67e8 d63c d364 e8bc b848 bebd 6082 06bd
00000310: c222 8c3d 78b4 4b3d e04d 1dbd 7397 a83d
00000320: c8bd 7b39 0be3 e53c d68f 843d 242e 59bd
00000330: 35df 51bd 80db b33b adaf ab3d 33b4 dbbd
00000340: 0e47 e3bd 8912 293d 5f6e 33bd d354 bdbc
00000350: 0a97 29bd ba09 b13c 8d4c 86bc 949e 933d
00000360: e12a 00be af7d 223c fd8c c7bc 7476 60bc
00000370: acfe 01be aede e53c d1f4 ee3d d764 b03d
00000380: bcc3 58bc f1f5 b3bd 387a d4bc ad1e 09be
00000390: 1c28 db3c 00f1 33bc 0dc2 ab3d 72d5 a6bd
000003a0: fd21 8dbd 785c 343d 2a51 eb3d a1bb 143d
000003b0: 0a59 f2bd 1a1d a93d a4c1 433d d1f2 7ebd
000003c0: a79a 5b3d 048f 863d 3fc6 17be 60bc 383d
000003d0: a4cb 713d 9272 0cbe 0e53 51bc fa77 9abd
000003e0: 7609 7e3d 5cc0 b83d 200f 5b3c dd7d aebc
000003f0: 1889 093d 3c65 e33c 8123 babd ad4e 96bd
0.08879127 0.09392305 -0.20500658 0.06758707 0.1536173 -0.09510392 -0.06490648 0.17222442
0.05320708 -0.1014734 0.090309925 -0.42388296 0.0073406696 0.013962697 -0.14988442 0.2282435
-0.48630878 -0.10689283 -0.072984874 0.22882244 -0.12337262 0.07823405 -0.035199426 -0.34642127
0.041744377 -0.22285798 -0.007723109 0.10929558 -0.122336805 0.21587744 -0.104947515 -0.10782778
-0.31933394 -0.048963122 0.0062826253 0.16790135 -0.1847339 -0.045404755 -0.11293572 -0.08994901
-0.15777145 -0.05982261 -0.0039474224 0.025147012 -0.005583988 -0.2549404 -0.119859114 -0.37354323
0.054011382 0.00040663022 -0.3871894 0.24659866 -0.039476786 0.07879781 0.06810346 -0.1704435
0.1676824 0.18049763 -0.13222364 0.06500294 0.07380915 -0.021088716 0.09648948 -0.078913674
-0.109269105 0.0050798124 0.07472504 -0.09260727 -0.016154872 -0.06758142 -0.05819483 0.075686
-0.11836458 0.06869432 0.10754207 0.016500056 -0.10736702 0.084757395 -0.10749881 -0.13523656
-0.11975631 -0.054410018 -0.001484168 0.09890801 0.07654085 0.0077267736 0.014287635 -0.024113497
-0.055262886 0.09398339 -0.1301158 0.0012655621 -0.07086942 -0.08545792 0.042202517 -0.07630226
-0.048672494 0.03686353 -0.018797573 0.0776856 0.11305576 0.01807262 0.11790889 -0.0939855
0.051027633 -0.026220238 -0.071318805 0.049787473 0.010547022 0.06784072 -0.036681883 -0.03684787
0.07984736 -0.08260475 0.061689433 0.07517913 -0.021370765 0.05753792 -0.0012321969 -0.08193231
-0.1342062 -0.09893378 0.020887632 -0.047492556 -0.025641168 -0.14625543 -0.036163244 0.057926852
-0.071319014 -0.20622624 0.015907422 -0.16416436 0.045919336 -0.146778 0.092829295 -0.09894078
-0.012578729 -0.054827146 0.049460266 -0.004741277 -0.07022542 -0.06346957 -0.075987376 -0.055820093
-0.032219097 -0.14605758 -0.011088982 0.07163278 -0.06989174 -0.06878808 0.15443015 0.009966039
-0.12127033 -0.008567991 -0.055647366 -0.026631339 -0.055534136 -0.09380021 0.018585572 0.02104189
-0.08013569 -0.083419524 -0.0039856373 0.0855592 -0.06306072 -0.076329604 0.11771698 -0.09891953
-0.041310474 0.03567696 -0.05351414 0.043345146 -0.07766481 -0.045781758 -0.022226911 -0.07960547
-0.07458348 -0.009166969 0.04992006 0.046867494 0.05293528 -0.045277294 0.043132987 -0.07752553
0.062666446 -0.06556183 0.062328026 -0.16121288 -0.114769876 0.06396271 0.02008189 0.07702835
0.026233865 -0.02836839 -0.09291214 -0.03283918 0.06842567 0.049732655 -0.038404346 0.08232012
0.00024007924 0.028062364 0.06472747 -0.05302252 -0.051238257 0.005488813 0.08383117 -0.1072773
-0.11097537 0.041277442 -0.04380643 -0.023111736 -0.041403808 0.021611083 -0.016393924 0.07207981
-0.12516357 0.009917661 -0.02435922 -0.013700116 -0.12694806 0.028060284 0.11667789 0.08612984
-0.01323026 -0.08787144 -0.025937185 -0.13390608 0.026752524 -0.010982752 0.083866216 -0.0814618
-0.068912484 0.044033498 0.1149009 0.03631175 -0.11833389 0.08257504 0.047792092 -0.062243287
0.053614285 0.06570247 -0.14821719 0.045101523 0.059032097 -0.1371558 -0.012776149 -0.07542415
0.06202074 0.09021065 0.013370305 -0.02130025 0.03357801 0.027758233 -0.09088803 -0.07339225

2.bias f4 [64]
00000000: f765 623c 5097 02be cace 32be cad5 93bd
00000010: 6db5 6240 ce8f e8bd 7f98 85c0 b332 0fbf
00000020: ae64 54c0 40af bfbf af81 273d 707d 7bbf
00000030: ad01 e8bd 74b1 95bf 127a 193f 310e 2f40
00000040: 75a9 3441 9676 d13c 99a2 5cbf d659 0dc0
00000050: ce66 813f 1d13 2440 67f3 aebd 2811 aabd
00000060: ab2b cabf bf04 1abf 6514 6d3f dcc0 9a3d
00000070: 3ccc 4f40 85b3 81bc 1a95 9a3d eed1 8cbd
00000080: 0705 e5be 66f2 423d e851 4abe 6110 de3d
00000090: 027b 15c0 b7be d53e 1305 3f40 f2c4 7ebf
000000a0: 0c3d 9940 e6ab 2740 f515 8a3d 77dc bdbe
000000b0: c858 24bf 8afb ca3f e881 f1bf e3a8 24be
000000c0: accd c7bd d65d f9bd acf5 a0bc 2c4b c840
000000d0: e47a ac3d 0773 35bd 8f99 8840 fe0b a8bf
000000e0: ffb9 c43f ae5e e73f 6b5a 3cbf 56ae 7c40
000000f0: b1ab 0541 efb1 2f40 39a7 ca3f 5f9c 3e40
0.013818256 -0.12753034 -0.17461696 -0.072185114 3.5423234 -0.113555536 -4.1748652 -0.55936736
-3.318645 -1.4975357 0.04089516 -0.9823828 -0.11328445 -1.1694779 0.5995189 2.7352412
11.291371 0.025569241 -0.86185604 -2.2086082 1.0109499 2.5636666 -0.08542519 -0.083040535
-1.5794576 -0.6016349 0.92609245 0.07556316 3.2468405 -0.015832672 0.0754797 -0.068759784
-0.44730398 0.04759445 -0.19757807 0.10842968 -2.3356328 0.41747066 2.9846847 -0.99519265
4.788702 2.6198668 0.06742469 -0.37082264 -0.6419797 1.5858014 -1.8867769 -0.1608005
-0.09756026 -0.12176101 -0.019648395 6.2591763 0.08421877 -0.04429915 4.268745 -1.312866
1.5369262 1.8075769 -0.73575467 3.9481406 8.354417 2.7452352 1.5832282 2.9782941

4.weight f4 [4, 64]
00000000: 7e3c 2d3e f581 903c 95c0 d83d bb24 cb3d
00000010: fc27 343f 6037 c53d d229 0a3e 3c68 51bd
00000020: 2e52 d43d 8805 d43d 1291 f1bc 87a6 d2bc
00000030: 0ef9 c63d 42c7 523e 6dde 983c 3086 083f
00000040: 0f37 423f a759 303d 0e91 4a3b ac42 c93c
00000050: caf0 0d3e 3e1a aa3e ec31 d33d 85c6 e63c
00000060: aec1 823e a313 7b3e 4558 7f3e 563f c13c
00000070: 2c1d d93e ca74 533d 9b8f db3c d76a d1bd
00000080: 263d fc3a 40b8 733d 9619 343d 5336 94bc
00000090: 80de 553e e9e2 1fbb e594 2e3f 887f fbbc
000000a0: 6df8 f93e 076a d03e f0fc 2f3d f082 ca3d
000000b0: b59f 1f3f a0a4 173f 019a e73e b58b 35bd
000000c0: 858c 883c 80eb e23c 3e77 29bb 3486 8d3f
000000d0: 7708 0c3e 9c59 823d e9ce 993d 6d41 12be
000000e0: b012 a3bd 710b b83e 88ac b6be a50a 023f
000000f0: f2b0 133f 7d32 9d3e 5f29 d43e 8943 ea3e
00000100: f016 57be 54e1 853d f674 d2bd cff1 d5bd
00000110: e60c 79be 4634 d43d 127b 603d da42 b4bd
00000120: 1077 a938 59b7 adbe 1626 a63d 0eea 823c
00000130: 07e2 d93d 245e 653a 966b 743d 5217 6dbe
00000140: cdc7 63bf 6c70 fd3d 6e51 52be 0bca 19bf
00000150: 0608 9e3d d93c 81be 506c c8bb 12c8 f7bd
00000160: 7435 b6be 8f59 0b3d 4dbc b9be dce2 703c
00000170: 3e6f afbe f449 c33d 358f ae3d a1f0 62bd
00000180: f1f1 1ebe b862 4a3d 3140 c3bd a82b 343d
00000190: 1ec2 a9be 33f2 56bc 8fc7 a53c 9039 6ebe
000001a0: 6fbd d9bd 6bea b9be f634 f6ba 094a a53e
000001b0: 9e3a 5abf 1e9c e53e d506 1bbe 316c 96bd
000001c0: ad7f a43d d1ea bcbd c9a3 973d 0f8b b2be
000001d0: 4c5e b33d ed20 af3d cfae 17be b1e6 94be
000001e0: 13b5 96bd 139f 84bd 06a1 7abc d709 0ebf
000001f0: 08d1 bb3e 31df 84be 2d8b febe 9bde 6c3e
00000200: 49bb 493d 9343 8e3d ec04 383c e68a 8bbd
00000210: 8f56 b83e 0c98 273d 13b9 d03d 8589 6dbd
00000220: a461 b63e cb45 843d 5253 c63d 6f9c a3be
00000230: b179 9c3d 30c4 bd3c f404 6b3e 994a a43e
00000240: 0934 323f 3485 073e 8a84 67bd 6396 123e
00000250: 670a bdbc 2139 6e3e e82b 2abd 0d2c e2bd
00000260: 8ff8 bc3e e3cb 663e caa4 183e 4412 1fbd
00000270: a233 a53e ff2c e9bd d581 313d 694c 04bd
00000280: 9cac 133e 136b 4abd 1a5d d93b 829a 8b3d
00000290: 0a27 003d 47cc ff3d 82fd 083f b939 f4bd
000002a0: 3e47 ce3e 5f1d da3e 4a94 2c3a 027c 833d
000002b0: 31f9 113f 6195 033f b460 cc3e 200a 07bd
000002c0: cd98 0abd e4b8 5c3d aa06 a3bd f88f 8a3f
000002d0: aed5 2e3e 9752 973d c8e2 643f e557 22be
000002e0: b704 93bd 34b7 643e c054 aebe eb25 4f3f
000002f0: 16b0 f53e fe5c 213e aa6f cf3e cc2c d83e
00000300: 10b2 58ba 863a 5c3d e9ad 8c3c 6e36 5cbd
00000310: 4be8 8abd f2b9 e0bd 3d84 c7be 3598 85be
00000320: a587 92bd 59cf 75be 8c02 733a 0fc2 093c
00000330: 9e3f e23c daa6 78be b373 433e 71de 8dbd
00000340: 8439 40bd 6981 16be cfd6 57be 5f24 fb3d
00000350: 7878 13bd 6d0b 51be eb4f 503d bc02 72ba
00000360: 7fcc cbbc df07 60bd 90be dd3b 8332 14bd
00000370: 9af3 c5bc f1a2 18bd 03a7 36bd e433 be3d
00000380: 108b 2cbc 2ba3 67bd 857b ebba 39af a93d
00000390: d0f5 abbe b80e 37bc 7cf9 c2be 60d6 20be
000003a0: 936b 45bf 284a 89be 4ef1 a3bd 03fa 91be
000003b0: 1af1 75bf f6a7 363f c502 1cbf 1a62 0dbc
000003c0: 4c1e ffb9 46e0 d8bc f4d6 3d3a 6176 06bf
000003d0: 6497 8f3d ce4b c8bd c716 7cbe e7a4 bcbc
000003e0: 220a 0cbd 7c31 21bf ad5f 263c 28f2 b7be
000003f0: e76e be3c 2937 8b3c 40e2 0abe 8c83 c33c
0.16917607 0.017640093 0.10583607 0.09919115 0.7037351 0.096297026 0.13492516 -0.051124796
0.10367237 0.103526175 -0.02948812 -0.025714172 0.09715472 0.20583823 0.018660748 0.53329754
0.7586526 0.04305425 0.0030909213 0.024567924 0.13861385 0.33223146 0.10312256 0.028170833
0.2553839 0.2451921 0.24936016 0.023589771 0.4240507 0.05162505 0.026801875 -0.10225456
0.0019244298 0.059501886 0.043969713 -0.01809231 0.20885658 -0.0024396724 0.68195945 -0.03070046
0.48822346 0.40705892 0.04296583 0.098882556 0.6235307 0.5923557 0.45234683 -0.044322688
0.016668567 0.027700186 -0.0025858427 1.105658 0.13675104 0.06364748 0.07510168 -0.1428277
-0.07962549 0.3594623 -0.35678506 0.5079749 0.5769187 0.30702582 0.41437814 0.4575465
-0.21004844 0.065371186 -0.10276215 -0.10446512 -0.24321327 0.10361533 0.05480487 -0.088018134
8.080725e-05 -0.33928946 0.08112733 0.015980747 0.106388144 0.0008749685 0.059672914 -0.23153427
-0.88976747 0.123749584 -0.20538875 -0.6007392 0.07716374 -0.25241736 -0.0061164275 -0.12098707
-0.35587656 0.034020957 -0.36276475 0.014702525 -0.3426456 0.0953559 0.08523408 -0.055405263
-0.15521981 0.04941055 -0.09533728 0.043986946 -0.33155912 -0.013119268 0.020236759 -0.23264146
-0.10631835 -0.3631166 -0.0018784094 0.32283047 -0.8524569 0.4484567 -0.15139325 -0.073448546
0.08032165 -0.09224475 0.074042864 -0.34871718 0.0875822 0.08551202 -0.14812778 -0.29082254
-0.07358756 -0.064756535 -0.01529718 -0.55483764 0.36682916 -0.25951532 -0.49715558 0.23131792
0.049250875 0.069464825 0.011231642 -0.06813602 0.3600354 0.040916488 0.1019155 -0.057992477
0.3562137 0.064586245 0.09683861 -0.31955287 0.07640398 0.023164839 0.22951108 0.32088163
0.6961065 0.13234407 -0.056522883 0.1431518 -0.02307625 0.2326398 -0.04154578 -0.11043558
0.36908385 0.22538714 0.14906612 -0.03883578 0.32265955 -0.113855354 0.043336708 -0.032299433
0.14421314 -0.04941852 0.006633413 0.068165794 0.03128723 0.12490135 0.5351182 -0.11925072
0.40288728 0.42600533 0.0006583376 0.06420137 0.5702086 0.5139981 0.3991753 -0.03296864
-0.03383713 0.053887263 -0.079602554 1.0825186 0.170737 0.073888 0.8940854 -0.15853842
-0.07178634 0.22335511 -0.34049034 0.80917233 0.47985905 0.1575813 0.4051488 0.42221677
-0.00082662795 0.05376675 0.01717277 -0.053762846 -0.067825876 -0.10972966 -0.38968077 -0.26092687
-0.071547784 -0.24004878 0.0009270094 0.008408084 0.027618226 -0.24282399 0.19087104 -0.06927193
-0.04692985 -0.14697804 -0.21078037 0.122627966 -0.03600356 -0.20414515 0.050857466 -0.0009231975
-0.024877785 -0.054695006 0.0067671016 -0.036180984 -0.02416401 -0.037264768 -0.04459287 0.09287241
-0.010531202 -0.056552093 -0.0017965889 0.08285374 -0.33585978 -0.011172943 -0.38080966 -0.15706778
-0.7711727 -0.2681439 -0.080050096 -0.28511056 -0.96071017 0.7135004 -0.60941726 -0.008629346
-0.00048659963 -0.02647413 0.00072418083 -0.5252438 0.07011297 -0.097800836 -0.24618064 -0.02302785
-0.03418935 -0.6296613 0.010154647 -0.35926938 0.023246242 0.016994076 -0.1356287 0.023866437

4.bias f4 [4]
00000000: 1df1 c3bf 59b3 fa40 1502 87bf c1ab 1041
-1.5307957 7.834393 -1.054751 9.041932
