DQNmodel.pth (torch, 22802 bytes, 6 tensors)

fc1.weight f4 [64, 9]
000000 fa 89 48 bf a0 1d 9f 3e d1 9a d3 3e 19 cd f2 be
       -0.78335536 0.3107729 0.41329053 -0.47422102
000010 29 cb 1b 3f 03 52 6e bd f5 31 ce 3e f7 c6 e8 be
       0.6085687 -0.05818368 0.4027249 -0.45464298
000020 c9 1d 01 be 7d 8d 85 3d 3f 53 59 bf 57 07 fb 3e
       -0.12609018 0.065211274 -0.8489265 0.49029037
000030 26 63 1d 3f 56 fb 1a be 64 74 a3 be 73 07 3e bf
       0.61479414 -0.1513494 -0.31924736 -0.74230117
000040 6f 0b 8e bf 90 99 33 3e da 5c 7b be 44 32 7c be
       -1.1097239 0.17539048 -0.24547139 -0.2462855
000050 e4 35 ec 3e 8e 39 ac bd f7 c2 a0 3d 95 cc 26 3f
       0.46134865 -0.08409415 0.078496866 0.6515592
000060 2e 65 84 3d 67 68 8c 3f b5 6e cb bd 36 81 81 be
       0.06464611 1.0969361 -0.09933225 -0.25293893
000070 0f 11 5a bf d5 5d 31 3e 6f d9 87 3f e5 7b 8b 3d
       -0.8518228 0.1732095 1.061323 0.068107404
000080 0a 73 9f 3e 8f 05 7a 3d 8d 81 6f be 20 ad bc be
       0.31142455 0.061040457 -0.23389263 -0.36850834
000090 86 5a 80 be 05 b1 17 bf a4 be 15 be 69 55 25 3f
       -0.25069064 -0.59254485 -0.14623505 0.6458345
0000a0 32 c5 93 be d1 26 8c be 65 0e 88 3e 39 f9 b8 3e
       -0.28861386 -0.27373365 0.26573482 0.36127642
0000b0 0e 6f 35 bc a2 f7 6a 3e 78 43 a8 3e b1 f2 9a bd
       -0.011073841 0.22946027 0.32863975 -0.07565821
0000c0 ab 2f 2f bf cf 4e 1b bf 52 3a 25 3e 96 05 f0 3e
       -0.6843211 -0.6066713 0.16135529 0.46879262
0000d0 25 28 45 3d cf 4a 8b 3e 50 74 b9 3e 93 71 55 3e
       0.048133988 0.27205512 0.36221552 0.20844106
0000e0 6b 2c 33 3e 38 1e 51 3e d4 b0 7c 3f 1a ad 13 3e
       0.17497413 0.20421684 0.9870732 0.14421502
0000f0 ef 45 72 3e 16 e9 3f 3f 7b 0a da 3d ee 07 6b 3e
       0.2365949 0.74965036 0.1064653 0.22952244
000100 af 10 e4 3d 31 03 e2 3e 21 63 c2 3e 04 df 63 be
       0.11135995 0.4414306 0.37966254 -0.22253042
000110 6b ee 2b 3f 44 bd be bd a0 0f f1 be d3 a9 49 be
       0.6716067 -0.09313443 -0.47082233 -0.19693689
000120 d3 d9 e8 bd b2 bb 56 3f 9f 9a 0b be 63 86 8b bf
       -0.11369672 0.8388015 -0.13633202 -1.0900387
000130 c7 09 24 bf 94 4d 10 3f c3 71 ac 3e 8d 5f a4 3e
       -0.6407742 0.56368375 0.33680543 0.3210415
000140 dc ba 02 3d f5 32 6f bd ba f9 c6 be 49 6f 53 3e
       0.031916484 -0.058398206 -0.388624 0.2064792
000150 c7 c8 80 bb f5 9e 75 bd d5 a1 01 3f 5d 40 63 3e
       -0.0039301845 -0.059966046 0.5063756 0.22192521
000160 27 6c 5c 3f 84 e4 70 be 4c 1d 1e bf 92 37 12 3f
       0.8610253 -0.23524672 -0.61763453 0.57116044
000170 58 fc 85 3e bd 0a 2b be 21 90 25 bf ca e3 f4 be
       0.26169086 -0.16703315 -0.6467305 -0.4783004
000180 8c d1 20 3d 6d a1 15 3e 52 da 85 3e a7 77 cb 3e
       0.03926234 0.1461236 0.26143128 0.39739725
000190 d3 46 6e 3e 3e 22 4d bd b0 49 d8 be 12 fa 12 bf
       0.23269205 -0.050081484 -0.4224372 -0.57412827
0001a0 89 24 b1 3e b5 41 c8 3d 96 9a b0 be 72 eb 58 be
       0.34598187 0.097781576 -0.3449294 -0.21183565
0001b0 64 82 4b 3e 8a 13 52 3e db d5 a3 3d c8 27 89 3e
       0.19873959 0.20515266 0.07999774 0.26788163
0001c0 a5 88 28 bf 84 df a7 3e 1a 55 85 be e3 1b 80 bd
       -0.65833503 0.32787716 -0.2604149 -0.06255319
0001d0 52 55 c1 3e ed 47 e8 3d 7a f9 86 be f0 9b a7 3d
       0.37760407 0.11341844 -0.2636221 0.081840396
0001e0 2f 2f 08 bf 97 4d 71 3f ee f1 28 3f 50 5f b5 3e
       -0.53196996 0.9425902 0.65994155 0.3542428
0001f0 76 00 d8 3e 77 dd 2b 3f a6 d2 fb be bc 72 a1 bd
       0.42187852 0.67134804 -0.4918415 -0.07883212
000200 ff 8a f4 3e 7c b6 b1 3e 2b a3 84 3e 9e 92 d3 3e
       0.47762296 0.34709537 0.25905737 0.41322798
000210 40 8f fd be 5c 36 46 3f e0 6b 0a bf e1 86 09 bf
       -0.49523354 0.77426696 -0.54070854 -0.53721434
000220 45 50 e9 3e 8a 00 80 3e f9 e0 c5 be bf 4e ac 3e
       0.45569053 0.2500041 -0.38648203 0.33653829
000230 cb 8c 87 bd 15 a9 25 3e a8 bf 8c 3d 2e b8 76 3e
       -0.06618651 0.16177781 0.06872493 0.24093696
000240 de e5 79 3e b3 99 d7 3e 0b f8 c9 3e 9e 74 bc 3d
       0.24404094 0.4210945 0.39447054 0.092019305
000250 1b 70 25 bf 3e 93 1a 3e a7 35 a2 bc ce 0f 9d be
       -0.64624184 0.15095231 -0.019800974 -0.3067612
000260 36 ee 69 be 64 99 ae be f1 5b 73 3e ef c5 b2 3e
       -0.22844777 -0.34101403 0.23765542 0.34916636
000270 e7 48 94 3e 9f cb 88 3f a5 12 67 3e 02 9d 99 bd
       0.2896187 1.068714 0.22565706 -0.0750065
000280 b0 ce 35 3f 36 ec ca bd c6 41 b5 3c 10 29 58 3f
       0.71018505 -0.09908335 0.02212609 0.84437656
000290 91 d1 e9 3d 15 cf 5f bd c0 7f ab 3e be 79 58 bf
       0.11416925 -0.05464085 0.33495903 -0.84560764
0002a0 b4 dc a9 bd 5d 0b 06 3f c3 2b 42 3f b2 87 be bd
       -0.08294049 0.5236109 0.75848025 -0.093032256
0002b0 c9 32 2e be d7 b0 86 3e a7 55 04 3f c8 de 00 bf
       -0.1701156 0.26306793 0.51693195 -0.5033994
0002c0 7e ed 26 3f 6f 5c 04 bf 5f 87 7f 3b 78 6e 01 3d
       0.65206134 -0.5170354 0.00389906 0.03159949
0002d0 88 e3 c0 be 47 b3 75 3e 0b 45 ba 3d 94 5d 96 be
       -0.37673593 0.2399417 0.090952 -0.2936827
0002e0 28 56 87 3f 51 d9 37 3e b7 50 0c 3f 30 ee 35 3f
       1.0573168 0.17953993 0.5481066 0.7106657
0002f0 8a 6a 71 3e 19 1f 26 bf 18 97 11 3f 06 5b 0c 3e
       0.23575798 -0.648912 0.56871176 0.13706598
000300 7b 3f 8c 3e 06 a7 d4 3e 5a 9e 00 3f c5 89 0e bf
       0.27392182 0.4153368 0.50241625 -0.5567897
000310 b2 1c 5d 3f 33 e3 03 bf 33 f5 11 be ab 1e 00 be
       0.8637191 -0.51518553 -0.14253692 -0.12511699
000320 00 34 80 bb 6e 29 aa be 6c ed 88 be 5b 38 05 be
       -0.003912449 -0.33234733 -0.2674364 -0.13009779
000330 ba aa 0d 3e 4c e7 d1 bd db ef a3 be a0 fa 85 3e
       0.13834658 -0.102491945 -0.32018933 0.26167774
000340 66 0c 87 3e e0 09 f4 bc 2a b2 90 3e db 0f 16 bf
       0.26376647 -0.029789865 0.28260928 -0.58617944
000350 27 f3 02 3e f0 f5 f8 3d 67 fa 77 be e2 a0 c7 3e
       0.12788068 0.12156284 -0.24216615 0.3898993
000360 6f 35 6f 3e a9 35 1a 3f ac 32 2b bc c6 4c fd bd
       0.23360227 0.6023813 -0.010449093 -0.12368159
000370 0d 4c 93 3f b5 45 f5 3e fe 0c 35 3e d6 d6 0e 3f
       1.1507584 0.47904745 0.17680737 0.55796564
000380 40 63 25 bd 82 f7 51 3d 04 33 1e 3f 85 66 41 bc
       -0.040377855 0.051261432 0.61796594 -0.011804228
000390 a0 15 b4 3e 45 70 6c 3f 58 99 ff 3e 7e 8d 33 3e
       0.3517275 0.9235881 0.4992168 0.17534444
0003a0 b9 de 99 3e 33 6d ac bc 5b cf 44 3d 29 6b c1 3e
       0.30052736 -0.021048164 0.048049312 0.3777707
0003b0 bc 82 2f 3e dd ce 59 3e 8a c5 18 bf 5d c3 b8 bd
       0.17139715 0.21270318 -0.5967642 -0.090216376
0003c0 e9 ee 52 be 56 9e a2 be 81 39 93 3e b6 1f 66 3e
       -0.2059895 -0.31761426 0.2875481 0.22473034
0003d0 0c ef 7f 3d fe 2e ad 3e 85 28 a8 be 15 85 64 3f
       0.062483832 0.33824915 -0.32843414 0.8926557
0003e0 b0 45 ee 3e 2b 77 01 3f 83 45 56 3e 8d 45 20 bd
       0.46537542 0.5057246 0.20924954 -0.03912883
0003f0 a0 92 f5 bd a9 e6 fe be 9f d0 b0 bd c0 97 8b 3d
       -0.11990857 -0.49785355 -0.08633541 0.068160534

fc1.bias f4 [64]
000000 6f 4d 04 3f 5c 3d f6 3e 91 f2 97 3e 8f fb b6 3e
       0.51680654 0.48093688 0.2967725 0.357388
000010 a2 e2 e7 3e d6 77 6e 3e 50 2c 11 3e 68 0e 8c 3d
       0.45290095 0.23287901 0.1417706 0.06838685
000020 93 ee 87 3e 6a 8f 03 3f 6a 26 4f 3f e3 20 66 3e
       0.26549205 0.5139071 0.8091799 0.22473483
000030 91 92 74 3e 3c 42 b3 3d 41 83 a7 3e 4c 94 f8 bc
       0.23884036 0.087528676 0.32717326 -0.030344151
000040 fd 14 ec 3e 06 62 41 3e 14 dc c2 3d 28 8a d7 3e
       0.46109763 0.18885049 0.09514633 0.42097592
000050 69 3e fa 3e 91 13 00 3f 6b 6f 28 be 4b b1 29 3e
       0.4887574 0.50029856 -0.16448753 0.16571538
000060 4f 5b 10 3f 0c 9a d6 ba 17 9b 21 3f f6 69 98 3e
       0.56389326 -0.0016372814 0.63127273 0.29768342
000070 19 9e 29 3f 42 7d 78 3e 2a 21 2a 3f 99 55 b3 3e
       0.6625686 0.24266532 0.66456854 0.35026243
000080 7e 25 8b 3e 6a cc 5f 3e 40 9f 95 be 93 1c 85 bd
       0.27177042 0.21855322 -0.2922306 -0.06499591
000090 f5 06 43 3f 0a 3f 9a 3e d9 27 87 3e c0 d0 07 3f
       0.7618249 0.3012622 0.2639759 0.530529
0000a0 ca b6 26 3f dd 72 90 3e 11 14 34 3f 24 3c 58 3e
       0.65122664 0.28212634 0.7034312 0.21116692
0000b0 cf 49 48 be 09 99 bd 3e db 33 ee 3e 3f 4e a7 3e
       -0.19559406 0.3703082 0.46523938 0.32676885
0000c0 c1 ee 9c bc 2a 70 95 3e 40 c5 ec bc 4d 8f 21 3f
       -0.019156815 0.29187137 -0.02890265 0.63109285
0000d0 eb 03 53 3e e5 84 eb 3d 46 22 05 bd 22 ef 00 3f
       0.20606963 0.11499957 -0.03250339 0.5036489
0000e0 de 0f dd 3e 90 6c b9 3e 53 73 6e 3e 6b 46 a7 3d
       0.43176168 0.3621564 0.2328618 0.08167728
0000f0 45 c2 26 3f 2a f9 c5 3e 0e ed a2 be 54 8e 1e 3f
       0.6514018 0.3866666 -0.31821483 0.61935925

fc2.weight f4 [64, 64]
000000 72 97 87 bc df 26 8e 3f a8 bd 1d 3e eb 76 4e 3e
       -0.016551707 1.1105613 0.1540438 0.20162551
000010 ac 74 16 3f f2 72 b4 3b 7d 38 3f be 5d e9 1b bf
       0.5877178 0.0055068666 -0.18673892 -0.6090296
000020 55 3c b4 be 23 56 35 3e 3a e6 e0 3e 11 37 03 3e
       -0.3520228 0.1770864 0.4392565 0.12813975
000030 85 56 5e 3e d8 9b 6f 3d 34 e0 93 be 9f bd 6c be
       0.21712692 0.058498234 -0.2888199 -0.2311921
000040 a4 c0 1c 3e 9a 0f 10 bf ab 7b 27 bd 28 34 88 3d
       0.15307862 -0.56273806 -0.040889423 0.06650573
000050 f6 e6 e7 be c7 26 16 bf 98 c4 93 bc bd 57 52 3e
       -0.45293397 -0.5865292 -0.01803808 0.20541282
000060 66 c2 dc be 16 79 3b bf 5e f3 32 3e 17 9a b3 bd
       -0.43117064 -0.7323164 0.1747565 -0.08769625
000070 42 1a c1 3e 9c 4c 08 3e 4f 5b af 3e 4c 0e b8 bd
       0.37715346 0.13310474 0.3424935 -0.08987102
000080 f8 dc 6d 3d f0 e5 5f 3e 40 35 c6 bb 47 1f 4f 3e
       0.05807206 0.21865058 -0.0060488284 0.20226775
000090 a4 76 7f be 25 fc 40 3e 6a b1 cb 3e 54 bf b7 3e
       -0.24947602 0.18846186 0.39783794 0.3588816
0000a0 ae 83 87 be e1 9d cb bc da 96 79 3e d1 15 6b 3e
       -0.2646765 -0.024855556 0.24373952 0.22957541
0000b0 ed 57 9d 3e 04 7f 31 be 30 d0 2c 3e 9a 49 ff be
       0.30731145 -0.17333609 0.16876292 -0.4986084
0000c0 38 f3 e7 be 2a 84 62 3e 4c 2f f7 bd 15 a7 b8 be
       -0.4530275 0.22120729 -0.12069568 -0.36064973
0000d0 9f 2f 06 be 7b 42 e7 bd 40 f0 ce be 41 db 5c be
       -0.13104104 -0.11291977 -0.4041767 -0.21568014
0000e0 96 6b 35 3f 10 dd 49 3e 92 c5 21 3f 52 4b dd 3f
       0.7086729 0.19713235 0.63192093 1.7288611
0000f0 e2 77 a3 3e c0 a1 f7 3d 50 f8 c1 3c 3f fa e3 3d
       0.319274 0.12091398 0.023677975 0.11131715
000100 e6 09 1b bf 5b 4a 88 bf b7 04 da 3e 62 c5 6a be
       -0.6056198 -1.0647691 0.42581722 -0.22926858
000110 c8 06 57 be 69 9d 66 3d de af 0a 3f a0 fb 48 3e
       -0.2099868 0.05630246 0.541746 0.19627237
000120 e8 a3 4a be 04 24 a0 3e ff dc 5a bf 50 5a 63 be
       -0.19789088 0.31277478 -0.85493463 -0.2220242
000130 30 e7 89 be c5 bb 68 3e 5a 42 4e 3f f7 82 ac be
       -0.26934195 0.22727878 0.80569994 -0.33693668
000140 f1 d1 c1 bc 76 8b a0 3e aa ba af 3f 46 7f 14 bc
       -0.023659678 0.313564 1.372884 -0.0090635475
000150 02 cf 9f 3e 09 c7 88 3f 00 17 18 3c 7b b6 10 be
       0.31212622 1.0685741 0.009282827 -0.14132111
000160 c5 24 06 3f 2f 5b a5 3e ca 1a 78 be a7 28 2a 3e
       0.52399856 0.3229613 -0.24228969 0.1661707
000170 f8 24 c1 3d 1b 20 9e 3e af 95 7b be b6 f3 83 3f
       0.09430879 0.3088387 -0.24568819 1.030875
000180 88 b8 79 be 24 30 88 bd c0 4f 7f bc c5 34 8a 3e
       -0.243868 -0.06649807 -0.015582979 0.26993385
000190 0a 65 04 3d b9 62 db 3e 8f 43 84 be cc bd b5 3e
       0.03232292 0.42848757 -0.25832793 0.35496366
0001a0 46 91 04 3f 40 c2 3b 3f d0 4b f0 bd 61 f5 1e 3b
       0.5178417 0.73343277 -0.1173321 0.0024255144
0001b0 8f e0 a3 be 7c e2 37 3f 9c ab e8 3d 18 dd ae 3e
       -0.32007262 0.7182996 0.11360857 0.34153056
0001c0 8d d6 a8 3e 4b 5a 99 be 78 86 b2 3c 80 d2 c5 3e
       0.3297619 -0.299517 0.021792635 0.3863716
0001d0 03 de 2a 3e 0d 17 ca bd 11 54 68 3e c7 7c 5a 3f
       0.16686253 -0.09867678 0.22688319 0.85346645
0001e0 eb 9a 39 be 1a 84 4f bf 20 66 38 bf ca 97 9c bf
       -0.18125503 -0.81060946 -0.7203083 -1.2233822
0001f0 00 3f 08 be 49 32 4e 3e 46 bc 92 3d 28 ec 30 3f
       -0.13305283 0.2013637 0.071648166 0.69110346
000200 5c 08 08 be e4 fb ca 3d c5 ca 87 bd 28 8f 05 bd
       -0.13284439 0.099113256 -0.06630472 -0.032607228
000210 13 bf f6 bd d7 34 79 bd f5 c8 19 be a3 a7 1d 3c
       -0.12048163 -0.060841408 -0.15018065 0.009622487
000220 4e a3 44 3c e9 26 13 be 62 f9 93 3d f4 7b 98 3d
       0.0120018255 -0.14370312 0.072253 0.07445517
000230 e4 ca 9e 3d d2 43 01 bc 22 55 96 3c 6d c3 bf bd
       0.07753542 -0.007889705 0.018351141 -0.093634464
000240 23 75 83 bd 17 a8 20 be e8 1d cd bd df f1 41 bd
       -0.064188264 -0.15689121 -0.1001547 -0.047349807
000250 22 a0 b9 3c 12 8a ca bd 78 d6 dd 3c 4a 02 02 be
       0.022659365 -0.09889616 0.027079806 -0.12696186
000260 54 6d d7 3c 1a f9 64 3d ff 5a ca 3c 89 63 ec bc
       0.026297249 0.055901624 0.024701593 -0.028856056
000270 77 f1 01 be 82 a0 b1 bd 50 9f e6 bd 3e de 53 3b
       -0.12689768 -0.086731926 -0.11260855 0.0032328512
000280 ff da ee bc 0f 07 9b bd 6c c0 ef 3d 82 b8 e7 bd
       -0.02915716 -0.07569706 0.117066234 -0.11314489
000290 9e 7b 4a 3d d8 47 4d 3d 40 a8 ee bd 58 27 e8 bd
       0.049434297 0.050117344 -0.11653185 -0.11335629
0002a0 4a a7 9b 3b e0 77 24 bd a0 cf fa 3c c2 bd e1 bc
       0.004750167 -0.040153384 0.030616581 -0.027556304
0002b0 0c 7f 85 3c f5 ec fd bd a4 f7 d2 bd 36 a9 06 be
       0.016295932 -0.123987116 -0.1030114 -0.13150486
0002c0 68 1e 43 bc 10 2a c7 bd 88 26 cb bd b8 d4 47 3d
       -0.011909105 -0.0972482 -0.09919459 0.04878685
0002d0 bb c2 9e bd 74 f2 1a bd 6f 6b 1b 3d 01 9c 06 be
       -0.07751986 -0.037828878 0.037944254 -0.13145448
0002e0 39 b7 70 3d a7 52 a4 bd f3 38 09 be 43 81 91 3d
       0.058768485 -0.08023577 -0.1340063 0.07104733
0002f0 74 00 2b 3d 6a ec 38 3d 68 7f e8 bd a2 7e 84 bd
       0.04174848 0.045147337 -0.11352426 -0.06469466
000300 47 f4 1a bd 96 b7 4f 3f 22 17 0e 3e bb 07 0a 3f
       -0.037830617 0.81139505 0.13876012 0.53918046
000310 b9 c5 16 3f 55 3a 2a be e3 a5 e2 bd 03 f4 fd be
       0.5889545 -0.16623814 -0.11066797 -0.4960023
000320 75 ad 31 be 4f a6 a5 3e fa c0 db 3e f7 54 42 3c
       -0.17351325 0.32353446 0.42920667 0.0118610775
000330 98 f2 26 3e 5d c5 da be 97 49 79 3e af d5 4f be
       0.1630348 -0.427287 0.24344479 -0.20296358
000340 e9 63 82 3e 63 bb 56 be 74 9f 39 3e 1b 93 81 3e
       0.2546685 -0.2096992 0.18127233 0.25307545
000350 8e c5 56 be 42 98 31 bd b0 9c 64 bc 96 76 73 3d
       -0.20973799 -0.043358095 -0.013953373 0.059439264
000360 58 ab de be 0a aa c3 be c3 95 5c 3e 8a 78 88 be
       -0.434901 -0.38215667 0.21541505 -0.26654464
000370 2f 2f 89 3e ea 4c 01 3f 8b 03 40 3e 63 05 8e 3e
       0.2679381 0.50507987 0.18751352 0.27738485
000380 e3 4d 16 3e 7b b0 7f 3e 90 12 dc 3d 91 cd 31 3e
       0.14678149 0.24969666 0.10745728 0.17363574
000390 51 9c 9c be f4 9f 04 3f 86 e7 6e 3d b8 b0 a1 3e
       -0.3058801 0.5180657 0.058326267 0.31580138
0003a0 d3 ec 1c 3e 4e fc 19 3e a5 2f 81 3e 88 b3 26 bd
       0.15324716 0.15037653 0.25231662 -0.040698558
0003b0 06 0b e4 3e d0 e1 88 bc 39 51 08 3e 34 b4 18 be
       0.4453966 -0.016709238 0.13312234 -0.14912492
0003c0 9a 5c db be 36 92 97 3e f8 a5 97 3c dc 76 26 be
       -0.42844087 0.29603738 0.018511757 -0.16256279
0003d0 b3 ff ad 3e 97 0d 92 3d cb da c1 be b5 76 ba 3e
       0.33984146 0.07131498 -0.37862238 0.3641869
0003e0 e8 f6 68 3e 37 e6 ee 3e c3 29 2a 3f 4f b2 a5 3f
       0.22750437 0.46660015 0.66469973 1.294504
0003f0 fa bb 78 3e 1c 74 fe 3d c2 23 89 bd ef 2c 01 3f
       0.24290457 0.1242449 -0.066962734 0.5045919

fc2.bias f4 [64]
000000 ee 95 8b 3e 20 e9 14 3d 7f fb af ba 54 9c 38 3e
       0.27262825 0.036355138 -0.0013426392 0.18028384
000010 b8 69 c8 bd 8d 70 21 3c f4 be 74 3d 1a ba 88 bd
       -0.09785789 0.009853494 0.05975242 -0.06676121
000020 ad 93 e7 bd 07 3d e2 bd 51 15 9e 3e 44 b4 aa 3b
       -0.11307464 -0.11046796 0.30875638 0.0052094776
000030 f2 eb 3d bd 24 f1 ec bd 1d eb cb 3d 13 f1 b9 3d
       -0.046367593 -0.115694314 0.09956954 0.090791844
000040 69 48 d2 3d 51 5f 9e 3d 94 fa ef bc e9 94 90 3e
       0.102677174 0.07733024 -0.02929429 0.2823861
000050 a3 be e1 3c b3 c3 12 3e 6b 56 ee 3d 90 10 47 bd
       0.027556723 0.14332466 0.11637577 -0.04859978
000060 a2 50 3b 3e c9 5d 67 3e b2 49 31 3e 70 05 b1 bd
       0.18292478 0.2259437 0.17313269 -0.08643615
000070 d2 77 62 3e 0b 90 d7 3c b1 2d d5 3d bb bd 0b 3d
       0.2211602 0.026313802 0.104091056 0.034116488
000080 7d 7e 08 3e 4d 2c 60 3e f4 fa 2f 3d 88 4c d4 3d
       0.13329501 0.218919 0.042963937 0.1036616
000090 98 01 0e 3e 91 e3 53 3e 16 73 cb 3c 24 b7 62 3e
       0.13867795 0.20692278 0.02483515 0.22140175
0000a0 9f 6a 14 bd e2 e0 31 3e 56 5a e9 bd a9 28 dd 3c
       -0.036234494 0.17370942 -0.11394183 0.026996927
0000b0 4a 87 68 3e b6 80 75 bc 50 1d c4 bd 29 98 50 3e
       0.22707859 -0.0149843 -0.095759034 0.20370544
0000c0 03 98 10 3d 36 2c 82 3e 4d a3 8d 3d ad cf 12 be
       0.03530122 0.25424355 0.06915913 -0.14337035
0000d0 96 d6 30 3e ac 77 7e 3e de b8 09 be 43 9d 4b bd
       0.17269358 0.24850339 -0.13449427 -0.049710523
0000e0 ed b8 cd 3d d4 3a 36 3e 54 fc 31 3e 41 8c fb bc
       0.100450374 0.17795879 0.17381412 -0.030706527
0000f0 1f 1f ab 3b b0 d8 28 3e 3a 1c b6 3d 2a bd 1d 3e
       0.005222216 0.1648891 0.088921025 0.15404192

fc3.weight f4 [4, 64]
000000 bf ca 8b 3e e6 82 8b be 14 b5 a7 bc 9e e2 a7 bd
       0.2730312 -0.27248305 -0.020472087 -0.08197521
000010 f9 dc a6 bd 43 d4 f2 3d a8 ba b3 bd 2c a2 b0 3c
       -0.08147616 0.11856892 -0.08775836 0.021561705
000020 a0 08 73 3d 04 ed 9a 3d 84 e7 36 3f c5 6c e5 3e
       0.059334397 0.075647384 0.71447015 0.44809547
000030 aa 06 ad bc 35 c8 0f 3d 8f 6e dd be 12 2c ac 3e
       -0.021121342 0.03510304 -0.43248412 0.33627373
000040 15 ad 15 bd 64 12 fd be 53 f2 0c bf af d6 37 be
       -0.036542017 -0.49428093 -0.5505726 -0.17952989
000050 1d ff 9d be 68 fd 18 be 17 e8 b6 bd 80 dc 2a bc
       -0.30858698 -0.14940417 -0.089309864 -0.010428548
000060 19 b9 14 bd 80 c2 c2 3d af 6c 0c bd e0 d4 f0 bb
       -0.036309335 0.09509754 -0.034283336 -0.0073495954
000070 a9 39 be 3e 96 b0 44 be 98 69 55 3e b6 dd 61 bd
       0.37153366 -0.19207987 0.20841062 -0.05514308
000080 09 a2 21 be 88 25 2c 3f 72 9c 81 bd 20 a4 e4 bd
       -0.15784468 0.6724477 -0.06328668 -0.11164117
000090 df b1 4a 3d 82 88 30 be 96 63 d8 3e 68 03 22 be
       0.049486037 -0.17239574 0.42263478 -0.15821612
0000a0 60 e3 3d bd 91 f6 2f 3c cd 48 09 bc 4a af b6 be
       -0.04635942 0.010739938 -0.008379173 -0.3568061
0000b0 3a 7a d6 be 2d 58 66 bf 96 36 95 bd 3c f8 21 3f
       -0.41890126 -0.89978296 -0.07285802 0.632694
0000c0 a7 46 a5 be 92 bb a0 3d e0 46 23 3e 67 cf 1a 3e
       -0.32280466 0.07848276 0.15945005 0.1511818
0000d0 83 db e2 be 7f d9 15 3f c9 82 96 3d 16 de af 3d
       -0.443081 0.58535 0.07349164 0.085872814
0000e0 55 ed 89 bf 0b 25 24 3e 23 9f ba be 10 f2 8e bd
       -1.0775553 0.16029756 -0.36449537 -0.069797635
0000f0 2f e6 04 be 8d 10 40 be 5b 57 4f bf e6 a6 f0 bc
       -0.12978433 -0.18756314 -0.8099267 -0.029376458
000100 19 09 92 be 62 6b 23 bf 82 78 84 3d 42 6c 77 be
       -0.28522566 -0.6383573 0.064682975 -0.24162391
000110 21 84 a1 bc 1f b4 0d bd 5c b0 07 bd 84 a2 4d 3b
       -0.019716324 -0.034595605 -0.033127174 0.0031377384
000120 90 70 81 bc 08 83 33 bd ba 49 1e be d5 f5 6d be
       -0.015800744 -0.043826133 -0.15457812 -0.23238309
000130 da 8f d2 bc 40 92 26 3c ec 84 31 3e ae 98 92 bf
       -0.02570336 0.010166705 0.17335862 -1.1452844
000140 56 18 ce 3e 01 31 1f bf 0a 1f 2f 3e 4a af 14 3f
       0.40252942 -0.6218415 0.17101684 0.5807997
000150 92 be d8 be e6 61 2a 3f 3b a7 f2 be ba 93 8d bd
       -0.42332894 0.6655563 -0.47393212 -0.06912942
000160 24 87 b4 3d 15 59 35 be c8 2f 73 be 0c 00 59 3d
       0.088148385 -0.17709763 -0.23748696 0.05297856
000170 7b fa 96 be bb d0 75 bd 8e 69 8c 3e 44 ca 1e 3d
       -0.29487976 -0.060013514 0.27424282 0.038767114
000180 41 0b c0 be 33 2f 33 bf a0 ca 8c 3c 1e 37 b2 39
       -0.37508586 -0.69993895 0.017186463 0.0003399187
000190 c7 8d f0 bd 3f c1 c4 be ed 21 22 be ce f1 c8 3e
       -0.11745792 -0.38428685 -0.15833254 0.39246982
0001a0 40 c5 7b 3c 5f 2c 33 be cf 99 a3 3d 03 a5 72 be
       0.015366852 -0.17497395 0.07988321 -0.2369576
0001b0 63 76 b2 be 49 51 17 3e c1 2c 60 bd 87 b0 9a be
       -0.34855947 0.14777102 -0.05473018 -0.30212805
0001c0 aa 2a 91 bc 7f 72 2a be d3 74 ce bd 07 68 69 bd
       -0.01772054 -0.1664524 -0.10080876 -0.056983974
0001d0 a4 d8 ca be 5f c2 53 be c9 58 ab bc 42 bb a8 3d
       -0.3961841 -0.20679615 -0.02091636 0.082388416
0001e0 74 98 82 bd 26 25 85 be 09 6e 94 be 0a 89 ce bc
       -0.063767344 -0.26004905 -0.289902 -0.02521183
0001f0 b2 36 4c bf 98 9b c2 be 84 0c d5 bd a3 f9 e6 bd
       -0.7977096 -0.38009334 -0.10402778 -0.11278083
000200 27 d3 7d be 61 b8 97 3e 59 f5 87 3d d3 7d 1b bf
       -0.2478758 0.29632857 0.06638593 -0.6073887
000210 e7 6d 78 3d 34 48 de bc c0 c8 f6 bb ab 53 93 3d
       0.060651686 -0.027134039 -0.0075312555 0.07193693
000220 08 e8 c4 bc 10 9d 49 3d 1f d4 9a be 8a 08 0c be
       -0.024036422 0.049222052 -0.3023996 -0.13675132
000230 48 5d a5 3d b5 84 b9 bd 9f 79 c9 3e 4d 52 a4 3e
       0.080744326 -0.09058515 0.39350602 0.3209404
000240 f6 29 2a bf 2a dc 3e be 56 95 eb be c1 a4 5a 3f
       -0.6647028 -0.18638673 -0.46012372 0.85407645
000250 0c fb 2c be 3a df 0f bf f0 9e f2 be b0 60 ef bd
       -0.16892642 -0.5619999 -0.47386885 -0.116883636
000260 c5 bb 35 3e 30 6b 02 bf 4f 69 a2 be 7a 02 fd 3d
       0.1774741 -0.50944805 -0.3172097 0.12353988
000270 4e ea 35 be b8 ac 11 bf 62 fc c7 be de ee ab be
       -0.17765161 -0.5690417 -0.3905974 -0.3358068
000280 b6 76 a3 be 4f 52 ae 3d 8c dc dd 3d 3b eb a6 bd
       -0.31926507 0.08511793 0.108330816 -0.081503354
000290 06 41 f1 be 65 70 65 be 3a d1 0a bf 2f 77 2c bf
       -0.4711992 -0.22406156 -0.54225504 -0.6736936
0002a0 1b 51 b5 bc f5 03 c6 3c 42 16 f8 bb a6 19 8d be
       -0.0221334 0.024171809 -0.0075710127 -0.2755863
0002b0 82 89 78 be 6d 20 ac bd 76 6c a1 bd 51 48 c4 be
       -0.24271205 -0.08404622 -0.078820154 -0.38336423
0002c0 46 74 03 bf 83 9f 7f be 19 a3 31 bf 82 a7 1a 3d
       -0.51349294 -0.24963193 -0.6938949 0.037757404
0002d0 51 04 d0 be de ac 20 be fe 05 d2 3d f0 08 a5 bd
       -0.40628293 -0.15690944 0.10255049 -0.08058345
0002e0 6f 9e 57 3e 09 c2 13 bf 01 3b 2a bd b9 65 f1 bd
       0.21056531 -0.5771795 -0.041560177 -0.1178698
0002f0 48 08 a3 3e 68 33 d7 be 92 d8 0c bd 96 92 72 be
       0.31842256 -0.42031407 -0.034386225 -0.2368873
000300 32 c9 3a bf b3 24 2d 3f a9 f3 d8 3c 19 6f b4 be
       -0.7296325 0.67634124 0.026483374 -0.3524101
000310 c0 ac 6b bc a1 06 ef bc 74 74 b6 3d 7b 47 9f 3c
       -0.0143844485 -0.029177966 0.089089304 0.019443264
000320 38 87 a9 3c 74 2e fd bd 39 19 ba 3e 25 1b 64 3f
       0.02069436 -0.12362376 0.36347368 0.8910392
000330 dc 95 ce bd 92 85 75 3d c1 45 0c bf 1e 58 6c 3f
       -0.10087177 0.059941836 -0.54793936 0.92321956
000340 e3 31 a7 be e9 23 93 3e ef ac f9 bd 8b 67 6d bf
       -0.32655248 0.28738335 -0.121911876 -0.9273612
000350 9d 47 8a be 26 0a 81 be 31 74 d1 bd 18 7f d3 bc
       -0.27007762 -0.25203055 -0.1022724 -0.025817439
000360 6a 0f 36 bf 7f 13 0b bf b9 20 08 bf 40 c9 05 bd
       -0.7111727 -0.54326624 -0.5317493 -0.03266263
000370 96 ea 49 bf 2f f5 50 be aa ce 42 bf 6c b2 08 bf
       -0.78873575 -0.2040603 -0.76096594 -0.5339725
000380 fe 76 48 be a3 6a 4e 3f 81 8f cb 3d e0 a1 17 bc
       -0.19576642 0.80631465 0.099394806 -0.009254903
000390 0f d8 11 bf ef 50 d1 be 00 55 0a 3f 01 ae 22 be
       -0.56970304 -0.4088206 0.5403595 -0.1588669
0003a0 7e bb f4 3d 8a 05 3c bf 68 03 38 3d 1c 72 68 be
       0.11949824 -0.7344595 0.044925123 -0.2269978
0003b0 94 be 72 bd 20 68 29 be bb 02 5e 3d 69 2b 79 3f
       -0.05926378 -0.16543627 0.054201823 0.97331864
0003c0 90 b4 05 be d8 de 29 bf c2 5f 80 3f 24 cc 21 bd
       -0.1305716 -0.6635566 1.0029223 -0.039501324
0003d0 60 df f0 3a be c4 85 3f 06 75 bd bd 60 b0 87 bc
       0.0018377118 1.0450666 -0.09250836 -0.016563594
0003e0 a6 2b b1 3d f0 6c 0e 3f 98 64 ac be 9e f8 de bd
       0.086509034 0.55634975 -0.33670497 -0.10887264
0003f0 c0 24 25 3f 9c 60 42 be aa d3 87 bd fe 54 ef be
       0.645092 -0.18982166 -0.066321686 -0.4674453

fc3.bias f4 [4]
000000 d9 cf ca 3e 8d 73 a0 be 11 ba 5b bd 85 81 c2 bc
       0.396117 -0.31338158 -0.053644244 -0.0237434
