trained_model.pth (torch, 36996 bytes, 6 tensors)

0.weight f4 [64, 64]
000000 6d 33 bd 3d a2 75 19 be da cd bd bd 5f 0e 03 be
       0.09238324 -0.1498628 -0.09267779 -0.12798451
000010 65 07 41 bd 19 ad b2 bd 83 37 a6 bd de a8 06 be
       -0.047126193 -0.08724422 -0.08116057 -0.13150355
000020 fb e2 aa bc e0 c5 40 bc 6e f1 ab bc fb 37 18 3d
       -0.020860186 -0.011765927 -0.020989146 0.037162762
000030 d3 08 36 bd c9 c8 db bd ed 0d 06 bc 95 9d e3 bd
       -0.04444201 -0.10731656 -0.008182031 -0.11114041
000040 ee 5a bd 3d 03 61 ca 3d bb 26 05 bd 04 48 86 bc
       0.09245859 0.09881785 -0.03250764 -0.016391762
000050 da 30 00 be 9d a4 18 be 18 8e 33 bd db 5f 73 bd
       -0.12518635 -0.14906545 -0.043836683 -0.059417587
000060 46 2e d9 bc 8e 34 af bb 4e b5 1b bc 33 cb 6a bd
       -0.026511323 -0.005346841 -0.009503676 -0.057322692
000070 7a fe e7 bd 54 2a b9 bd eb 63 fa bd a8 10 b5 3c
       -0.113278344 -0.090412766 -0.12226089 0.022102669
000080 2a 35 dc bd 72 72 27 3b 6c 1c f0 3d 85 d6 5b 3d
       -0.10752328 0.0025550392 0.11724171 0.05367138
000090 55 01 84 bc ac e1 90 3c d3 15 cd 3d 63 b4 5e bd
       -0.016113916 0.017685734 0.10013928 -0.05437125
0000a0 01 e4 1a 3e b0 ab 9f 3d bc 33 97 bd b6 d2 a0 3d
       0.15126039 0.07796419 -0.073829144 0.0785269
0000b0 a2 2b ac bd da 00 a0 bd f0 3a a9 3d 68 30 bb bc
       -0.0840676 -0.078126624 0.082631946 -0.02285023
0000c0 19 c5 04 bd ec 68 31 bd ab 4e f4 3d b0 6e ff 3c
       -0.03241453 -0.043312952 0.11929067 0.03118071
0000d0 e8 3f 1c bd 20 6b 0e bc 4a 3f 9f 3d fd ff f8 3d
       -0.038146883 -0.008692533 0.07775743 0.12158201
0000e0 38 4e f3 3b 68 71 96 bd 71 b3 87 bd 7c 68 1d bd
       0.007425096 -0.07345849 -0.066260226 -0.038429722
0000f0 58 f2 56 3d b4 ad 3a bd a0 35 88 3c bb 5a c0 3d
       0.05247721 -0.045575812 0.016627133 0.093923055
000100 fc 8c 54 bd 6d 4e e0 bd 47 c9 ec bc aa 3a a2 bd
       -0.051892266 -0.109524585 -0.02890457 -0.079213455
000110 c4 37 95 bd e0 b0 da bd 7b e5 01 be 9e 40 0d be
       -0.07286027 -0.106782675 -0.12685196 -0.13794181
000120 9d f3 f4 3c 6f 8a 1c 3e 95 c0 2e 3e a0 94 0e 3e
       0.02990132 0.15287183 0.17065652 0.13923883
000130 3e f9 21 3e 9a 78 db 3d 0d e6 71 3d 03 21 19 bd
       0.15817735 0.10716362 0.059057284 -0.037384998
000140 32 2e 9d 3d 32 05 2a 3d c8 08 b6 bc be c3 d3 3d
       0.07674827 0.04150886 -0.022220984 0.10340069
000150 91 d0 cb bd b0 de a1 3c c4 e4 da 3c d2 f9 c5 3c
       -0.0995189 0.019759506 0.026720412 0.024166975
000160 57 be b3 bd bf 7b 20 be 54 ea 57 3e 74 47 82 3d
       -0.08776539 -0.15672205 0.21085483 0.06361285
000170 28 25 02 3e b6 b5 7f 3c 6c a6 b6 3b 85 ce 7a 3d
       0.12709486 0.015607288 0.0055740383 0.06123211
000180 f6 3e f5 3c f3 fa 4f bd 5f 2b 9a 3c 93 d6 73 3c
       0.029937249 -0.050776433 0.01881951 0.014882701
000190 4e 67 a5 3d 56 9b b4 3d be 3e 1f bd c1 65 65 bb
       0.080763444 0.088186905 -0.038878195 -0.0035003277
0001a0 20 25 9d 38 a2 95 87 bd af 2d cc 3d 28 08 ec 3c
       7.4932585e-05 -0.06620337 0.09969651 0.028812483
0001b0 fc 1d 91 bd 78 85 ac 3d 97 99 82 3a b1 a4 91 bd
       -0.07085797 0.08423895 0.0009963986 -0.071114905
0001c0 f0 25 ee bd 21 2f ec bc 45 17 f8 3d 78 d1 22 3d
       -0.1162833 -0.028831067 0.12113813 0.039750546
0001d0 a0 0c d2 bc 58 3c 10 bd f3 63 9b 3d 13 5d 90 3c
       -0.025640786 -0.0352138 0.07587423 0.017622506
0001e0 c1 26 db 3d e1 12 1b 3e 8b 8b c1 bd d6 6f c7 bd
       0.10700751 0.1514392 -0.09450444 -0.09738128
0001f0 2e 5a bc 3d 68 87 b6 bc 40 ac e9 bb f3 ee 07 3e
       0.09196888 -0.022281364 -0.0071311295 0.13274746
000200 99 c5 10 3e 59 7c 45 3c 3d 34 c7 bd 6e dd 5f bc
       0.14137878 0.012053573 -0.097267605 -0.013663633
000210 b0 17 2a 3e b7 5a 4c 3c 1a 7d ca 3d 4f 18 02 3e
       0.16610599 0.0124728 0.098871425 0.12704585
000220 d7 69 56 3d 53 c4 df bc 28 55 a7 bd b1 0f 5c bb
       0.05234703 -0.027315294 -0.08170539 -0.0033578689
000230 f5 42 0b 3e aa bf ba 3a a4 6a c0 bd 94 56 d1 3d
       0.13599761 0.0014247794 -0.0939534 0.102215916
000240 9a af fd 3d 8d 7b 2f be 29 b7 96 bd 4a 01 1f be
       0.12387009 -0.17136975 -0.07359154 -0.15527835
000250 5b 1e 99 bd ed 3d 3d bd e0 74 06 be 37 43 a0 bd
       -0.07476493 -0.046201635 -0.13130522 -0.0782532
000260 b4 4b 1d be 6b 24 35 be b1 c6 10 3e cf 7b 11 be
       -0.1536091 -0.17689674 0.14138295 -0.14207385
000270 44 ea 9b bd f7 4b c3 3d d8 85 80 3d 33 a2 08 3e
       -0.07613042 0.095359735 0.06275529 0.13343124
000280 65 fc be bd 95 53 da bd 36 58 56 3d 54 fe cf 3c
       -0.09325484 -0.10660473 0.05233022 0.025389828
000290 06 eb b2 bd 49 cf 34 3d 45 fc 66 bc 25 8f a3 bd
       -0.087362334 0.044142995 -0.014098232 -0.07986287
0002a0 10 8b 9d 3c 85 6e c7 bc 75 9f d8 3d 12 1c c6 3d
       0.01923135 -0.024344692 0.10577289 0.09673323
0002b0 38 79 02 be b9 f3 01 be af b2 1b 3d 3f 52 85 bd
       -0.12741554 -0.12690629 0.038012203 -0.06509828
0002c0 e3 70 32 3d 38 cb b9 bd ed a3 d4 3c 38 68 97 3d
       0.04356469 -0.09071964 0.025957072 0.07392925
0002d0 34 c2 38 3d e0 cf 48 3d ac c1 f3 bd 6b 87 01 be
       0.04510708 0.04902637 -0.11902174 -0.12649314
0002e0 78 b3 5b 3d 35 5e ef bc b7 e3 f0 ba d0 e8 c8 bd
       0.05363795 -0.029219726 -0.0018378411 -0.098100305
0002f0 b8 b8 86 bc a8 22 c9 3c a0 bf c2 bc a1 20 82 bd
       -0.016445503 0.024552658 -0.023773015 -0.0635388
000300 a2 74 ce bd 99 76 d6 bb 84 36 97 bd 75 10 b8 3c
       -0.1008084 -0.0065448997 -0.07383445 0.022468785
000310 c0 0f db bd 15 0f 66 bc a2 75 f1 3d 6d 58 49 bd
       -0.106963634 -0.014041682 0.11790015 -0.049156595
000320 33 e9 5c 3d 9c a6 dc 3b 87 15 09 3e 6c 1f 3e 3d
       0.053933334 0.0067337286 0.13387118 0.046416685
000330 7f d5 30 3c b9 e1 d0 3d 78 e5 d9 bd ce f6 bb bb
       0.010793089 0.10199303 -0.10639471 -0.0057362085
000340 96 7f 8b 3d 64 84 cc 3d 85 81 e8 bc e5 b6 b4 3d
       0.068114445 0.09986189 -0.028382072 0.08823947
000350 f2 45 ba bd 27 36 89 bd ce f1 da bd 55 98 10 3e
       -0.09095372 -0.06699782 -0.10690652 0.1412061
000360 ee 53 86 bc a9 e8 96 bc cb 5e 51 bb 59 ee 87 3d
       -0.016397443 -0.018421488 -0.003194737 0.06637258
000370 d3 9b 46 bc 24 60 46 bd ec db 80 3d 87 4f 3b bc
       -0.012122112 -0.04843153 0.06291947 -0.011432535
000380 0e 95 a6 3d 7b 89 e8 3d 98 f1 8a 3d 06 91 e9 3d
       0.08133899 0.11354347 0.067843616 0.11404614
000390 b4 d7 ff bd 8e f9 53 3c c8 15 8b 3d ba cc 9a 3d
       -0.12492314 0.012937916 0.06791264 0.0755858
0003a0 f7 86 2f 3d ef 7a 0b bd de e9 e9 3c 00 38 cf b9
       0.042853322 -0.034052785 0.0285539 -0.0003952384
0003b0 96 cf d9 bd a6 1d c5 3d 2c 3c df 3c 68 1a a2 3d
       -0.10635297 0.096247956 0.027250372 0.07915193
0003c0 b1 e6 dd 3d 25 b1 d0 bd 6a 00 9d bd 3c da 60 3d
       0.108350165 -0.10190038 -0.076660946 0.054895625
0003d0 f4 10 04 bd 6e 6f c5 bd 3a 7c 96 3d fb 87 ad 3d
       -0.03224273 -0.09640394 0.07347913 0.08473202
0003e0 21 c1 8a 3d 47 0f ad 3d 80 29 3c bb 8e 11 c1 bd
       0.06775118 0.084501795 -0.002871126 -0.094271764
0003f0 80 f5 84 3c b0 9e 66 3d 50 08 21 bd 9e 04 38 3d
       0.016230345 0.05630368 -0.039314568 0.04492628

0.bias f4 [64]
000000 9e 65 db 3d 0a bf 74 3c ed 0d 35 3e c6 6f 03 3d
       0.10712741 0.014938125 0.17681094 0.032089017
000010 29 cb eb 3d df c1 0c 3c 07 92 66 bd 82 b3 3b bd
       0.11513359 0.008591144 -0.056291606 -0.04582549
000020 23 b3 f8 3d 7a b3 49 3d c8 0b f8 3d ad 83 96 3d
       0.121435426 0.049243428 0.12111622 0.07349334
000030 c5 b4 af 3c 77 10 5e bd 25 ea 98 3d 70 12 56 bd
       0.021448502 -0.05421492 0.074665345 -0.052263677
000040 d2 ed ed bd e1 bc d4 bd a2 d0 f5 3d de 2a f4 bd
       -0.11617626 -0.10387588 0.12002684 -0.11922239
000050 df 79 d4 bd f2 e3 f9 3c b7 b5 5f 3d 47 97 54 3d
       -0.103748076 0.0305042 0.054616656 0.05190208
000060 26 c1 6e 3b c0 3f a7 3d 4e 47 89 3d 3f 13 b8 3d
       0.0036431043 0.08166456 0.067030534 0.08988046
000070 d8 d3 96 3d b1 50 0e bd 92 33 eb 3d 97 e5 73 3c
       0.07364625 -0.034744922 0.11484446 0.014886281
000080 5c 08 f9 bb f1 c1 ad 3d a9 f6 b7 3d eb 8c 16 bd
       -0.0075998735 0.08484257 0.089825936 -0.036755484
000090 8c d1 9f bd c5 f7 4e bd ec a3 83 bc f6 30 b8 bc
       -0.0780364 -0.05052926 -0.016069375 -0.022484284
0000a0 36 46 b7 bd fb 2f b6 3d e8 12 49 3d 9a 6b 02 be
       -0.089489385 0.0889587 0.049090296 -0.12736359
0000b0 26 ec 17 bd 2c 9a bc bd 93 4c 5d bc 5c 6c bd bc
       -0.037090443 -0.092090935 -0.013507026 -0.023122959
0000c0 0e b3 b9 3d a6 68 c4 3c 80 67 5e 39 8e 2e 01 3e
       0.09067355 0.023975682 0.00021210127 0.12615415
0000d0 e0 dd e6 bd 72 ed e4 bd f9 71 ab 3d c6 35 cd bc
       -0.11272788 -0.111781016 0.08371348 -0.025050055
0000e0 80 18 aa 3d a3 ba be 3d 45 8a 04 bc 7d 4b 00 3e
       0.08305454 0.09312942 -0.008089607 0.12528796
0000f0 20 98 85 3b 0e 0e e4 3d ad d5 97 bb fa a1 82 3c
       0.0040769726 0.11135493 -0.0046336264 0.015946377

2.weight f4 [64, 64]
000000 72 98 96 bc 46 60 f0 bd 40 23 80 3c 40 09 a2 3b
       -0.018383238 -0.11737113 0.015641809 0.0049449503
000010 84 39 11 bc 1e 75 5a bd 17 10 98 bd 31 08 d9 3d
       -0.00886381 -0.053334348 -0.07424944 0.105972655
000020 8d 8d bc 3d 45 ac 3b 3d cd b5 bd 3c c1 f1 d5 bc
       0.09206686 0.045818586 0.023157978 -0.026116254
000030 30 99 92 bd ea 33 0b 3e 89 1f a9 3c 64 4a 6d 3c
       -0.071581244 0.13594022 0.02064492 0.014483068
000040 ea 17 ec 3d eb 37 2b 3d 5f 36 9d bc be 40 94 bd
       0.11527999 0.041801374 -0.019190965 -0.07238911
000050 35 ac 92 3d 28 79 64 3d 18 da 32 3e 7b e7 87 3d
       0.07161752 0.055779606 0.17466009 0.06635948
000060 f5 c6 c5 3d de 82 2d bd 44 86 f0 3d bd 0a 14 3e
       0.09657089 -0.042361133 0.11744359 0.14457221
000070 7e 8c 05 be 74 7c 78 3c 6c 36 10 be 6b ad eb 3c
       -0.13041875 0.015166391 -0.1408326 0.028769216
000080 4e e1 1f 3e ec ae 63 3d 3b 73 6c bd 4b 98 2f 3e
       0.1561329 0.05558674 -0.05772708 0.17147939
000090 6b 1f c8 3d c3 78 64 bd 4e 82 54 3d 45 9b d0 3c
       0.097716175 -0.05577923 0.05188208 0.025464663
0000a0 68 9a 57 bc 65 3f 85 bd ad 8c b4 bc 4e 14 f0 3d
       -0.013159372 -0.06506232 -0.022039736 0.11722623
0000b0 a1 76 93 bd 6a 10 d1 bb ef d3 8a 3d 0b 50 fe 3d
       -0.07200361 -0.0063801305 0.067787044 0.12417611
0000c0 e9 11 d8 bd cb 9e 66 3e 9c 0a 4c 3e 02 e0 e6 bc
       -0.10550291 0.22521512 0.19925922 -0.028182987
0000d0 b2 f0 b6 bd 92 b6 7b 3d f1 11 ef bc 41 06 1c 3e
       -0.08932628 0.06145341 -0.02918336 0.1523676
0000e0 10 61 91 3d 4f 5f 8c 3d 82 a0 c4 3d 1f 94 16 be
       0.07098591 0.06854116 0.09600927 -0.14704941
0000f0 dc 2b 3c 3d 3a d1 0a be c8 27 82 bd 97 3c c1 bd
       0.045940265 -0.13556376 -0.06355244 -0.09435385
000100 be 47 04 3c 97 92 7f 3b ed 1e 02 be b1 fb 0f 3e
       0.008073745 0.0038997286 -0.1270711 0.14060856
000110 27 b7 df bd 90 35 54 3c db 4a 22 3e 77 7a 80 3d
       -0.109236054 0.012952223 0.15848868 0.06273358
000120 fa 40 3f 3d e5 d2 b2 3c d5 e7 f5 bd 23 f9 9a 3d
       0.046692826 0.021829078 -0.12007109 0.0756705
000130 e5 9f d4 3d 2c 68 1f 3d 6e 81 62 bd d5 63 c9 bd
       0.1038206 0.038917705 -0.055299215 -0.098334946
000140 20 96 73 3d d8 3f db 3c d8 77 d8 bd 62 56 b9 3d
       0.059469342 0.026763842 -0.105697334 0.09049679
000150 22 ff 4e bc d5 42 83 bd 17 5d 07 3e fd 3d 2b 3e
       -0.012634071 -0.064092316 0.13219105 0.16722865
000160 8b a2 86 3d 97 db 73 bd 35 fe a8 bd d2 af 2c 3e
       0.06573971 -0.05953559 -0.08251611 0.16863945
000170 17 9a 08 3e 9b e1 cc bd c5 05 dd bd 30 fd 21 bc
       0.1334003 -0.10003968 -0.10792116 -0.009887025
000180 50 88 0c 3e 04 69 b6 3d 77 74 59 bc 3c af a3 3d
       0.13723874 0.08906749 -0.013272396 0.07992408
000190 e0 1f 24 3e 4c 9b 48 bc 75 9a 14 3d 12 0f 33 3d
       0.16027784 -0.012244057 0.036280114 0.043715544
0001a0 b1 36 11 bd a9 91 b3 bd 95 2a ee 3c c5 b9 84 bd
       -0.03545255 -0.08768017 0.02907304 -0.06480745
0001b0 07 61 70 bd 4f 1d a1 3d c2 8b 9d bb 6b 3f 12 3c
       -0.058686282 0.07866918 -0.00480792 0.008926253
0001c0 d5 91 96 3c 9e aa 4a bc 70 e1 6d bd 42 0c bc 3d
       0.018380085 -0.01236978 -0.058076322 0.091820255
0001d0 d6 85 9a 3d c6 2c 27 3d 3e 40 75 bd 34 a6 df 3d
       0.075450584 0.040814184 -0.05987572 0.109203726
0001e0 13 5a ef 3d 6f 97 dd 3d cb 9a 5a bd 7c bb 53 be
       0.11687102 0.10819899 -0.05337028 -0.20676988
0001f0 12 74 eb 3d a6 92 a0 3d 38 6e fa bc 1a 33 27 bb
       0.11496748 0.07840471 -0.030570135 -0.0025512637
000200 bb e4 9a bd be 4d b7 3d ec 13 c7 bd 17 e9 cf 3d
       -0.07563158 0.08950375 -0.09720597 0.1015188
000210 6e fd 0a 3e 2c fa 64 bd a9 18 f8 bc bf 93 e3 3c
       0.13573238 -0.055902645 -0.030285196 0.027780412
000220 bf a2 ea bd 39 be 5c 3d 30 93 7a bd c5 9d 1e 3d
       -0.114568226 0.053892348 -0.061175525 0.03872468
000230 70 e6 3b bd 11 1a ea bd 40 d6 6f bc 49 27 80 3d
       -0.04587406 -0.11430753 -0.0146384835 0.06257493
000240 9a 94 c8 3d e2 55 22 3d 2c 2d 04 be 6b 61 a4 3d
       0.097939685 0.039632685 -0.12907857 0.080263935
000250 e3 05 8f bd 09 ee e3 3d 5f c2 56 bd 79 98 d1 3d
       -0.06983545 0.11129386 -0.05243146 0.1023416
000260 ef a8 ba bd 8b 01 f9 bd fc d1 ec bd 6d a0 88 3d
       -0.09114253 -0.121584974 -0.11563489 0.06671224
000270 31 57 c9 bd 0d 9b f8 3c 3f c8 00 be 41 99 84 3d
       -0.098310836 0.030347371 -0.12576388 0.06474543
000280 e2 bc ab bd 51 07 5d 3d 81 e0 71 3d 17 0e af 3d
       -0.08385636 0.053962056 0.059051994 0.08547609
000290 ac fe 3c bd eb a5 ca 3d bb 09 4e bd 6f 56 7e 3d
       -0.04614131 0.098949276 -0.05030225 0.06209415
0002a0 f2 e8 1b be 5d b6 f8 bd fa 9a 6a bd 14 40 6a bd
       -0.1522558 -0.12144158 -0.057276703 -0.057190016
0002b0 21 04 d3 bd fd 37 6a 3d 0d 73 1a bd 6a 83 95 bc
       -0.10303522 0.0571823 -0.037707377 -0.01825114
0002c0 af 1b f9 3c 32 38 39 3d a4 d9 20 be 30 1a 52 bd
       0.030408708 0.045219608 -0.15708023 -0.051294506
0002d0 9c 14 b6 3d 30 dc 16 bd 6c 0d 21 bd 52 5d c4 3c
       0.0889065 -0.03683108 -0.03931944 0.02397028
0002e0 21 a1 d5 3d e7 6c 30 3d 43 09 30 3c 61 79 82 3d
       0.104311235 0.043072607 0.010744396 0.063708074
0002f0 98 56 4d 3d 38 ed d2 bd 4b e5 59 3c fe d6 a5 bd
       0.05013141 -0.10299152 0.013299297 -0.08097647
000300 8d 1d 90 3d fb f9 d8 bd cd ad 48 bd 60 de 98 3c
       0.07036886 -0.10594555 -0.048993874 0.018660724
000310 2a 96 8c bc 6d 82 cf 3d 3e 0d c6 3d be eb f2 bd
       -0.017161448 0.101322986 0.096704945 -0.118613705
000320 db 99 a7 3d bb 9e 85 bd 23 13 8b bd 82 24 60 3d
       0.081836425 -0.06524416 -0.067907594 0.054722317
000330 87 45 51 bd b9 8b 68 bd 93 30 cf 3c e6 71 3e bd
       -0.051091697 -0.056773875 0.025291717 -0.04649534
000340 1b 9d f8 3c c2 8d 80 3d 85 78 51 bd 47 59 b3 3d
       0.030348351 0.06277038 -0.051140327 0.08757263
000350 14 36 7a 3d c4 fa ad bd 05 1d 73 bd fd 1c 1e bd
       0.06108673 -0.08495095 -0.059353847 -0.038601864
000360 dc b9 2c be ba 54 b1 3b 8f 74 d5 bc 91 c8 32 3d
       -0.16867775 0.0054117115 -0.026056556 0.043648306
000370 aa 5d 0b bd 3c 9b 01 3d 5c 9c d8 3d 56 63 df bd
       -0.034024872 0.031642184 0.10576698 -0.10907619
000380 40 0b 86 bd de db a1 3d 47 fd b9 bd 42 b3 99 bd
       -0.065451145 0.079032645 -0.09081512 -0.07504894
000390 00 1b 8e bd ae be ac bd 4a 78 9d bd 9b d6 01 be
       -0.069387436 -0.08434807 -0.07688959 -0.12679522
0003a0 cc 59 86 3d 17 a0 bf 3d 81 1c 99 3d d6 c9 d2 3c
       0.06560096 0.093567066 0.0747614 0.025731008
0003b0 5b f7 26 bc f7 30 c1 bd 6d 5b cb 3d a8 14 b0 3d
       -0.01019081 -0.094331674 0.099295475 0.0859769
0003c0 44 da 92 3b 8f da 88 bd 2d 29 39 bd 47 d9 79 3d
       0.0044815857 -0.06682312 -0.045205284 0.060998227
0003d0 b4 c3 41 3d 80 62 4c bd fd 97 95 3d 2f 0a 2b 3d
       0.047305778 -0.049898624 0.0730438 0.04175776
0003e0 4d 1d f4 bd 92 46 ae bc 29 c4 ec bc dc 8f 0b 3e
       -0.11919651 -0.021273885 -0.02890213 0.13629097
0003f0 3c 82 10 3d 34 51 8a bd 5c 84 7e 3d 86 f5 f7 3d
       0.03528045 -0.067537695 0.062137946 0.12107377

2.bias f4 [64]
000000 b8 b1 37 bd 60 ec 36 b9 29 3a cd bd 10 75 a2 bd
       -0.04484722 -0.00017444929 -0.10020859 -0.07932484
000010 a1 99 05 3e 63 23 05 be d9 d0 10 3b 69 f2 7e bd
       0.13046886 -0.1300178 0.002209714 -0.0622429
000020 de a1 45 3e f4 c4 ab 3d f9 9c 00 be 8a ba 03 bd
       0.19300029 0.08387175 -0.1255988 -0.03216032
000030 fc d7 f5 bd 42 24 e5 3c 77 fe 07 3e b2 7f a8 bd
       -0.120040864 0.02797139 0.13280664 -0.08227481
000040 ea 53 8e bd b4 bd d7 3d 24 fe eb bd a6 9b f7 3d
       -0.06949599 0.1053423 -0.11523083 0.120902345
000050 28 25 d2 3d b5 55 b7 3d 24 64 a0 3d 19 70 b8 3d
       0.10260993 0.08951894 0.078316 0.09005756
000060 50 3a 62 bd 91 3d 3c 3d 67 ef 97 3d ab 5a c9 3d
       -0.055231392 0.04595715 0.07418709 0.09831747
000070 4e ae 9f bd b1 f5 99 bb bc af bc 3c 05 37 5c 3d
       -0.07796918 -0.004698478 0.023033015 0.05376341
000080 72 9b c9 bd 7a 6c 94 bd 99 d3 b4 bd 0c c6 92 bd
       -0.09844102 -0.07247253 -0.088294216 -0.07166681
000090 e0 a9 04 be 9f be 24 bd e8 46 85 3d 08 29 9a bd
       -0.12955427 -0.040220853 0.06507665 -0.07527357
0000a0 29 dd 95 bd f7 a9 f8 3d c5 2e b2 bd 82 b7 ad bd
       -0.073175736 0.12141793 -0.08700327 -0.08482267
0000b0 a8 bc fc 3a 86 c4 b9 3c f1 00 09 3e 15 52 2a 3d
       0.0019282298 0.022676717 0.13379265 0.041582186
0000c0 7c 13 a2 bd 20 05 3b bd aa 11 fa 3c 72 c2 02 3d
       -0.079138726 -0.045659184 0.030526001 0.03192372
0000d0 f5 5b 29 3e 21 b3 ed bb 68 10 7d bd e9 43 5c bd
       0.16538985 -0.00725402 -0.061783224 -0.0537757
0000e0 d4 5d 44 bc 09 8f 0f be 48 a4 21 bd 14 5d 1a 3d
       -0.011985261 -0.14019407 -0.03946331 0.037686422
0000f0 17 85 55 bd 72 fc 84 bc fa 8d 95 bd 51 a9 a5 bd
       -0.052128877 -0.016233657 -0.073024705 -0.08088935

4.weight f4 [4, 64]
000000 8f 57 a4 3d ac 0d 55 3d f2 89 e1 3c 08 d5 70 bd
       0.08024513 0.05201499 0.027531598 -0.058796912
000010 90 2a 24 3e 84 96 2e 3e 7e 33 9e bd d2 36 95 be
       0.16031861 0.17049605 -0.07724665 -0.29143387
000020 91 98 b0 bd 37 2f 97 be 1c b7 dd bd ba 9f 65 3e
       -0.0862285 -0.2952821 -0.10825941 0.22424212
000030 43 e0 32 3c b9 45 bd bc 94 21 96 3d cf b6 c9 3d
       0.010917726 -0.023104535 0.07330623 0.09849321
000040 dc 60 ad bc 0e 5f f3 3d cc c1 ae bd db db 59 be
       -0.02116435 0.118833646 -0.085330576 -0.21275274
000050 89 1a 81 bd ec 7f 33 3e f4 3f b7 bd 1c a7 9f bd
       -0.06303889 0.17529267 -0.08947745 -0.077955455
000060 a0 7a e8 bd b8 e2 22 3e 52 86 98 bd f3 17 99 3d
       -0.11351514 0.15906799 -0.074474946 0.07475271
000070 cb 5f b3 bd 41 5f 20 be bc 09 b0 3d c1 a1 2e be
       -0.087585054 -0.15661336 0.08595607 -0.17053892
000080 83 cb 46 3e 6e 71 3a bc 4d 72 21 3e 7b ff d8 bd
       0.19413571 -0.011379583 0.15766259 -0.10595604
000090 1c db ef 3d fa f6 96 be 0c 9a b3 bd 12 d0 2a 3e
       0.11711714 -0.29485303 -0.087696165 0.16680935
0000a0 25 df 11 be a4 06 76 3d 28 43 db bd a2 d0 a1 3c
       -0.14245279 0.060064927 -0.107061684 0.019752804
0000b0 d4 ab 98 b9 75 3d 02 be 6e fd f9 3d 11 56 69 3d
       -0.0002911972 -0.12718756 0.12206541 0.056966845
0000c0 09 3d e2 bd ed 08 97 3d a9 da 4f bd 18 5c ed bd
       -0.11046798 0.07374749 -0.05074564 -0.11589831
0000d0 2b e3 02 3e 9c 59 c4 bd 4b ff 9b bd 7f 8c 06 3e
       0.1278197 -0.09587404 -0.07617053 0.13139533
0000e0 72 ba ea 3d 57 fc 24 bc ec 08 a7 bd 5f 5e fb bc
       0.11461343 -0.010069928 -0.081559986 -0.030684648
0000f0 c6 84 f4 3d b1 6e 43 be f0 0f bc bd 3f f8 83 bc
       0.11939387 -0.19085194 -0.09182727 -0.016109584
000100 6f 23 f7 bd 9a d3 73 3d f0 2f d6 3c 38 d4 dd 3c
       -0.12067305 0.05952797 0.026145905 0.027078733
000110 e3 04 66 3c 17 97 31 bd 50 f2 49 3d b4 d6 67 bd
       0.014039251 -0.04335698 0.049303353 -0.05660124
000120 af cd 8f bc 90 bc bd bd c6 d7 eb 3d 9c 60 d2 bd
       -0.017554132 -0.09264481 0.11515765 -0.10272333
000130 3f f9 df bd 5a 62 8e bd 17 a7 bc 3d 36 e2 f9 3d
       -0.10936212 -0.06952353 0.09211557 0.122013494
000140 70 3b 6e bd d5 b1 cd 3b 57 0e 75 3d 54 d5 03 bd
       -0.058162153 0.0062773027 0.05982813 -0.032185867
000150 e2 14 e2 3c 43 f4 0e 3c d1 c2 76 bd 3c a1 96 bd
       0.027597848 0.008725229 -0.060244385 -0.07354972
000160 95 ff dd bd 8a e0 8b bc 13 42 a5 3d aa 49 bd bd
       -0.10839764 -0.017074842 0.08069243 -0.09242566
000170 4f 40 b5 3c 15 68 11 bd ab b0 0d 3d 6a 69 b2 bb
       0.022125391 -0.03549965 0.03459231 -0.0054446952
000180 3e 3d 80 bd 12 d9 8b 3d 9d 20 f2 bd 35 4d 19 3d
       -0.06261681 0.06828512 -0.11822627 0.037427146
000190 b6 42 d1 bd c1 ea 02 be 84 78 c1 39 70 ab 05 be
       -0.10217802 -0.12784864 0.0003690162 -0.1305368
0001a0 05 99 b1 bd 54 81 98 bd b5 d0 ad 3c a4 56 5d bd
       -0.08671764 -0.074465424 0.021217683 -0.054037705
0001b0 94 37 41 bd 32 5a 36 3d 89 5a b4 3d ac d6 f3 bc
       -0.047172144 0.04451961 0.08806331 -0.02976545
0001c0 64 e8 17 3d a4 f2 cc 3d 5b c5 2f 3d 77 8b eb 3c
       0.03708686 0.100072175 0.042912822 0.028753025
0001d0 a2 41 9e bd a0 6c 09 bd 5b 07 0e be 09 03 88 3b
       -0.07727362 -0.03355086 -0.13869993 0.0041507524
0001e0 93 15 89 3d fe 7d 8e bd db fb 6f 3d de bf 6a bb
       0.06693568 -0.06957625 0.058589797 -0.0035819928
0001f0 ad 3c 26 3d de 1e 4e bd b4 dd c2 3d b4 96 60 3d
       0.04058521 -0.050322406 0.09514943 0.05483122
000200 fa 09 41 be 54 4e b2 bd 02 ab ef 3d b8 d2 93 3d
       -0.18851462 -0.08706346 0.11702539 0.07217926
000210 76 68 f9 3d de 1b 8b be c9 bc 8a 3d 2b ee c0 3d
       0.121781275 -0.27169698 0.06774289 0.09420427
000220 98 66 31 bd 5a 4f 53 3d 56 10 6c ba 23 75 b3 3d
       -0.04331073 0.051589347 -0.000900512 0.087625764
000230 b6 7f 05 be ae 3f c4 3c 65 9e ec 3d f4 66 a5 bd
       -0.13036999 0.023956146 0.11553649 -0.080762774
000240 61 a3 26 be 1c eb 80 bc 67 f8 cd 3d f6 43 fc 3d
       -0.16273262 -0.015737109 0.100571446 0.1231765
000250 67 b7 7c 3d 63 8c 86 bd 70 ae 0d be e1 e5 19 be
       0.061698344 -0.065697454 -0.13836074 -0.15029098
000260 13 20 09 bd 6a fa 41 3e 8a 1a f7 bd ef 9c 80 ba
       -0.033477854 0.18943182 -0.12065609 -0.0009812395
000270 6b 15 30 3d 4f 6a c4 3d a0 e4 02 be 7e 72 d0 3d
       0.042989176 0.09590589 -0.12782526 0.10178088
000280 5f 6e ea 3d c8 42 d6 3c eb 4c f9 bd 4f da 28 be
       0.11446833 0.02615489 -0.12172874 -0.16489528
000290 16 f8 b7 3d 85 8d 86 3d 5c 1f c1 bd e6 6d c5 3d
       0.089828655 0.065699615 -0.094298095 0.09640102
0002a0 75 ee 0c 3e b9 95 e2 bd bb 21 72 3c 10 84 2d 3d
       0.13762839 -0.110637136 0.01477855 0.042362273
0002b0 d8 1f 57 bd 1d 3e 74 3d 1e dc b2 3d 33 07 4a be
       -0.052520603 0.05962955 0.0873339 -0.19729309
0002c0 c8 66 12 3e 8b 61 bb 3d 01 91 de 3d 21 4f e3 bd
       0.1429702 0.09149464 0.10867501 -0.11099077
0002d0 9f be 03 3e 8e fa dc bd 30 2e dd bd 66 77 17 bd
       0.12865685 -0.10789977 -0.10799825 -0.0369791
0002e0 94 5a 08 be c2 ab 7a 3d e5 dd d6 ba 48 c3 c1 3d
       -0.13315803 0.061198957 -0.0016393034 0.09461075
0002f0 29 37 04 be f9 44 99 3d ad 93 1f bd 9c e9 81 3d
       -0.12911667 0.074838586 -0.038959194 0.063433856
000300 33 0d be bd 4d 56 f1 bd d1 f1 0d bd 2b 1a a5 bd
       -0.09279861 -0.11784039 -0.034654442 -0.08061632
000310 17 c4 a3 3d f2 0d b2 bd fc 8a df bd 1d 20 93 bd
       0.079963855 -0.08694066 -0.10915181 -0.071838595
000320 0b 86 de 3d da d2 e0 bd c8 a1 64 bd cf 44 5d be
       0.108654104 -0.10977717 -0.05581835 -0.2160828
000330 71 e4 ab bc 96 72 03 3c 28 2d 03 3e 99 a9 5c 3d
       -0.020982953 0.008022925 0.12810194 0.05387268
000340 68 db 49 39 3f 72 2c bc 20 56 1a 3d 19 df 7e bd
       0.00019250589 -0.010525285 0.03767979 -0.06222448
000350 f1 30 89 3d ef bf 21 3e 6f 4c 19 3e 31 42 04 bc
       0.06698788 0.15795873 0.14970563 -0.008072422
000360 84 d1 e6 bd 73 cd 9c bb 09 96 7e bd ea b3 53 bd
       -0.11270431 -0.0047852336 -0.062154803 -0.05168525
000370 11 7e 4d bd 0c 6e 86 bc 30 8b 65 3d 81 f9 00 be
       -0.050169054 -0.016409896 0.056040943 -0.12595178
000380 cf 83 02 3e 76 31 de bb f3 89 89 bd 24 67 b0 3d
       0.12745593 -0.0067807985 -0.06715765 0.086134225
000390 2d 10 0c be 88 b4 eb 3d ca bc 4f 3d 35 21 bf bc
       -0.13678046 0.11509043 0.050717153 -0.023331264
0003a0 58 e3 17 bd b4 cd 54 bd 2a 2d 28 be c3 26 96 3c
       -0.037082046 -0.051953986 -0.16423479 0.01832903
0003b0 f2 16 ea 3d 6d ff 5c bd 50 24 46 3d 5e 7e aa 3d
       0.11430158 -0.05395453 0.048374474 0.08324884
0003c0 e3 84 25 3d 2c 6e bc bd 3b a3 f0 bd 5f ae 8a bd
       0.040409934 -0.09200701 -0.11749884 -0.0677154
0003d0 b6 a6 99 3d e6 ab ad bd 99 e3 0d 3d 08 80 10 3d
       0.07502501 -0.08480053 0.034640882 0.03527835
0003e0 7f 8b 5e be 18 2e 19 3d 81 bf 7c bd 58 f0 b4 bd
       -0.21732901 0.037397474 -0.06170607 -0.088349044
0003f0 85 64 8c 3d b4 83 e0 3c 1c 91 af bd 17 f1 6d bd
       0.0685511 0.027406551 -0.08572599 -0.05809125

4.bias f4 [4]
000000 28 50 fc bc 82 26 0a be bf 12 d3 3d 0c 51 a2 3d
       -0.03079994 -0.13491252 0.1030631 0.07925615
