trained_model_env.pth (torch, 22956 bytes, 6 tensors)

0.weight f4 [64, 9]
000000 21 39 a7 3e 00 b5 66 3c 76 52 4f 3e 3f 0b 8b 3e
       0.32660773 0.01408124 0.202463 0.27157018
000010 24 d8 86 bd e2 86 3b 3e 52 7b 63 3e 68 67 3f be
       -0.06584194 0.18313172 0.22215012 -0.1869179
000020 eb 3d 8c 3e 5e 08 4b be a5 8d a4 3e be 57 61 be
       0.2739099 -0.1982741 0.32139316 -0.22006127
000030 16 70 4f 3e fc f2 9f be 92 92 75 3e b2 68 70 3e
       0.20257601 -0.3124007 0.23981693 0.23477438
000040 df df 9e 3e cc be b0 bd 05 6e 2a 3e e9 67 47 3d
       0.31030175 -0.086301416 0.16643532 0.04868308
000050 54 0b bb 3d d9 e9 eb bd 8f 74 53 3e fa 7b 8a be
       0.0913302 -0.11519212 0.20649932 -0.27047712
000060 7e 22 a2 be d8 f7 7e be a8 8e 04 3e 7e ba 17 3e
       -0.3166694 -0.24899232 0.12945044 0.14817235
000070 00 00 88 3c 2b 58 81 3e 40 01 f7 bc 10 a8 36 be
       0.016601562 0.2526258 -0.030151963 -0.17837548
000080 80 bd ab 3c 7b f6 75 be 1c 36 a6 3d a4 1e aa bd
       0.020964384 -0.24019806 0.08115789 -0.083066255
000090 15 43 93 be 66 9b a6 be 9e 4e 4e 3e 6b 36 a4 3e
       -0.28762117 -0.32540435 0.20147178 0.32072768
0000a0 0b 56 1b 3e 98 73 5f bd 7f 58 3d be d0 43 b9 bc
       0.15169542 -0.0545536 -0.1849079 -0.022615343
0000b0 a0 ec 5a be fb 60 40 be ca 48 64 3e 03 ea 8c 3e
       -0.21379328 -0.18786995 0.22293392 0.27522287
0000c0 05 fc 95 3e 5e 39 61 be 40 79 fe bb 88 77 3d bd
       0.29293838 -0.2199454 -0.007765919 -0.046256572
0000d0 e4 fa e9 3d 20 bd 37 bc 40 eb 94 be 35 d1 91 3c
       0.11424807 -0.0112145245 -0.29085732 0.017799953
0000e0 47 c9 16 3e 6d 0b a9 bd cd d5 5c 3d 96 eb 58 3e
       0.14725219 -0.082541324 0.053914834 0.21183619
0000f0 fd 9b be bd 60 69 75 3d 30 54 8f be 80 66 3e bb
       -0.09307096 0.059914947 -0.27993917 -0.0029052794
000100 10 ad 86 be a6 0d 49 be 5a 1d 50 3e 0f fa a4 be
       -0.2630391 -0.19634113 0.20323697 -0.3222203
000110 7e 19 91 be 38 55 76 3d 63 a1 a3 be bb b9 92 3e
       -0.28339761 0.060139865 -0.31959066 0.28657326
000120 b8 1d 4a be a0 bd 9f be b5 9f ee bd 1f 39 85 3e
       -0.197379 -0.3119936 -0.116515554 0.26020142
000130 bd 81 98 3e 00 31 c0 3a a9 c3 73 3e 73 71 21 be
       0.29786482 0.0014663041 0.23805107 -0.15765934
000140 a0 07 cb 3d 4b 4d 17 be cf 16 80 3e 58 95 7d be
       0.09913564 -0.14775579 0.25017402 -0.24764001
000150 5e 59 49 be 7c 85 9f bd 40 6c f5 3d e6 54 d3 bd
       -0.19662997 -0.07789132 0.11983538 -0.103189275
000160 f8 d6 3e 3d 3e 59 2d 3e 66 08 12 3e 30 7a c9 bd
       0.04659173 0.16928574 0.14261016 -0.098377585
000170 26 b9 7f be 95 86 81 3e 3e 59 15 be 14 fc a0 bd
       -0.24972972 0.2529799 -0.14584824 -0.0786058
000180 a6 08 07 be fb d1 8e be 74 c3 a6 3d 18 51 80 bd
       -0.13186893 -0.27894577 0.081427485 -0.062654674
000190 b3 2b 93 3d 26 6b 89 be 66 ea 3f 3e 87 6b 80 3e
       0.07186069 -0.2683956 0.1874176 0.25082037
0001a0 2a 86 1d 3e e4 5e a1 bd a8 bf 07 3e a2 f2 57 3e
       0.15383211 -0.07879427 0.13256705 0.21088651
0001b0 c8 53 28 bd 2e 9b 63 3e b6 88 31 be c0 a4 74 bd
       -0.041095525 0.22227165 -0.17337307 -0.05972743
0001c0 b0 09 82 bd 34 58 9a 3d 47 67 97 be 88 33 26 be
       -0.06349504 0.07536355 -0.29570982 -0.16230595
0001d0 a3 1d 9f 3e aa 5f 9d be 33 14 93 3e 33 77 2f be
       0.310773 -0.30737048 0.28726348 -0.17135315
0001e0 5d 51 8c 3e 87 23 96 be 08 60 16 be 5e 49 8b be
       0.27405825 -0.2932398 -0.1468507 -0.27204412
0001f0 e8 a2 59 bd 6e 64 2b be 9a db 49 be a1 91 a7 3e
       -0.053133875 -0.1673753 -0.19712678 0.32728294
000200 13 cc 1a bd 9c 0d 95 be 6a fa 14 3e e6 37 f9 bd
       -0.037792277 -0.29111946 0.1454865 -0.12168865
000210 97 6e 58 bd 36 84 64 be 2e 39 1b be 3b fa a5 3d
       -0.05283984 -0.2231606 -0.15158531 0.08104368
000220 15 45 36 3e 59 21 22 3e 85 cf 39 3e b7 a7 9b 3e
       0.1779979 0.15833034 0.18145569 0.30401394
000230 b4 64 a1 3d 1d 1d 40 be fc 66 97 bd e2 66 2b 3e
       0.07880536 -0.18761106 -0.073926896 0.16738465
000240 46 b1 ad bd 49 2f 86 3e 3f d6 a7 3e 9b 22 70 be
       -0.08481078 0.2620795 0.32780644 -0.23450701
000250 98 83 1d bd f4 cf dc 3d 71 ea a0 3e dc b2 fd 3d
       -0.038455576 0.107818514 0.31428865 0.1238763
000260 46 6a 1f 3e d5 29 c9 bd ca fd 7c 3e ef be 51 be
       0.15567884 -0.09822432 0.24706188 -0.20482992
000270 26 2f 15 3e 19 ad fa bc a8 27 6c bd ec 7a 8f bd
       0.14568767 -0.030600118 -0.057655007 -0.07005867
000280 c8 ab 7a 3d ca d4 5e 3e 61 2d 6a be d3 8d 9b bd
       0.06119898 0.2176086 -0.22868873 -0.0759541
000290 6d 32 d6 bd ce 91 71 bd b5 4a 29 3e ae ab 7a 3e
       -0.10458837 -0.05897694 0.16532405 0.24479553
0002a0 c6 93 1c 3e 7c 27 92 bd 00 20 4c bd e0 93 1f 3e
       0.15290746 -0.07136437 -0.049835205 0.15583754
0002b0 f6 b2 23 be e8 f7 13 3e b0 56 c0 3c c3 87 8d be
       -0.15986237 0.14450037 0.023478836 -0.2764264
0002c0 00 c7 c9 bc 14 cf 87 bd 05 fc 89 3e 20 61 8d be
       -0.024631023 -0.06631294 0.26950088 -0.27613163
0002d0 00 ef 46 bd 95 84 97 3e 8c a3 9c bd be de a7 be
       -0.048567772 0.2959334 -0.076483816 -0.32787126
0002e0 fb 94 31 be 0e 16 54 3e fc 4a f7 bd 80 58 cb 3d
       -0.17341988 0.20711538 -0.12074849 0.099289894
0002f0 50 c0 81 bd 19 9c 1e be fe 47 a3 be 56 03 a8 3d
       -0.06335509 -0.15489234 -0.31890863 0.08203761
000300 5d 39 8d be 45 99 05 3e 5b 1c 60 be 24 ec ce 3c
       -0.27582827 0.13046749 -0.21885817 0.025259085
000310 68 e5 66 bd 42 94 3c 3e 10 46 9a 3d 0a cc 04 3e
       -0.056371123 0.18415931 0.075328946 0.1296846
000320 b9 cf 9f 3e 20 31 fb bd 83 f2 60 be 13 8d a6 3e
       0.31213167 -0.12265229 -0.21967511 0.32529506
000330 8a e6 7e 3e 1e 7f 6b 3e ad 30 8b 3e 08 94 20 bd
       0.24892631 0.2299771 0.27185574 -0.039203674
000340 0e 1a 35 be 76 25 63 3e 16 b8 22 3e 5f 4b 94 be
       -0.1768572 0.22182259 0.15890536 -0.28963754
000350 d6 1c f5 bd 80 aa a6 bd b2 c6 33 3e e3 fc 22 be
       -0.11968391 -0.08137989 0.17556265 -0.15916781
000360 ce da 83 be 46 ff 64 3e 6a 5d 2d bd 4e c3 45 3e
       -0.25752872 0.22363004 -0.042325415 0.19312784
000370 3d b1 76 3e 12 55 78 3e f3 2a 8e 3e b0 9d 66 be
       0.24091049 0.24251202 0.27767143 -0.2252109
000380 51 19 97 3e 6c 83 92 3d 99 31 86 3e 48 2e 09 3e
       0.29511502 0.07153973 0.26209715 0.13396561
000390 d6 9b 33 3e 38 90 2e be 33 9b 03 be 2b 46 06 be
       0.17539915 -0.17047203 -0.12852173 -0.13112704
0003a0 61 f9 9d 3e 00 fe 0f 3a 67 e2 80 3e d6 a0 44 3e
       0.30854324 0.0005492866 0.2517273 0.19201979
0003b0 f3 5c a5 3e cb 5b a7 bd fb 8c 85 3e b0 0e 00 3e
       0.32297477 -0.08171805 0.26084122 0.12505603
0003c0 3f b2 6f 3e 00 41 ea ba 4e 02 54 3e 10 35 9f be
       0.23407839 -0.0017872155 0.20704004 -0.3109517
0003d0 d9 a1 a2 be d3 fa ce 3d d8 21 61 bd 33 11 09 3e
       -0.31764105 0.10106435 -0.054963917 0.13385467
0003e0 60 84 5b bd 15 aa 8c 3e 6c 41 b3 bd 51 46 83 3e
       -0.05359304 0.27473512 -0.087527126 0.25639585
0003f0 43 88 9c 3e 0e 2d 0f 3e dc 11 a3 bd 4c 45 d2 bd
       0.3057271 0.13982031 -0.07962391 -0.102671236

0.bias f4 [64]
000000 be c4 5d be 58 13 9b be 43 8a 4e be fc 4d cd bd
       -0.21657082 -0.30288196 -0.2016993 -0.1002464
000010 ef 57 71 3e 22 a9 37 3e cb 35 25 be 5b bb 51 be
       0.235687 0.17935613 -0.16133802 -0.20481627
000020 ee 63 a3 be 06 2b 41 be da 4b 35 3e ab d4 9d 3e
       -0.31912178 -0.18864068 0.17704716 0.30826315
000030 c0 96 60 be 0c 33 96 bd 41 ae 2b bd f5 e2 98 3e
       -0.21932507 -0.07333955 -0.04191423 0.29860654
000040 18 6b 89 be 4f 67 91 3e 12 4e d4 3d 2c cb b2 3d
       -0.2683952 0.2839913 0.10366453 0.08730158
000050 28 d2 05 3d 5b 0a 37 be d4 e2 bd 3d 20 f2 6b be
       0.032671124 -0.17875044 0.0927178 -0.23041582
000060 99 3c 47 3e 7d f4 9f 3e 59 ea 26 3e d0 31 cd 3b
       0.1945671 0.31241217 0.16300334 0.0062620416
000070 8a 41 45 3e e2 e6 a7 be d0 f8 2a be d3 48 65 3c
       0.19263282 -0.32793337 -0.16696477 0.013994413
000080 d0 36 41 be 10 e2 a4 3c 52 34 81 be c6 f5 30 3e
       -0.18868566 0.020127326 -0.2523523 0.17281255
000090 d6 c1 c5 bd 46 1b 8c be fd 71 18 3e 80 ff fe 3d
       -0.09656112 -0.27364558 0.14887233 0.124510765
0000a0 40 00 84 bc 09 2a 75 3e c8 3b 98 3e 54 f4 9c be
       -0.0161134 0.23941816 0.2973311 -0.30655158
0000b0 14 8c 04 3e 2e 72 ec 3d a8 ac 73 be ad 1c 8e be
       0.1294406 0.115452155 -0.23796332 -0.27756253
0000c0 96 08 b1 bd 96 f0 8e 3d 0d 30 84 3e 8a d2 91 3d
       -0.08644216 0.06979482 0.2581791 0.07120235
0000d0 58 c9 3f be a6 cd b7 3d d3 31 76 be 38 5b 10 3d
       -0.1872915 0.08974771 -0.24042444 0.035243243
0000e0 17 30 87 be ad df a7 3e 90 dd f1 3c 00 87 9c 3b
       -0.26403877 0.3278784 0.029524595 0.0047768354
0000f0 85 6c 84 be 75 aa 78 3e d3 6a ea 3d 40 25 a5 3b
       -0.25864044 0.24283774 0.11446156 0.005039841

2.weight f4 [64, 64]
000000 5c f1 ff bd 14 e2 81 3d 7a 43 84 bd cc f6 1b bd
       -0.124972075 0.06341949 -0.06458183 -0.03807716
000010 f2 c2 d6 bd 1c 98 fa bd 6a e7 f4 bd 00 66 25 3c
       -0.104864016 -0.12236044 -0.11958201 0.0100951195
000020 80 73 10 bc 52 15 bb bd 8a b8 b9 3d 60 66 c3 bc
       -0.0088166 -0.09134926 0.09068401 -0.023852527
000030 96 f8 9a bd 80 fe 85 bb 20 96 88 3c a0 04 b5 3b
       -0.07566945 -0.0040891767 0.016673148 0.005524233
000040 92 64 e1 3d b0 b1 99 bd 48 dd 5a bd fe fd fb 3d
       0.110055104 -0.07504594 -0.053433686 0.123043045
000050 66 ff d1 3d 8c 6e c8 bd 4c 3f 1f 3d c4 cb 90 3d
       0.102537915 -0.0978671 0.038878724 0.07070115
000060 e0 aa 04 3c 78 45 ce 3c e8 4e b6 bc 18 48 c5 bd
       0.00809738 0.02517961 -0.022254422 -0.096328914
000070 52 a5 ea 3d 88 fe d9 3d 50 87 42 3c 9c 02 b8 bd
       0.114573136 0.10644251 0.011873081 -0.08984873
000080 b0 66 b1 3d ac 6b 59 3d 44 06 65 3d a8 25 93 3c
       0.08662164 0.0530812 0.05591418 0.017962292
000090 a8 81 56 3d 6a d6 a6 3d ea 8c a5 3d e4 a4 13 bd
       0.052369744 0.08146365 0.08083518 -0.036045924
0000a0 ae 6b b6 3d c4 3f bb 3d 34 43 60 bd 3a 4f f1 3d
       0.08907257 0.09143022 -0.05475159 0.117826894
0000b0 88 c6 cb bd 60 22 c8 bc 8e a4 9f bd 4e 14 d4 bd
       -0.09949976 -0.024430454 -0.07795058 -0.10355435
0000c0 90 4f 6c bc 76 63 fa 3d 12 3e ca bd 40 d6 3a 3c
       -0.014423266 0.12226002 -0.0987512 0.01140362
0000d0 bc a7 60 bd e6 d4 cc bd 04 d1 d2 3d 30 fd 83 3d
       -0.054847464 -0.10001545 0.10293773 0.06444776
0000e0 32 9f f6 3d f2 aa 9b bd 8a f4 fd 3d 70 29 a8 bc
       0.12042083 -0.076009646 0.12400158 -0.020527571
0000f0 50 99 77 3c 70 1d 66 bc 78 d7 9e 3d 28 29 f6 3d
       0.015112236 -0.014045104 0.07755941 0.12019569
000100 6a 1a e5 bd 20 5f b2 3c c8 6f d5 3d d8 47 fe 3c
       -0.11186679 0.021773875 0.10421711 0.031040117
000110 e4 f3 83 3d 00 be b2 39 5b 28 9c bd 1a ed eb 3d
       0.06443003 0.00034092367 -0.07624885 0.11519833
000120 46 c7 8f bc 80 76 44 3b a2 6a d7 bd d0 30 30 ba
       -0.017551076 0.0029977858 -0.105183855 -0.0006721141
000130 04 60 94 bd f4 d1 02 3d 52 b1 a8 3c b7 07 23 bd
       -0.07244876 0.03193851 0.020592365 -0.03980228
000140 50 6a 1f bc b5 82 9d 3d 0e 1b b3 3d b0 97 cd bd
       -0.009729937 0.07690946 0.08745395 -0.10038698
000150 60 6d b1 3b 3b b3 cc bd 10 c2 c5 3d a8 49 d1 bc
       0.00541465 -0.09995123 0.09656155 -0.025547817
000160 3a 96 bb 3c a8 ee ce 3c 7d 00 7b 3d 7c 2a 2f bc
       0.022898782 0.025260285 0.061279763 -0.010691281
000170 b0 7c 78 bd 28 03 f4 bd a0 b6 cd 3d a0 a9 fe bd
       -0.060665786 -0.119146645 0.100445986 -0.12434697
000180 10 aa d6 3d 00 60 f2 3c 10 8d 8c bd e1 3b 6b 3d
       0.104816556 0.029586792 -0.06862843 0.05743015
000190 5a 5d b6 3d 7e c7 da 3c 07 15 39 bd 18 8c 4c 3d
       0.08904524 0.026706453 -0.04518607 0.04993829
0001a0 4c b3 1f 3d 5a 8c 00 be d9 ed 54 3d 72 ee 9c bd
       0.03898935 -0.1255354 0.05198464 -0.07662667
0001b0 32 75 c9 bc 99 0c 5d 3d 9e b6 fb 3d e3 1b be bd
       -0.024592016 0.053967092 0.12290691 -0.09282663
0001c0 52 67 c8 bd be 54 f4 bc bc 7c 1c bd 28 92 fc 3d
       -0.09785332 -0.029825564 -0.038204893 0.123325646
0001d0 bd 6f 8a 3d a0 2a d2 3d f8 79 6c 3d 3a 9f a2 3d
       0.06759594 0.10262036 0.057733506 0.07940526
0001e0 34 4c 66 bd 72 b2 8b 3d 40 18 96 bd c0 77 57 bd
       -0.056225017 0.06821145 -0.07328844 -0.052604437
0001f0 5e 68 84 bc e3 fe 34 bd 1e 57 80 bc 04 6d 1a bd
       -0.016163047 -0.04418839 -0.01566654 -0.03770162
000200 0e 49 94 bd b4 db 7d 3d 5e 56 b2 3d ea b0 dc bd
       -0.072404966 0.061977103 0.087078795 -0.10775931
000210 c0 59 de 3d f8 25 42 3d 3a c3 a1 bc a0 a2 7e 3c
       0.10856962 0.04739949 -0.019746412 0.0155417025
000220 13 ed 37 3d 64 7e 25 3d 50 6e 08 bc d4 6c cb 3d
       0.044903826 0.04040374 -0.008327082 0.09932867
000230 e8 04 fd 3d 00 b8 69 bd e9 9f ea bc 8a 67 4d bb
       0.123544514 -0.05706024 -0.028640704 -0.0031342232
000240 18 f4 46 3d f1 8c 1d bd 76 fc a7 bd 60 60 ba bc
       0.04857263 -0.03846449 -0.0820245 -0.022751033
000250 f2 51 a5 bd 6e b4 a2 bd 02 9a e2 3d 7c 62 f1 bd
       -0.080722705 -0.079445705 0.11064531 -0.117863625
000260 c9 2d 4c bd ac 89 07 3d 46 b2 d0 bd f3 2c 7a bc
       -0.04984835 0.03309028 -0.10190253 -0.015269506
000270 70 36 c4 bd 59 90 bc bc f0 13 42 3d 23 7e 71 3d
       -0.09580696 -0.02301805 0.047382295 0.058958184
000280 04 75 50 bd 18 61 42 bd 04 17 b7 3d 41 44 5c bd
       -0.050892845 -0.047455877 0.08939937 -0.05377603
000290 51 9e 00 3e 5d a1 13 bd 24 e4 87 bd bc 2f 37 bd
       0.12560393 -0.03604256 -0.06635311 -0.044723257
0002a0 76 ff ec 3d 8d c2 62 bd 5d f6 fa 3d 7e c6 b0 bd
       0.11572163 -0.05536132 0.12254021 -0.086316094
0002b0 6c cb f1 bd 64 8b e5 3d 47 6c a7 3c 2e cf a0 bd
       -0.11806378 0.11208227 0.020437373 -0.078520164
0002c0 2b 87 54 3c fc 02 8d 3d 38 e5 cf 3d de 61 91 3c
       0.01297168 0.06885335 0.10151142 0.017746862
0002d0 5c 1e 6d 3c a2 ed b0 3d ec 92 dd 3d 50 07 d1 3c
       0.01447257 0.08639075 0.10819039 0.025516182
0002e0 50 a3 98 bc 98 b1 dc bd b0 2b eb 3d f0 f9 4b bc
       -0.018632561 -0.10776061 0.11482942 -0.012449726
0002f0 e6 7e 9b bd 22 7d 3b bc e2 65 17 bc 68 22 43 bd
       -0.07592563 -0.011443408 -0.009240599 -0.047640234
000300 40 26 5b bb 38 45 1e 3d 68 8f 7d 3d 48 f1 3e 3d
       -0.0033439547 0.03864023 0.06190434 0.046616822
000310 c4 fa 88 bd d4 ab 03 3d cc 84 84 bd a0 a9 56 bc
       -0.06688455 0.03214629 -0.064706415 -0.013101965
000320 98 50 58 3d 40 b1 fe 3b 00 89 e9 bd 9c 99 a7 3d
       0.052811235 0.0077725947 -0.11403084 0.081835955
000330 9a 98 e2 bd dc 9b 0e bd 00 f7 01 3b 50 dd 46 bd
       -0.11064263 -0.034816608 0.0019831061 -0.048550904
000340 9a 02 e7 bd ac 88 fe bd 5c d4 f9 bd 28 16 b6 bd
       -0.11279793 -0.12428412 -0.121987075 -0.08890945
000350 4c 9b 10 3d 4e 8d dd bd 1c 1f 8a 3d 40 8e 81 bb
       0.035304353 -0.10817967 0.06744215 -0.003953725
000360 b6 85 e1 bd 70 05 a0 3d d8 68 a8 bc 70 d0 af 3c
       -0.110118315 0.07813537 -0.020557806 0.021461695
000370 10 09 8d 3d 96 73 91 bd 70 fa aa bd 80 57 d4 bb
       0.06886494 -0.071021244 -0.083485484 -0.0064801574
000380 80 51 74 bb 26 cd 95 bd 1a 0c e0 bd bc 23 12 bd
       -0.0037280023 -0.073145196 -0.10939808 -0.03567861
000390 66 ef b7 bd 9c 11 b3 3d 4a 44 95 bd 80 59 94 bd
       -0.089812085 0.08743593 -0.07288416 -0.07243633
0003a0 78 bd d1 bd e4 93 6a bd 20 5d 60 bd fc 37 4b bd
       -0.102412164 -0.057269946 -0.05477631 -0.049613938
0003b0 06 ee 8a 3d 32 39 e2 bd 90 e3 53 bd e0 8b c4 bb
       0.067836806 -0.110460654 -0.051730692 -0.0059981197
0003c0 64 5a 62 bd 3c 9b da bd 9c fc 35 bd 60 01 d7 3d
       -0.055261984 -0.1067414 -0.04443036 0.10498309
0003d0 06 37 8d 3d 46 36 bc bd 18 7b bc bc 00 4e 5a 3b
       0.068952605 -0.09190039 -0.023007914 0.0033310652
0003e0 8a 22 8e 3d ca d6 bd 3d 34 bc b7 3d 40 06 a1 bb
       0.069401816 0.092694834 0.08971444 -0.004914075
0003f0 5c ac 08 3d b0 81 2f 3d 40 ee 60 3c dc 51 99 bd
       0.0333675 0.04284829 0.013728678 -0.074863166

2.bias f4 [64]
000000 36 79 9c bd 68 5a bb 3d 56 28 9c 3d b8 17 34 bd
       -0.07640307 0.09148103 0.07624881 -0.043967932
000010 83 da 6a 3d aa 38 e2 3d 92 8a be 3d 32 c5 cc 3d
       0.057337295 0.11045964 0.09303774 0.099985495
000020 9e c8 e3 bd d8 52 61 bd 6e d2 83 bb ce bb 32 3c
       -0.11122249 -0.055010647 -0.004022888 0.010909034
000030 85 d9 d5 3c af 89 3c bd 60 b1 95 3d 5c 4d af 3d
       0.026104698 -0.046029743 0.07309222 0.08559677
000040 fe cc e3 bd 92 24 fb bd 2a ce d1 bc e8 e3 be 3d
       -0.111230835 -0.122628346 -0.025611002 0.093208134
000050 7c 8f 4a 3d 00 78 19 3a d7 0c 51 3d 2a 01 27 ba
       0.049453244 0.0005854368 0.051037636 -0.0006370718
000060 ea 5a d4 bd 33 99 1b bd c8 d8 a3 3c a7 3a 37 3d
       -0.10368903 -0.0379879 0.02000083 0.04473367
000070 0a 51 51 bb f0 ba 20 bc cc 71 86 bd 97 0f f9 bc
       -0.0031939172 -0.009810194 -0.06564674 -0.030402942
000080 20 6c e8 3b a4 71 b0 3d c6 90 9f bd 5b 87 86 bd
       0.0070929676 0.08615425 -0.07791285 -0.06568786
000090 e4 7a ff 3d c0 e0 ae 3d 80 25 35 bd f8 71 28 3d
       0.124746114 0.085389614 -0.044225216 0.041124314
0000a0 44 84 02 3d 88 8b b1 3c 28 7e ce bd 04 81 2f bd
       0.03186442 0.021672979 -0.10082656 -0.04284765
0000b0 e4 6c 4b 3d 5f 9b cd 3d a3 0d e4 3d b8 ca be bc
       0.049664393 0.100394 0.111354135 -0.023290023
0000c0 d8 6d 8c bd 13 6f 61 3c 90 b1 9b bd 5c cb 7f 3d
       -0.068568885 0.013759392 -0.07602227 0.062449798
0000d0 21 8c 4b bd e2 77 ed bd 27 fb 05 3d 17 8c 60 bd
       -0.049694184 -0.115951315 0.03271022 -0.0548211
0000e0 c9 c1 23 3d a2 09 8b bd e0 2b 8d 3d f3 bb cd 3c
       0.03997973 -0.06788947 0.06893134 0.025114035
0000f0 82 2a 0b 3d 3a 0f e9 3d 08 c8 a1 bc e4 fc 9f bd
       0.033976085 0.11379857 -0.019748703 -0.07811907

4.weight f4 [4, 64]
000000 64 7e 09 3d c7 f1 ae bc aa b8 9e bd 40 f9 6a bd
       0.0335678 -0.021355523 -0.077500656 -0.05736661
000010 eb 26 45 bd 8e 22 ed bd e0 37 15 3c f0 86 cb 3d
       -0.04813282 -0.115788564 0.00910756 0.09937847
000020 30 b0 e9 bd fc 0d c9 bd 9a 54 b8 3d 5c f4 a3 bd
       -0.11410558 -0.098171204 0.090005115 -0.08005592
000030 ce 24 f2 bd 00 f1 d0 3d d9 a4 43 3d 95 f4 72 bd
       -0.11823426 0.10202217 0.047764633 -0.059315283
000040 6d 60 31 bc e8 5e 27 bd cb d1 a8 bd cb 2d 2f bd
       -0.010826212 -0.040861994 -0.0824314 -0.04276828
000050 7a 47 bc bd f4 ec 19 3d 52 a9 87 3c f4 77 dd bd
       -0.091933206 0.03757949 0.01656023 -0.10813895
000060 f6 c3 f6 3d 52 23 8d bb ac 94 45 3d 0e 48 9e bd
       0.12049095 -0.004307189 0.048237488 -0.07728587
000070 94 c8 b3 bd 20 f6 af 3d ba 82 da 3d 28 2c e7 3d
       -0.087784916 0.085918665 0.10669465 0.11287719
000080 02 ae 9f 3d e6 5e e6 bd fa 67 e8 bd e0 46 f6 3b
       0.07796861 -0.11248569 -0.11347957 0.007515773
000090 ba 7a 94 3d ec a5 e8 3d 86 be 94 3d d0 0d c4 bc
       0.07249971 0.11359772 0.07262902 -0.023932368
0000a0 80 49 e3 3c 56 09 c9 3d 1c 3a 30 3d fe 6c a4 3d
       0.027745008 0.09816234 0.043024167 0.08028601
0000b0 fc bb 62 bd 95 7f a4 bd 4b bf 0f bd c4 65 7d 3d
       -0.055355057 -0.08032147 -0.03509454 0.06186463
0000c0 50 0b 16 3d 47 db b4 bc 14 61 b4 3d 98 90 37 bd
       0.036631882 -0.022077216 0.08807579 -0.04481563
0000d0 f7 26 00 be bc 43 2a 3d b5 cd 6b 3d 1a 72 ad 3d
       -0.12514864 0.041568503 0.057569224 0.08469029
0000e0 d6 4f 2f 3d 0c 73 c1 3d e5 fa 6a 3d 03 cc 04 bd
       0.042800747 0.094457716 0.057368178 -0.032421123
0000f0 0b 2a 51 bd ea 3c aa 3d e0 9e d1 3c 00 6e 27 bd
       -0.051065486 0.083124 0.025588453 -0.04087639
000100 de 2d df bd 2c a0 85 bd 9e 15 e5 3d 3c a6 59 3d
       -0.1089742 -0.06524691 0.11185764 0.05313705
000110 d8 83 e0 3d 43 87 52 3d 5a 4d ea bd e7 6a 52 3d
       0.10962647 0.051398527 -0.11440535 0.05137148
000120 00 81 a2 bd 80 b3 a6 bc e4 11 c4 3d b0 63 ac 3d
       -0.07934761 -0.020349264 0.09573725 0.084174514
000130 58 46 79 bb 75 33 10 bd 58 6f d1 3d 45 00 7e bd
       -0.0038036313 -0.035205323 0.10226315 -0.062011976
000140 89 e2 4c bd 40 37 b4 bd e3 bd 4f 3d 1b e2 1b 3d
       -0.05002073 -0.087996006 0.0507182 0.038057428
000150 de 42 ba 3d 92 0a f5 3d 62 be b7 3d b7 35 a5 3c
       0.09094785 0.11964907 0.089718595 0.020167215
000160 66 ad e8 3a 47 f0 f7 bd e0 dc a2 3c 2d 8f 3a 3c
       0.0017751872 -0.12106376 0.019880712 0.011386675
000170 a8 9b 93 3d 70 06 9b 3c 8a d2 d9 bd 9d 5d 7c bd
       0.072074234 0.018923968 -0.1063586 -0.061612714
000180 26 be e9 bd df 73 7a 3d b6 1b d3 3d ba 86 fd 3c
       -0.11413221 0.06114566 0.1030802 0.030948032
000190 96 ee a1 bd c3 17 68 3d b8 fb 32 3d 4c e6 ef 3d
       -0.07906835 0.056663286 0.04369709 0.117138475
0001a0 00 cb af 3b 00 9c 94 bb 28 d0 e9 bc 90 b6 c9 bc
       0.0053647757 -0.004535198 -0.02854164 -0.024623185
0001b0 0c 10 e2 bd ab 2a c0 bd 81 89 6f bd ac 28 36 3d
       -0.11038217 -0.09383138 -0.058480743 0.04447238
0001c0 60 5d c6 bb cc 12 af bd d0 5b 97 bd 60 2f 8e 3b
       -0.0060536116 -0.08548507 -0.07390559 0.0043391436
0001d0 36 f8 94 3d 40 30 49 bc 9c 26 cc 3d f8 a3 a7 bd
       0.07273905 -0.01227957 0.09968302 -0.081855714
0001e0 94 03 a4 3d c6 a5 d7 bd 17 3e a0 ba 11 72 d2 bc
       0.08008495 -0.10529666 -0.0012225535 -0.025689157
0001f0 3a c6 8d bd b7 5b 1e 3d 1f 2a a5 bd e0 e1 d7 bc
       -0.06922574 0.038661685 -0.080646746 -0.026352823
000200 e2 93 9e bd 39 2c 15 3d 39 60 bf bd bc c1 41 3d
       -0.0774305 0.036419127 -0.09344525 0.0473039
000210 e2 ec 0f 3d 8f f1 11 3b 92 ad 82 3d b2 f4 88 3c
       0.03513802 0.0022269224 0.06380762 0.016718242
000220 66 36 c4 3d 70 57 f6 3c 0f 93 d4 bd 61 f3 da 3d
       0.09580688 0.03007099 -0.10379612 0.10690952
000230 aa 31 cc bd ea 23 d1 3c 19 4d f8 bd 9e 53 a8 3d
       -0.0997041 0.02552982 -0.1212408 0.08219074
000240 0f 55 9d bc 30 ec 14 3d 00 71 3e bc f7 aa 71 bd
       -0.019205598 0.03635806 -0.011623621 -0.059000935
000250 e8 13 df bd 68 a8 b7 bd 45 c5 6e 3d 19 67 e6 bd
       -0.10892469 -0.08967668 0.0582936 -0.11250133
000260 71 b5 0c bd ac d7 c7 bd 0a 53 d9 bd 0b 9f d5 bd
       -0.034352724 -0.09757933 -0.106115416 -0.10430726
000270 8d 3b 04 3b 7c c1 79 bd d8 49 ac bc 3e 4a be 3d
       0.0020177097 -0.060975537 -0.021031305 0.09291504
000280 88 19 2d 3d 8c a9 ab bd f8 ec a1 bc 0c b4 11 bd
       0.042260677 -0.08381948 -0.019766316 -0.035572097
000290 40 d0 81 bd 3d 8f 5b bc a0 40 8c 3c 00 ee 73 3b
       -0.06338549 -0.01340085 0.01712066 0.0037220716
0002a0 c2 33 8b 3d 28 72 a4 bc 44 b0 3b 3d 48 d1 b0 bd
       0.067969814 -0.020073965 0.045822397 -0.08633667
0002b0 90 d2 16 3c 36 3b 33 bd 90 2f ea bd 88 ac c6 bc
       0.009205475 -0.04375764 -0.11434853 -0.024252191
0002c0 10 23 f2 3c 72 c4 d4 bd 58 1f bf 3d 84 f3 f7 bd
       0.029557735 -0.103890315 0.0933215 -0.12106994
0002d0 fd 64 53 3d 38 dd 4c 3d 83 fe bd bd 99 1d e2 bd
       0.05160998 0.05001566 -0.0927706 -0.110408016
0002e0 b6 e7 bc bd ef 56 fa 3d 85 6c d0 3d ad 13 02 3d
       -0.09223883 0.122236125 0.101769485 0.031757046
0002f0 5d 1c 23 3d bb 49 fb bd 68 0a 8a 3d 70 27 7e 3d
       0.03982197 -0.12269922 0.06740266 0.06204933
000300 a0 5b 91 bb 4f 50 76 3d 16 1f ab bd 14 47 a9 3d
       -0.0044359714 0.060135182 -0.083555385 0.0826551
000310 a4 19 8b bc 34 bf c6 3d 40 50 e3 bb 5d ff 17 3c
       -0.01698 0.09704438 -0.006937057 0.009277192
000320 e8 d0 9c 3d c8 ec 94 bc b4 34 1c bc 03 a9 a9 3d
       0.07657033 -0.018179312 -0.00953405 0.082841896
000330 6d de d4 3d f1 97 b7 3b 84 b2 e8 bd 43 26 a2 3d
       0.10393987 0.0056028296 -0.11362174 0.07917454
000340 96 56 f5 3d c0 49 41 bc 60 54 2c 3d 00 0b 23 b7
       0.119794056 -0.0117973685 0.042072654 -9.718118e-06
000350 c0 fd 25 bd 88 b3 bc bc c6 f2 9b 3d 06 cd bf bd
       -0.040525198 -0.023034826 0.07614665 -0.09365277
000360 00 e1 1b ba bd 6b 88 bd e2 f5 bc 3d e2 ca f8 bd
       -0.00059463084 -0.066611744 0.09226586 -0.12148072
000370 bf 7e 08 3d 38 68 f5 bc e0 9e c0 3c 45 b7 fc bd
       0.033324 -0.029956922 0.023513258 -0.123396434
000380 20 3b 1f bd 63 17 e5 3d 90 e5 f4 bc 8f 76 8c bd
       -0.038874745 0.11186101 -0.02989462 -0.06858551
000390 24 67 df 3d b6 d9 9d 3d 00 22 bb bc 74 79 d9 bd
       0.109083444 0.07707541 -0.02284336 -0.106188685
0003a0 0c 0e 2f bd 72 d8 9c 3d f0 02 75 bd c0 ac a9 3c
       -0.042738006 0.07658471 -0.059817255 0.020712256
0003b0 f0 e5 48 3c c4 44 f5 3d 9b d2 8c 3b 44 e0 20 3d
       0.012261853 0.119760066 0.004297567 0.039276376
0003c0 18 a9 a3 3d 44 1a d0 bd 9a f4 cd 3b c4 a4 e8 bd
       0.079912364 -0.1016126 0.0062852623 -0.113595515
0003d0 a8 ab 99 bd 90 6a ee 3c b4 db e7 3d cd 91 cf 3d
       -0.07503444 0.029103547 0.11321202 0.10135231
0003e0 7a 62 b5 bd e3 c6 27 bc f8 49 28 3d aa 65 e7 bd
       -0.088566735 -0.010240289 0.041086167 -0.11298688
0003f0 13 13 47 3d 40 8e 0b 3d c2 db 77 3d 4c 01 4c bd
       0.048602175 0.034071207 0.06051231 -0.049805924

4.bias f4 [4]
000000 78 a9 d2 3d b7 aa 36 3b a6 91 ce 3b e2 17 d0 bd
       0.1028623 0.002787275 0.0063039837 -0.10160805
