Submit/dqn_nor.pth (torch, 36616 bytes, 6 tensors)

0.weight f4 [64, 64]
000000 00 c1 25 bc 76 4b ff bd 4e dc af 3d 89 8d e1 bd
       -0.010116816 -0.12465565 0.08586942 -0.11013324
000010 7e ee 05 bc a9 ab 94 3d 0c c1 8c 3d 72 92 49 3c
       -0.008174537 0.07259304 0.06872758 0.012302982
000020 07 13 0b bd d6 bb 86 bd a6 c0 b0 3d 7f 49 ed 3d
       -0.033953693 -0.065787956 0.08630495 0.11586284
000030 84 8f a2 bd c4 f6 b9 bd 15 6c 60 bd 62 17 b1 bd
       -0.0793753 -0.0908027 -0.054790575 -0.08647038
000040 8f e5 b2 3d 7e 25 6a 3d 10 06 e5 bc bb 84 ad 3a
       0.08735191 0.05716466 -0.027956992 0.0013238409
000050 fa e4 7a 3d ec 14 d7 bc b6 d0 62 3e 63 8e db 3d
       0.061253525 -0.026255094 0.2214993 0.107205175
000060 33 c2 7c bd 00 4d db bd ca dc ed ba 76 a2 a4 bd
       -0.06170864 -0.10708046 -0.0018147465 -0.080387995
000070 af 5c 25 bd a4 d7 f0 bd 7a bd 0b bd 9f 2c 56 bd
       -0.040371593 -0.1175988 -0.034116246 -0.052288648
000080 01 95 d3 3c 21 ce c0 3d 8a b1 2d 3e f2 42 9d 3d
       0.025827887 0.09414316 0.16962257 0.076787844
000090 df 76 a8 3d 8f c9 81 3c ea e5 05 bb 10 f9 9c 3d
       0.08225798 0.015843181 -0.002043123 0.076646924
0000a0 4f 55 eb 3d 3c 11 5a 3d 0a 5f 1f bd 5c de c2 3d
       0.11490881 0.053239092 -0.038908996 0.09515068
0000b0 d8 a6 df bb c6 88 82 3d 3c 47 27 bd 2a f1 58 3e
       -0.0068253092 0.06373744 -0.04083942 0.21185747
0000c0 98 36 ba bd a5 24 7d 3e b8 ab d2 bc 37 2d 8b bd
       -0.09092444 0.2472101 -0.025716648 -0.067957334
0000d0 98 af ab 3d 55 ec d0 3d 16 ef d9 3d b3 16 c1 3d
       0.08383101 0.10201327 0.10641305 0.09428158
0000e0 21 c4 76 3d 4c 80 45 3d b3 a8 fa 3c c8 0e 58 bb
       0.060245637 0.048218057 0.03059802 -0.0032967795
0000f0 b5 c5 b9 bd d3 94 3a 3d 42 17 39 3d 22 47 bc 3d
       -0.09070913 0.045552086 0.045188196 0.09193255
000100 fc 83 9a bd 87 85 ca 3d 33 35 ed bd ee c1 f9 3d
       -0.07544705 0.098887496 -0.115824126 0.12195192
000110 26 52 f5 3c 66 15 df 3d 9d 0e 14 3d 67 7a ef 3c
       0.029946398 0.10892753 0.03614675 0.02923317
000120 94 19 71 3d 0e a7 81 3d 00 34 bb 3e 21 a0 98 3c
       0.058862284 0.06330691 0.3656311 0.018631043
000130 f9 a7 74 bd af 4a 92 3d 56 60 fd 3d bf 0d bb 3d
       -0.059730504 0.07143151 0.1237189 0.09133481
000140 fe 87 e0 bd e6 78 a5 bd 30 5d 87 3c c2 db 87 3c
       -0.109634385 -0.080797 0.016523927 0.01658428
000150 f2 00 83 3d a8 a6 10 bd 50 c4 5e 3e af db ba 3c
       0.06396665 -0.035315186 0.21754575 0.022809831
000160 75 16 6c bd 2a 15 ca 3b b4 12 d2 3c ff 15 df 3d
       -0.057638604 0.0061670737 0.025643684 0.10892867
000170 e5 7a c9 3c e6 48 d2 bd 8a a9 c6 bd 20 0e 98 3c
       0.024594733 -0.102678105 -0.09700306 0.018561423
000180 c6 cc 25 bd 7c b9 f9 bd 28 d8 8e 3e 84 10 49 3d
       -0.04047849 -0.121935815 0.2789929 0.049088016
000190 58 79 aa 3c 69 d8 3b 3d 04 d5 01 3e d7 40 39 3d
       0.020809814 0.04586068 0.12678915 0.04522785
0001a0 12 80 4c 3a 24 ef e0 bd 96 d7 20 bd f2 87 59 3d
       0.00078010664 -0.109831125 -0.0392681 0.053108163
0001b0 42 95 9d bd 52 bf a5 bd be 37 bf bd 45 bb 97 3e
       -0.07694484 -0.08093132 -0.09336804 0.29635063
0001c0 4f aa 20 3e df 68 7f 3e f3 03 0a bd 17 7e d4 bd
       0.15689968 0.24942349 -0.033695173 -0.10375612
0001d0 20 17 91 bd b4 c3 90 bd 11 b1 63 3d 6c 0f 9a bd
       -0.07084489 -0.070685774 0.055588786 -0.07522473
0001e0 48 fd 37 3d f1 52 b0 3d 27 ad 86 bd 9c b2 09 bd
       0.044919282 0.0860957 -0.06575995 -0.0336176
0001f0 f6 de 77 3d 7e 4f 2f 3d 2a 80 a9 3d 63 01 8b 3e
       0.060515366 0.04280042 0.082763985 0.27149495
000200 da 5d 53 3d 1d b2 d8 bc 2a 1b 9f bd 6b 34 fc bd
       0.051603176 -0.026452119 -0.07768853 -0.123146854
000210 c4 2d e9 3d 63 35 74 3d 48 b9 c7 3d ee 7c ab 3d
       0.11385682 0.059621226 0.097521365 0.08373438
000220 7a 37 65 3d 4b 19 72 bd 58 db 77 3e 5f 65 c1 3d
       0.05596111 -0.059106153 0.24204767 0.09443163
000230 f3 b3 84 3a 4c bb 85 bd db 68 9d bd 41 d3 cb 3d
       0.001012443 -0.06529865 -0.07686015 0.09952403
000240 93 a2 af 3d 69 8c bd bd a3 f6 36 3d 50 33 8d bd
       0.085759304 -0.09255297 0.044668805 -0.06894553
000250 62 7f 95 3d 9e 26 98 3d 88 5d 5e 3e fb 8c 0f 3d
       0.07299687 0.07429241 0.21715367 0.03504656
000260 66 a4 a2 3d f4 7c 8f 3a 70 db 92 3d 43 35 c6 3d
       0.07941513 0.0010947273 0.07170761 0.096781276
000270 d3 2e 6f bd a6 5c e2 3b a1 71 e1 3d fa de d3 3d
       -0.058394264 0.006908017 0.11008001 0.10345264
000280 e9 f5 00 3e 51 06 e3 3d 88 9e 91 3e 48 25 93 3d
       0.12593807 0.11085189 0.28441262 0.07184845
000290 b6 3a d7 3d 58 36 12 3d 34 19 f2 bd 4a 01 aa 3d
       0.10509245 0.035696357 -0.11821213 0.08301027
0002a0 cb 33 4a 3d e8 2f 8a 3c ec eb 98 bd 1e a7 b7 3d
       0.0493658 0.016868547 -0.074668735 0.08967422
0002b0 b9 10 25 bd a0 64 b7 bd 14 19 27 bd f5 41 d6 3d
       -0.04029915 -0.089547396 -0.0407954 0.10461799
0002c0 89 f6 05 3e d4 4b 2c 3e 0d a1 78 3d a7 46 d8 bd
       0.13082327 0.16825801 0.060700465 -0.10560351
0002d0 aa 18 22 bc 64 fc ae 3d 80 59 90 3d 7a bc a7 3d
       -0.009893576 0.085442334 0.07048321 0.08190246
0002e0 58 96 60 3c 12 f4 18 bd e6 09 bb 3d 04 b3 04 3d
       0.01370772 -0.03734214 0.09132747 0.032397285
0002f0 c1 97 62 3d 90 f5 db bd 26 84 ac 3d 9b 23 89 3e
       0.055320505 -0.10740197 0.08423643 0.26784977
000300 70 1b 9b 3d 4d 2d f2 bd 40 32 a0 3d 5f 44 c1 bd
       0.07573593 -0.11825047 0.078220844 -0.09436869
000310 38 a0 d0 bd 08 14 3f 3c f9 29 a5 3d fe a9 c8 3b
       -0.10186809 0.011662491 0.08064646 0.0061237803
000320 5b 54 b4 bd 8a 6d 69 3b 3d e0 90 3e 58 6a ac 3c
       -0.08805152 0.003561827 0.2829608 0.021046802
000330 10 f9 1b bd 11 07 e1 3d 6a 5d 5c 3d 4e 7d ff bb
       -0.03807932 0.10987676 0.053800024 -0.00779692
000340 97 b2 dc 3d 61 8e 6e bd 83 46 7c 3d 62 de fe bd
       0.10776251 -0.05824125 0.061590683 -0.1244476
000350 83 4f 8f 3b 82 03 8f 3d 16 66 b9 3e 4a 29 a2 bd
       0.004373492 0.06983091 0.36210698 -0.079180315
000360 02 c9 c6 bd da 2f 9c 3d 54 92 da bc 64 cf 35 bc
       -0.09706308 0.076263145 -0.026681103 -0.011096809
000370 54 e1 f5 bc bc c5 9f 3d a2 b0 23 3d 05 c1 ad 3d
       -0.030014671 0.07801387 0.039963372 0.08484081
000380 35 42 c5 bd 68 ce 3f bd 4b f8 5a 3e 8c 76 84 3d
       -0.096317686 -0.046827704 0.21383779 0.064679235
000390 0c 09 9d 3d 40 94 ce bd 0e 63 b3 3d c0 72 b5 bd
       0.07667741 -0.1008687 0.087591276 -0.088597775
0003a0 da 19 10 3d 38 06 69 3d ba 90 50 bd 8a e3 35 bd
       0.035180904 0.056890696 -0.050919272 -0.04440645
0003b0 08 38 83 bd 58 d6 09 3d 70 70 18 bd 23 72 ad 3e
       -0.064071715 0.03365168 -0.037216604 0.33876142
0003c0 39 59 ca 3d 62 d3 9a 3e c4 cf 9e bd 90 4b da bc
       0.09880299 0.30239397 -0.07754472 -0.02664736
0003d0 e4 3a 00 be 54 06 82 bc ca bf 2f 3b 09 80 dd bc
       -0.12522465 -0.015872158 0.0026817196 -0.027038591
0003e0 1a ad 75 bd 5a 02 d8 3d 4a c4 dc bd fa 91 a1 3d
       -0.059979536 0.105473235 -0.10779627 0.07889171
0003f0 5b 20 4b 3d 83 9c 80 3c 46 3f a3 3b e7 e0 6f 3e
       0.049591403 0.01569963 0.004981908 0.23425637

0.bias f4 [64]
000000 86 2f 6d 3e be ff c4 3e 4f f3 9d 3e 25 92 4b 3e
       0.2316266 0.38476366 0.30849692 0.19879968
000010 83 28 98 3e 27 c3 79 3e 10 93 08 3e f0 e9 37 3e
       0.29718408 0.24390851 0.1333735 0.17960334
000020 66 42 58 bd d0 73 5d bc d0 d8 80 bd 1e c9 b3 3e
       -0.052797697 -0.013516381 -0.06291354 0.35114378
000030 65 cb 13 3e c0 fd 76 bd 81 34 84 3e b3 65 0c 3e
       0.14433058 -0.06030059 0.25821307 0.1371067
000040 36 17 c7 3e 8c 63 71 3e 21 b6 8e 3e b8 6f 3b bd
       0.38884896 0.2357313 0.27873328 -0.04576084
000050 57 2c a2 3e a7 b5 99 3e 63 df 49 3e ed e7 8e 3e
       0.31674454 0.30021402 0.19714122 0.2791132
000060 c2 79 cc 3e 7e 43 55 3e ab ba 9f 3c 82 25 1c 3e
       0.39936644 0.20826527 0.01949819 0.15248683
000070 af 07 25 3e 14 04 6f bd c6 fd 86 3e 6c 69 85 3e
       0.16116212 -0.0583535 0.2636549 0.26056993
000080 06 9c 86 3e 89 4f 9b 3e 88 88 26 3e 90 f3 c9 bd
       0.2629091 0.30334118 0.1626302 -0.09860909
000090 80 d2 db 3d 36 5b ed bd 8f d2 c3 3e 8f c2 40 3e
       0.10733509 -0.11589663 0.3824658 0.18824218
0000a0 03 c2 ac 3e df ca 66 3e 36 4a bd 3e b0 85 b6 3e
       0.3374177 0.22538327 0.3697068 0.3564887
0000b0 c0 a3 76 3e 8d 33 0a bd f3 93 a4 3e dd 80 96 3e
       0.24085903 -0.03374057 0.32144126 0.2939519
0000c0 9a ff ef 3d 41 22 1f 3e 4b 7a 12 bd c0 92 9d 3b
       0.11718674 0.1554041 -0.03576116 0.0048087537
0000d0 a3 6d 7f 3e a6 ea c4 3e 83 86 b6 3e 7d 6c 50 3e
       0.24944167 0.38460273 0.356495 0.20353885
0000e0 24 01 3f 3e 57 77 18 3e 89 0d fb 3c 63 66 d7 bd
       0.18652779 0.14889275 0.030646103 -0.105175756
0000f0 23 28 a7 3e 0e c1 06 3e dc 9a 76 3e a8 d0 b2 3e
       0.3264781 0.13159582 0.24082512 0.34924817

2.weight f4 [64, 64]
000000 65 31 9f 3d 25 2f e0 3c 7b 57 a6 bd 69 eb 44 3d
       0.07773093 0.02736623 -0.08122154 0.048076067
000010 bb 1f 06 3d e3 31 25 3d 34 82 4b 3d c3 f4 54 3d
       0.032745104 0.04033078 0.04968472 0.051991235
000020 5a 6e b1 3d 0c 0d e5 3d 2e c9 a4 bd bf 6a ab bd
       0.08663626 0.11184129 -0.080461845 -0.083699696
000030 77 c2 b2 bd 2a 99 f5 3d 8c 24 92 bd 0d 28 aa bc
       -0.087284975 0.11992104 -0.07135877 -0.02077105
000040 48 b9 cf 3c f6 51 ea bd dd d5 96 3d f9 d6 96 3d
       0.025356904 -0.11441414 0.0736501 0.073652215
000050 9c 16 90 3d 7a aa 99 bd ff 83 3f bd 4b 77 07 be
       0.070355624 -0.07503219 -0.04675674 -0.132291
000060 99 b5 ab 3d 88 93 a4 bc 25 16 f4 3b 45 c0 49 3d
       0.083842464 -0.02008988 0.007448929 0.04925563
000070 a3 12 96 bd b0 6f 70 3d b1 11 d4 3d d0 a4 64 3d
       -0.073277734 0.058700264 0.10354937 0.05582124
000080 a2 9e 84 bd 40 67 b2 bd b5 4c a3 bd 3f 7f f3 3d
       -0.06475569 -0.087110996 -0.07973615 0.11889505
000090 29 e1 d0 bd 0e 65 d8 bd 1f e6 ab bd 19 0b 93 3c
       -0.10199196 -0.1056615 -0.083935015 0.017949628
0000a0 e9 78 e4 3d cc d7 00 3d 41 61 f3 3c 59 fd b5 bb
       0.11155874 0.0314558 0.02970946 -0.005553883
0000b0 1d 41 f2 3d b7 ba d7 bd 0b 49 00 be 9f 24 c9 3c
       0.118288256 -0.1053366 -0.12527864 0.024553595
0000c0 fd 44 cb bd cb 7e e1 bd 7e 1f 69 3d ba 1d d8 3d
       -0.09925268 -0.11010512 0.0569148 0.10552545
0000d0 7e 32 fe bb 72 93 e8 bd 70 18 a7 bd 5e 46 d7 3d
       -0.007757484 -0.11356248 -0.08158958 0.10511468
0000e0 a4 b4 60 3c 29 e8 c6 3d 1d f2 d9 3d 26 09 82 3d
       0.013714943 0.0971225 0.106418826 0.06349401
0000f0 5c 22 d9 3d 78 4e f9 3b 38 29 c3 3d 86 07 f7 bb
       0.10602257 0.007608231 0.09529346 -0.0075387387
000100 b6 4a 50 3e a0 9c c7 3e 7b b2 97 3e fe 1c a7 3e
       0.20341 0.38986683 0.29628357 0.32639307
000110 89 ed 75 3e 29 71 5c 3e cd 72 ec 3c d7 6c 82 3e
       0.24016394 0.21527542 0.028863335 0.25473663
000120 70 67 e4 bd e0 1f 1a 3d 91 33 8e bd cf a8 06 3e
       -0.11152542 0.037628055 -0.06943429 0.13150333
000130 fe 4b 57 3e 58 52 b2 bd 30 eb 87 3e 7a 0b 27 3e
       0.21025082 -0.08707112 0.2654662 0.16312972
000140 49 86 2b 3e 2f 45 18 3e a1 af 03 3e cb 44 8b bc
       0.16750444 0.14870141 0.12859966 -0.017000576
000150 5b 9b 72 3e 41 a3 ba 3e c5 5c b1 3e d5 c9 5d 3e
       0.23692076 0.36452678 0.3464109 0.21659024
000160 85 4c b9 3e 5c 5e e1 3d 49 ab 35 3c c5 bf cd 3c
       0.36191192 0.11004326 0.011088201 0.025115857
000170 b4 fe 94 3e 62 b5 a6 3d e1 d5 37 3e c6 58 4f 3e
       0.29100573 0.08140065 0.17952682 0.20248708
000180 7d da a2 3e 7c f4 a0 3e 1e 35 93 3e 74 a4 0f 3e
       0.31807318 0.31436527 0.28751463 0.14027578
000190 d4 06 f3 3c 94 18 43 3d 97 8e bf 3e 7d c9 31 3e
       0.029666342 0.04763086 0.37413475 0.17362018
0001a0 c8 a5 bf 3e 76 fc 33 3e b9 e1 94 3e c3 f1 b8 3e
       0.3743117 0.17576775 0.29078463 0.3612195
0001b0 69 eb 5c 3e 8c c3 f0 bd 89 7a 50 3e f6 f9 70 3e
       0.21574177 -0.117560476 0.20359243 0.23532853
0001c0 c8 f4 65 3e 3e 94 af 3e 90 3c 07 bd 78 66 b1 3d
       0.22456658 0.34292787 -0.03301674 0.086621225
0001d0 16 c4 61 3e c3 1b 38 3e 96 bd b9 3e bc ef a2 3e
       0.22047457 0.1797934 0.36277455 0.31823528
0001e0 81 21 8f 3e f5 2b 98 3e 0b 5b a4 bc 72 d7 6e 3d
       0.2795525 0.29721037 -0.020062944 0.058310933
0001f0 bc f5 7e 3e f8 ee 99 3e 60 11 8f 3e c7 d0 c2 3e
       0.24898428 0.3006513 0.27942944 0.3804991
000200 43 3a e0 bd 52 ab f8 3c d6 0b b2 3d 50 d0 74 3d
       -0.109486125 0.03035513 0.08693664 0.059768975
000210 5e d0 9d bd 92 a1 35 bc d0 ea 8e bc 19 be 49 3d
       -0.077057585 -0.011085885 -0.017445952 0.049253557
000220 50 6d 62 3c da af a7 bd e7 b7 6c 3c f2 5c 81 3c
       0.013820007 -0.08187838 0.014448143 0.01579139
000230 ec ae 5c bd a8 f4 e3 bd 40 3d d6 bb 0e 91 f6 3d
       -0.053877756 -0.11130649 -0.0065380633 0.12039386
000240 0f 1b 69 3d 4a e7 d0 3d 1e 4a fe 3d 34 f7 14 3d
       0.05691057 0.10200365 0.124164805 0.036368564
000250 99 c8 f1 3b 18 17 f4 bc f0 8d c2 bd 0d b9 ec bd
       0.0073786494 -0.029796168 -0.09499729 -0.11558733
000260 3b 5d f9 3c c8 ac 7b 3d b0 16 a7 3d 20 f3 51 3c
       0.030439964 0.061444074 0.08158624 0.012814313
000270 59 1e 69 bd f0 17 1b 3c 73 75 fa bd 11 d8 79 bd
       -0.056913707 0.009466156 -0.12229433 -0.060997073
000280 78 83 57 3d 6f b6 fc bd 14 81 ee 3d 80 be 47 bb
       0.052615613 -0.12339484 0.116457134 -0.0030478537
000290 f1 dc ab bd b0 7f 84 3d 73 50 c6 bd fb 52 e9 bc
       -0.083917506 0.06469667 -0.09683313 -0.028481951
0002a0 ef 13 e6 3d 68 c5 4c bd c0 e1 19 3c c2 e4 a4 bc
       0.11234271 -0.04999295 0.009392202 -0.020128611
0002b0 bf 51 b3 3d 2e 92 00 3d 4a 98 ff 3d ba f1 b5 bd
       0.08755826 0.031389408 0.12480219 -0.08883996
0002c0 3f 9a 44 3d fc ce 20 bd d8 b2 2f 3d 60 96 12 3d
       0.047998663 -0.039259896 0.042895168 0.03578794
0002d0 c5 9a 9c 3d 56 ca 0b bd d8 5f b5 bd 30 82 3e bd
       0.076467074 -0.03412851 -0.08856171 -0.046510875
0002e0 e0 12 5b 3c 8e 18 c0 bd 1a aa fd bd a2 95 89 bd
       0.013371199 -0.093796834 -0.1238596 -0.06717993
0002f0 ae 3c dc bc 00 b4 ad 3d ff 2c 0d bd dd ff d1 bd
       -0.026884403 0.08481598 -0.03446674 -0.1025388
000300 20 df ad 3d 0a 4b b2 bd f9 ce db bb 6b cc c1 bd
       0.08489823 -0.08705719 -0.0067080227 -0.09462818
000310 fc 2b bf bb cc 05 bc 3c 3a 4a b4 bd 92 0a 0a bc
       -0.005834101 0.022951983 -0.0880322 -0.008425372
000320 6d 19 e5 3d 06 71 bb 3d 2e f5 e2 3d 47 38 b0 bc
       0.1118649 0.09152417 0.110819206 -0.02151121
000330 f6 37 f4 3c 60 b7 06 bd 03 dd 8e 3d 15 a4 31 bd
       0.02981184 -0.032889724 0.069757484 -0.04336937
000340 b6 70 78 bd ce 21 ab bd 4e b3 6e bc 6d 0e d7 3d
       -0.060654365 -0.08356057 -0.014569117 0.105007984
000350 f1 f8 15 bd 51 d9 bf 3d 71 63 7a 3d 7b 60 ce bc
       -0.036614362 0.09367622 0.06112999 -0.02519249
000360 43 82 2a 3d 87 39 01 be 65 31 aa bd cb 42 cf bc
       0.041628134 -0.12619601 -0.083102025 -0.025300404
000370 0f 7c 89 3d d8 52 cf bd 34 8a b6 bd d4 30 3d bd
       0.067131154 -0.10123223 -0.08913079 -0.046189144
000380 51 39 c8 bc e2 34 e6 bd 64 49 26 bd 7a 01 16 3c
       -0.024441393 -0.11240555 -0.040597335 0.0091556255
000390 d0 3f 62 3d 2e c3 0f bc 99 e4 b2 3d cc 38 92 3d
       0.055236638 -0.008774562 0.08735008 0.071397394
0003a0 ec 76 c9 bd 67 90 28 3d 09 ee 03 be 1e 4a 96 bd
       -0.09837136 0.041153338 -0.12883772 -0.073383555
0003b0 25 23 e0 3c ec b5 e2 3c c0 c6 72 3d a7 2c bb bd
       0.027360508 0.027674638 0.059271574 -0.09139376
0003c0 f8 31 66 3d 73 3b 9a bd 28 ae ff 3d 43 29 d4 3d
       0.056199998 -0.0753087 0.124843895 0.103594325
0003d0 da be b5 bd c0 94 b9 3d bf 8c db bc a6 fe 9e 3c
       -0.08874293 0.09061575 -0.026800511 0.019408535
0003e0 7f 5c 23 bd e5 26 ba 3d 51 70 c2 3c e2 d0 c9 3d
       -0.039883133 0.0908945 0.023735197 0.09854294
0003f0 0e 12 59 bc 59 bf 61 3d 56 28 bf bd fd 9a df 3b
       -0.0132489335 0.055114124 -0.09333865 0.006823896

2.bias f4 [64]
000000 ae f5 54 bd ce 0a a2 3e a3 5d d6 bc 75 33 62 3d
       -0.05199211 0.31648868 -0.026167696 0.055224854
000010 0c 8d 55 3d 3f 38 61 3d 64 3e f3 bd b0 b2 5d 3b
       0.052136466 0.05498528 -0.118771344 0.003382843
000020 a3 e6 d0 3d c8 93 a0 bd 98 1d dd bd 24 3c de 3d
       0.102002405 -0.07840687 -0.1079666 0.10851315
000030 e5 8f bc 3d 10 71 6e bc 63 ea 91 3e 62 4d 13 3d
       0.09207133 -0.014553323 0.28499135 0.03596247
000040 1c ac cc 3d 4d b0 4d bc 04 37 26 bd 5d 93 71 3e
       0.09993765 -0.01255424 -0.04057981 0.23591371
000050 7e 56 06 be e8 ac c4 3d be 39 85 bd 87 78 8b 3e
       -0.13118932 0.09603292 -0.06505154 0.27240393
000060 aa 40 52 3d b4 81 c2 bd a1 67 f9 bc 81 92 98 bb
       0.0513312 -0.09497395 -0.030444922 -0.0046561365
000070 8b 7b 72 3d c0 2a 32 3e 67 19 6b bd 07 85 82 bd
       0.05919985 0.1739912 -0.057397272 -0.06373029
000080 47 50 c7 3c 08 51 b3 bc 08 2e ef bd ee b7 ba bd
       0.024330271 -0.021889225 -0.11678702 -0.09117113
000090 3a 93 76 3e 06 bb b4 3e 99 94 af 3c 25 f5 6e bd
       0.240796 0.35298938 0.021433162 -0.058339257
0000a0 42 09 d0 3e 04 bc 38 bd 42 d3 01 3d fa 08 89 bd
       0.40632063 -0.04510118 0.03169561 -0.06691165
0000b0 13 6a 4d 3d 83 c1 e3 bd 44 d8 f9 bd 9c 3b a8 bb
       0.05014999 -0.11120894 -0.121994525 -0.005134059
0000c0 aa c7 d9 bd 58 cd ba 3c ee ad e5 3d 0d 95 65 3d
       -0.10633786 0.022802994 0.11214815 0.05605035
0000d0 3a 18 f2 bd 4c 0a 2a 3d cb d8 64 bd 50 00 cf 3e
       -0.11821027 0.041513726 -0.055870812 0.40429926
0000e0 e0 d8 34 3d bc 13 29 bd bc 4d 05 bd c8 b0 da bc
       0.04415214 -0.041278586 -0.032544836 -0.026695624
0000f0 5f f6 61 3e cf 65 7f 3e 00 10 66 bc 72 a5 23 3d
       0.2206664 0.2494118 -0.014041901 0.039952703

4.weight f4 [4, 64]
000000 34 f2 0a 3d 83 7f f5 bd 80 51 da ba b0 78 1a 3d
       0.03392239 -0.119872116 -0.0016656369 0.037712753
000010 79 93 8c 3c fe 79 f9 bd 48 4b 2d 3d 10 c1 d0 bd
       0.017160164 -0.12181471 0.042308122 -0.10193074
000020 e6 7c 15 3b a2 87 cb 3d 3e 18 c3 bc 16 2b ac 3d
       0.002281004 0.09937979 -0.02381527 0.084066555
000030 d6 a4 9c 3d f4 b2 b5 3d 02 40 37 be 3b f6 ba 3d
       0.076486275 0.08872023 -0.17895511 0.09128996
000040 a0 c7 dd 3b b3 5e a2 bc c8 15 dd bd 66 17 b8 bd
       0.006768182 -0.019820547 -0.1079517 -0.08988838
000050 00 40 aa 3d 8d e9 c9 bd 5e 85 01 bd e7 d0 49 be
       0.08312988 -0.098589994 -0.03162133 -0.19708596
000060 33 f7 4f 3d e6 61 13 bd 00 ba 92 b9 4d 69 d4 bd
       0.050772857 -0.035982035 -0.0002798587 -0.10371647
000070 f8 7e ad bc 05 f6 e1 bd 95 4e 96 3d 3c 64 af 3c
       -0.021178707 -0.110332526 0.07339207 0.0214101
000080 b1 2f c4 3d ee 13 f4 3d 60 ec ca bb a6 ee f4 bd
       0.09579409 0.11917864 -0.006192729 -0.11959581
000090 2e 1b 38 3d 6c 53 3d be 74 9e dc 3d 49 12 d3 bd
       0.044947796 -0.18488854 0.1077241 -0.10306222
0000a0 93 f2 d9 bd 48 c5 37 3d e9 9c 46 3d 30 cd 3c 3d
       -0.106419705 0.044865876 0.048489485 0.04609412
0000b0 bb bf 17 3d 9a 89 29 3c 38 da 15 3d ee 70 a1 bc
       0.037048083 0.010347748 0.036585063 -0.01970717
0000c0 22 ae 3d bd de 24 9e 3d b6 8a 14 bd 2e 26 89 3c
       -0.046308644 0.077218756 -0.036265098 0.016741838
0000d0 a0 23 c5 3d a9 58 7d 3d 52 34 d4 3d 52 13 16 be
       0.096259356 0.06185213 0.10361542 -0.14655808
0000e0 80 71 d5 3c a8 63 bf bd 1e e0 f6 bd e4 42 36 bd
       0.026055098 -0.0934518 -0.12054466 -0.044497386
0000f0 ac 91 09 be 1f f5 9b bd 6c c7 08 bd d5 30 11 be
       -0.13434476 -0.076151125 -0.03339331 -0.14178784
000100 57 24 fc bb 01 4f 86 bd 88 4a 4a bc c8 ae cd 3c
       -0.0076947617 -0.065580375 -0.012346871 0.025107756
000110 7d 20 8e bd 28 84 45 3c 0e b5 ae 3d 12 b7 c2 3d
       -0.069397904 0.012055434 0.08530627 0.09507574
000120 e1 3c 85 3d b0 15 35 3b c0 73 fc 3d f8 1b 1a bd
       0.06505752 0.0027631335 0.12326765 -0.03762433
000130 b2 bf 44 3c e8 e3 a6 bd 0d ca 3b be e6 e7 9b bc
       0.012008594 -0.081489384 -0.18338795 -0.019031476
000140 b1 78 4b 3d c8 af 84 ba da 18 e0 3d c4 cc 76 bd
       0.049675647 -0.0010123188 0.1094224 -0.060253873
000150 a4 63 18 3d d5 a9 34 3d 34 03 ca bc 83 ea 2c 3d
       0.0372044 0.044107277 -0.02465973 0.042215835
000160 da db 20 bd 5a 80 c0 3d 2b 94 75 bd b8 88 78 bc
       -0.039272167 0.09399481 -0.059955757 -0.015169315
000170 e0 b3 52 bd a1 a6 1c be e6 34 dd 3d 5b fd d7 bd
       -0.051441073 -0.15297939 0.10801105 -0.105463706
000180 c8 09 b0 3d e0 b4 c3 bb 28 31 91 bd 3f 08 9e bd
       0.085956156 -0.0059724897 -0.07089454 -0.077164166
000190 ad 88 34 be d5 d6 45 be 00 48 4a 3d c0 0c cf 39
       -0.17630263 -0.19320233 0.04938507 0.00039491616
0001a0 74 24 3a be 44 32 76 bd 78 e7 cf bc 30 ef df 3c
       -0.18177968 -0.06010653 -0.025378928 0.027335733
0001b0 00 01 dc bc 7d eb 2c 3d c6 16 df bd 16 06 a1 3d
       -0.026855946 0.042216767 -0.108930156 0.07862489
0001c0 35 84 b8 3d e6 a3 1f 3c b2 fc d1 bd 8d 5a 8a 3d
       0.090095915 0.009743666 -0.10253276 0.067555524
0001d0 34 ff 84 bd e0 c5 5f bd 69 ae 5e 3d 0a 81 c8 bd
       -0.06493989 -0.054632068 0.05436555 -0.09790237
0001e0 fe 66 d3 3d 5f fb ce 3d 10 1e 82 bd 4a db fe bd
       0.103223786 0.10106539 -0.0635339 -0.1244417
0001f0 9c f7 2a be a8 89 e5 bd f9 79 a7 bd a5 55 8e 3d
       -0.16696018 -0.112078965 -0.08177561 0.06949929
000200 4e 17 d3 bd f2 98 12 be 38 d5 c8 bc 7e 79 84 3d
       -0.103071794 -0.14316157 -0.024515733 0.06468485
000210 bc 1e 50 3d f8 b4 8a 3d 8c 5a 46 3d 1c ba be 39
       0.05081056 0.06772798 0.048426196 0.00036378286
000220 5b 00 d9 bc 6d fe 9c bd 80 4c ca 3d ee 2d 13 be
       -0.026489427 -0.07665715 0.098778725 -0.1437299
000230 fa e2 3b 3b 78 18 21 3d 81 2f 25 be e6 e3 80 3d
       0.0028669224 0.039329976 -0.16131403 0.06293468
000240 9e 30 df 3d f9 1e 95 3d 54 fe 2d bd 66 f5 10 3c
       0.10897945 0.07281298 -0.042478874 0.00884757
000250 c1 f0 66 bc 69 99 21 be d0 81 3f 3d d2 00 13 be
       -0.014095486 -0.15781178 0.04675466 -0.14355782
000260 aa 26 e0 3d 02 cf 83 bd 24 ec ce bd 12 6c b4 3c
       0.109448746 -0.06435968 -0.10103634 0.022024188
000270 fa 77 f0 bd 62 9e e4 bd 32 65 85 bd 55 7a 8a 3c
       -0.11741634 -0.111630216 -0.06513442 0.016904036
000280 27 a2 bb bd ee 62 d1 3d 24 41 a6 bd c6 ed c7 3d
       -0.091617875 0.102239475 -0.08117893 0.097621486
000290 81 07 cf bd ea 96 19 be 0a 98 d9 bd b3 7a fb bc
       -0.10108853 -0.14998975 -0.10624702 -0.030698156
0002a0 bc 81 95 bd 4c 16 e5 3d ca 7e cb bd 04 8e 89 3d
       -0.073001355 0.111858934 -0.099362925 0.067165405
0002b0 ef 9d ed 3d c4 50 02 be 9a ff d3 bd 3f 35 8c 3d
       0.11602389 -0.12726122 -0.103514865 0.068460934
0002c0 b1 6f 1a 3d 17 03 fb 3d ec 55 28 3d a3 78 ab 3d
       0.037704173 0.12256449 0.041097566 0.08372619
0002d0 4a 21 f1 3d 59 c1 9d 3d 4e ae ae 3c c3 7e 44 be
       0.117739275 0.07702894 0.02132335 -0.19188981
0002e0 a0 d8 1d bc b5 f4 2f 3c c0 1e 02 3b b0 28 7d bc
       -0.009634167 0.010739495 0.0019854754 -0.015451595
0002f0 9c 71 16 be 62 9c e7 bb 15 06 a4 3d 30 67 8d 3d
       -0.14691776 -0.007068203 0.080089726 0.06904447
000300 0e b6 e3 3c 8a f5 fa bd 0c 32 6a 3d 8d cb 2d 3d
       0.027796771 -0.12253864 0.057176635 0.04243045
000310 48 16 71 3d 82 c4 0e 3d 60 60 d9 bd 92 bf 9a bc
       0.05885914 0.034855373 -0.10614085 -0.018890176
000320 78 27 68 3d a3 61 8e 3d 4f b9 c6 3d d5 34 bb 3d
       0.056678265 0.069522165 0.097033136 0.09140936
000330 f9 d1 5f bc 28 3a d6 bd d7 bb e5 bd 4f b0 eb 3d
       -0.013660901 -0.10460311 -0.11217468 0.115082376
000340 6c a0 2a 3d 89 8c ec 3d 68 67 f7 3d 7c df 19 be
       0.041656896 0.115502425 0.1208027 -0.15026659
000350 ca 74 6f 3a 43 95 30 be 20 1e d7 3b 32 bf d8 bd
       0.00091345294 -0.17244439 0.0065648705 -0.105833426
000360 42 8a 9f 3d 3b 78 19 3d a4 de 0c 3d fa 08 1b be
       0.077900425 0.037468176 0.034392014 -0.15140143
000370 c7 c8 ef bc 19 f8 6c bd cc ad 23 bd 8d 91 db bd
       -0.029270543 -0.057853792 -0.039960667 -0.10721121
000380 70 b6 d2 3d 2e e6 e9 3d 28 0d be bd c1 44 95 3d
       0.102887034 0.114208564 -0.09279853 0.072885044
000390 83 4d a2 bd bc 42 a9 bd f7 24 82 3d 69 9c bf 3b
       -0.079249404 -0.08264682 0.06354707 0.005847503
0003a0 66 67 c7 bd 72 41 db 3d ca e5 ca bd e5 c4 aa 3d
       -0.097365186 0.10705842 -0.0990711 0.08338336
0003b0 34 77 a5 3c 07 16 71 3d f8 92 31 bd d3 85 8f 3d
       0.020198442 0.058858898 -0.04335305 0.07007947
0003c0 18 64 9e 3c d6 41 c7 bd 54 6c 22 be a4 0d 92 3d
       0.019334838 -0.09729354 -0.15861636 0.07131508
0003d0 8e 37 90 3d 53 7e e8 bc 61 ac 06 bc 40 3c 46 be
       0.07041846 -0.028380549 -0.008219809 -0.19358921
0003e0 80 ba 25 3d 66 6c 50 3c 00 8e 3d 3d 88 4b cb bc
       0.040461063 0.012721157 0.046278 -0.02481629
0003f0 68 c8 31 bd 4d ed d7 bd fd ce 43 3b 16 20 76 3d
       -0.043404013 -0.105433084 0.0029878013 0.060089193

4.bias f4 [4]
000000 eb 7f 6e bd 0c 8c d5 bd c4 5e ac bd d0 4c 0e be
       -0.05822746 -0.104271024 -0.084165126 -0.13896489
