Submit/trained_model.pth (torch, 36996 bytes, 6 tensors)

0.weight f4 [64, 64]
000000 50 62 f4 3d c0 1f 24 3c c7 e8 bc bd c0 8f e3 bc
       0.11932814 0.010017335 -0.09224086 -0.027778506
000010 96 32 82 bd d5 61 fa 3d 18 1f e8 3c 99 f4 b2 3d
       -0.06357305 0.12225691 0.02833514 0.087380596
000020 b8 a7 de bc 0c 40 81 bd b2 7b 98 bd 20 3e f9 3c
       -0.027179584 -0.06311044 -0.07445468 0.030425131
000030 73 a9 d5 3d a8 4f c5 bd fa 5e bf bd 6b 53 2d 3d
       0.104327105 -0.09634334 -0.09344287 0.04231588
000040 58 2f c9 bc 2c 62 06 3d 62 88 dd bd 10 53 2a 3d
       -0.024558708 0.032808468 -0.108170286 0.04158312
000050 08 f0 8d bd 96 d5 f8 bd 8b 3e 96 3d c0 ef 17 3b
       -0.06930548 -0.12150113 0.07336148 0.0023183674
000060 d4 b2 ed bd 48 10 ad 3d f2 27 d9 bd 30 19 60 bc
       -0.116063744 0.08450371 -0.10603322 -0.01367788
000070 80 8a a2 3a 58 cf 32 bd 00 4d eb bb f4 c0 e2 3d
       0.0012400895 -0.04365477 -0.00718081 0.11071959
000080 f8 e1 b2 3c 4e cb d9 bd f8 fd eb bc 8c fa 28 bd
       0.021836266 -0.106344804 -0.028807625 -0.041254565
000090 40 21 75 bc 40 a1 3b bb 04 f6 10 bd aa e7 cd bd
       -0.014961541 -0.0028630048 -0.03539087 -0.10053952
0000a0 88 71 9e 3d a0 d2 87 bc 68 28 88 3d 7a af fa 3d
       0.07736498 -0.016579926 0.06648332 0.12240501
0000b0 e4 c6 8f bd 5c a0 bd 3d 02 7e cb bd 9d 9e 8e 3d
       -0.07020357 0.09259102 -0.099361435 0.06963847
0000c0 54 64 26 bd 28 91 8e 3d 9e 5d f8 bd 1c d1 7b 3d
       -0.040623024 0.0696128 -0.12127231 0.06147872
0000d0 64 56 bc 3d f5 b3 e3 bd 0c d0 99 bd 50 5e 42 bc
       0.09196165 -0.111183085 -0.07510385 -0.011863306
0000e0 0c 8e 57 3d 80 7c 60 bb dc ee 2b 3d ba 48 f7 3d
       0.0526257 -0.0034253895 0.04197584 0.12074418
0000f0 48 cf 24 3d 00 c0 0e b7 d0 ef 8a bd 1d fa d9 3d
       0.04023674 -8.508563e-06 -0.06784022 0.106434084
000100 f6 07 fb bd 14 41 7e bd 7d 97 81 3d 88 0a 63 bd
       -0.12257378 -0.062073782 0.06327722 -0.055429965
000110 d4 97 7e bd 1b 61 fe 3d 1c ad 23 3d a0 3d e2 3b
       -0.062156513 0.12420865 0.03996001 0.006904319
000120 6e be e5 3d fc 08 d2 3d 8c 64 24 3d 54 11 de 3d
       0.11217962 0.1025562 0.04013495 0.10843149
000130 d6 0f 8a 3d c6 22 cb bd 68 de 99 bd 48 7d da 3c
       0.06741302 -0.09918742 -0.07513124 0.026671067
000140 54 c0 3c bd f4 a5 5b 3d c4 c7 ff bd 54 7a ca 3d
       -0.046081856 0.053625062 -0.12489274 0.098866135
000150 8c 24 95 3d 52 01 d2 3d 6c 6a 7f bd 28 82 c8 bc
       0.072823614 0.10254158 -0.06235735 -0.024476126
000160 50 86 5d bd 7a d1 f8 bd 28 9c bc bd 80 c9 e6 3a
       -0.05408317 -0.121493295 -0.09209472 0.0017607659
000170 60 78 98 3b 4d 08 85 3d 58 50 a5 bd bf 24 fd 3d
       0.0046530217 0.06495724 -0.08071965 0.123605244
000180 80 43 36 3d b4 a3 21 bd a0 7a b4 bc 78 01 b7 bc
       0.044497967 -0.03946276 -0.022031128 -0.022339568
000190 10 35 ef bd ce a7 88 bd fe 17 9e bd 20 fa 9c 3b
       -0.11680043 -0.06672631 -0.0771942 0.0047905594
0001a0 60 48 1a 3d 7e b2 ab 3d 14 2f 03 3d b2 4a d5 3d
       0.03766668 0.08383654 0.03202732 0.104146376
0001b0 e8 97 f9 bc 98 94 a2 bc 80 78 b4 ba 18 82 e3 bd
       -0.030467942 -0.019846246 -0.0013768822 -0.11108798
0001c0 00 38 ed b9 00 2f e1 3a 90 42 ca 3c e8 20 0b 3d
       -0.00045245886 0.0017180145 0.024689943 0.03396693
0001d0 40 60 62 3b 46 b3 ae bc 2a 6e ae 3d 12 a2 89 bd
       0.0034542233 -0.021325719 0.08517106 -0.067203656
0001e0 9a f4 e1 bd cc b5 0d bd 86 ec d0 3d 62 63 c3 3d
       -0.11032982 -0.034597203 0.10201363 0.0954044
0001f0 70 91 34 3d 28 23 53 bd cc 52 00 bd 23 f8 8c bc
       0.044084013 -0.0515472 -0.03132896 -0.017208165
000200 ab 81 cb 3d 78 0b d9 bd c2 78 37 3d 68 cf 13 bd
       0.099368416 -0.105978906 0.044792898 -0.03608647
000210 30 c7 90 bd 2d d5 eb 3d d5 c0 ee 3c 51 81 f3 3a
       -0.07069242 0.115152694 0.029144684 0.0018577968
000220 c2 74 af bd 9a ed f6 3d 60 c6 9f 3d 30 a0 e3 bd
       -0.08567192 0.12057038 0.07801509 -0.11114538
000230 28 e1 e9 bd 9a 4e f4 bd ec a6 d3 3d 94 4a f6 3d
       -0.11419898 -0.119290546 0.10334572 0.120259434
000240 70 61 fe 3c 2c 4a 5c 3d d0 fe df 3d 2a 61 b5 3d
       0.031052321 0.053781673 0.109372735 0.08856423
000250 9c 87 80 bd 6e 69 8e bd 6e ba 3d 3d 40 47 ce 3d
       -0.062758654 -0.06953703 0.04632037 0.100721836
000260 9c 79 8d bd c4 4c e9 3d 28 70 e2 3c 08 a9 de bd
       -0.06907961 0.11391595 0.02764137 -0.10872084
000270 ae e2 ea bd 68 f2 2c bd 28 4d 06 3b 61 88 b0 3d
       -0.11469017 -0.042223364 0.0020492766 0.08619762
000280 b6 45 8e 3d 88 47 5f bd 18 1e 07 bd 08 5f d7 bc
       0.0694689 -0.054511577 -0.032987684 -0.026290432
000290 30 c1 10 bc c0 8d 25 bd 20 11 2a bd ef 8a c0 3b
       -0.008835122 -0.040418386 -0.041520238 0.005875937
0002a0 9c 7b 96 3d 04 78 7a bd 66 fc a4 3d 20 0b b4 3b
       0.07347795 -0.061149612 0.08055954 0.0054944903
0002b0 14 3a 5e 3d 72 23 9c bd 8e a6 a2 3d 00 c4 a8 bb
       0.054254606 -0.07623948 0.07941924 -0.005150318
0002c0 ce f9 f9 3d ee ad b1 bd 4e c7 a1 3d 30 0d 5b bc
       0.122058496 -0.086757526 0.078993425 -0.013369843
0002d0 40 5e 58 bb 8b b0 94 3d 20 78 f7 bd 90 7a 1c 3c
       -0.0033015162 0.072602354 -0.12083459 0.009550706
0002e0 68 cb 71 bd ec 38 3d bd d8 d1 d9 3c 58 b9 ad bc
       -0.059031874 -0.046196863 0.02658932 -0.021206543
0002f0 fa 63 b4 bd 10 45 68 3c 9c e7 fc bd 27 5e eb bd
       -0.088081315 0.014176622 -0.123488635 -0.114925675
000300 70 cb ff bd ac 12 a6 bd 23 5d c3 3d 48 c6 d0 bc
       -0.124899745 -0.0810903 0.09539249 -0.025485173
000310 ba 14 d6 bd 03 1f 85 bc 0b 1d 85 3d eb b5 2a 3c
       -0.10453172 -0.01625014 0.0649968 0.010419349
000320 b0 18 3c 3d 6b cd a5 3d f6 f4 a4 bd b8 6b df bd
       0.04592198 0.08095821 -0.08054535 -0.109092176
000330 f8 54 e8 bc 27 ca 21 3d 3c a1 c9 bd 20 7c b8 3c
       -0.028360829 0.039499428 -0.09845206 0.022520125
000340 ce 4a f9 bd 4c 58 2c bd 88 42 c0 bd e0 b9 04 3d
       -0.12172471 -0.042076394 -0.0938769 0.032403827
000350 6a a7 b0 bd 62 20 e7 bd 2e 80 31 3d eb 12 f2 3d
       -0.08625682 -0.112854734 0.043335132 0.118200146
000360 10 b1 68 3c de 8c 9b bd 18 4f d2 bc 62 1a ac bd
       0.014202371 -0.07595228 -0.02567248 -0.084034696
000370 64 1b fb bd d8 5e 09 bd ee 53 c0 bd 35 a0 b2 3d
       -0.12261084 -0.033537716 -0.09391008 0.08721963
000380 3c e6 c7 3d 60 49 08 3d f0 99 7c 3c 8e a2 f0 bd
       0.097607106 0.0332731 0.015417561 -0.11749755
000390 21 d7 c9 3c 7c fb 0c 3d cc 20 c4 bd d8 77 e1 bb
       0.024638714 0.03441952 -0.09576568 -0.0068807416
0003a0 b0 01 7e 3d 80 8a b8 3a 10 c2 79 3d 60 0c 33 3c
       0.062013328 0.0014079362 0.060976088 0.010928243
0003b0 20 af 41 3d 34 58 f1 bd 80 86 0a 3b ce 84 c0 bd
       0.047286153 -0.117844015 0.0021137297 -0.094003305
0003c0 fc 4a 62 bd f0 43 a2 3d 6e a1 a5 3d 38 63 bb 3d
       -0.055247292 0.07923114 0.08087431 0.09149784
0003d0 f8 0b 3f 3d cd 84 a8 3d c0 13 c5 bc 20 5b 58 3d
       0.046642274 0.08228455 -0.02405727 0.05282128
0003e0 e0 4f 72 bd 08 8e 9a 3c 58 ef ff 3c 1c be c4 3d
       -0.059158206 0.018866554 0.031242058 0.09606573
0003f0 76 8c aa bd e6 a6 98 bd a0 0f b1 bb 53 c6 38 bd
       -0.08327572 -0.07453708 -0.005403474 -0.04511101

0.bias f4 [64]
000000 23 a1 f3 bd 15 e9 fd bd 15 a5 fa 3d 9f 24 0b bd
       -0.11895969 -0.123979725 0.12238518 -0.03397047
000010 6e 63 8f bd 1c 96 5b 3c b8 d0 bb 3c c5 bd f6 3d
       -0.070013866 0.013402488 0.022926673 0.120479144
000020 e7 90 b5 3d e7 9b 3f 3d 9c 67 5e 3c 8e a2 8c 3c
       0.088655286 0.04677954 0.013574507 0.017167356
000030 9d 5a ae 3c 7d 4d ff 3d 34 94 fe 3b e3 af 01 3d
       0.021283442 0.124659516 0.007769132 0.03166188
000040 36 53 34 3d 4e 57 de bd 4f 12 c6 bc d5 8a be bc
       0.04402467 -0.10856496 -0.024178652 -0.02325956
000050 44 d0 98 bc a4 69 5d ba d2 90 e8 bd 7a a2 5d bc
       -0.018653996 -0.00084462226 -0.11355747 -0.013527507
000060 dc 38 84 3c bf b9 e9 3d ab a3 bf 3d 6e 68 a7 3c
       0.016140394 0.114123814 0.09357389 0.020435538
000070 0b 5a 94 3d 22 f8 60 bd b5 42 f9 bd 2c bd ec bd
       0.07243737 -0.054924138 -0.121709265 -0.11559519
000080 b1 72 ab bd f9 19 ef bc da c8 9c 3d 0b 57 cc bd
       -0.08371485 -0.02918719 0.07655497 -0.0997754
000090 f8 e4 f1 bd af 9c df 3d 80 7d cc bd b3 be 5e 3d
       -0.118112504 0.10918557 -0.09984875 0.054381084
0000a0 8d 37 76 3d 42 c0 86 bd 18 f3 8d bd 2e 12 ea bd
       0.06011157 -0.06579639 -0.06931132 -0.11429249
0000b0 f6 8c 4e 3d ed 25 ef bb f7 c7 dc 3d ea 67 52 3c
       0.0504274 -0.0072982223 0.10780328 0.012842158
0000c0 2f 7b 84 bd c3 7c a3 bc e3 b0 f0 3d 1f a3 b5 bd
       -0.06468808 -0.019956952 0.117524885 -0.088690035
0000d0 2c bd 82 bd bf ee 9c 3d b1 14 a9 bd db fd c6 3c
       -0.06383738 0.07662725 -0.082559 0.02429097
0000e0 51 92 f2 3d 31 43 86 3d 19 6b c6 3d 49 04 78 3d
       0.11844314 0.065557845 0.09688396 0.06055096
0000f0 35 44 b5 bd dd db 62 bd 06 be c9 3d 1d c9 82 3d
       -0.088509 -0.05538546 0.09850697 0.063860156

2.weight f4 [64, 64]
000000 2c 57 db 3d e9 02 0d 3d 99 cc 72 3d ad 76 0e 3c
       0.10709986 0.034426603 0.05927715 0.008695287
000010 14 f4 d6 bd 15 d4 96 3a 19 5c 09 3d b3 3a a3 3a
       -0.10495773 0.0011507297 0.033535097 0.0012453407
000020 2d 19 88 bc 6b 4b 2e bd d9 ea 99 bd bd 89 c3 3c
       -0.016613567 -0.042552393 -0.07515497 0.02386939
000030 bb e7 99 3d e2 c6 11 bc d1 6e ce ba 15 5a ac 3d
       0.07514902 -0.008897515 -0.0015749579 0.08415619
000040 8c 73 19 3c 68 00 0e 3d 44 5e 12 3d 01 5d f6 3d
       0.009365927 0.034668356 0.03573443 0.12029458
000050 40 5e 39 bc b3 ba 6a 3d f7 f6 e1 bd 99 0f ba bd
       -0.011313975 0.057306956 -0.11033433 -0.09085006
000060 5d 2c e4 bd 56 5d a8 bd 37 8e 97 bd 9f fc 81 bd
       -0.11141274 -0.082209274 -0.07400172 -0.06347012
000070 10 42 d6 bb 05 7b b2 3d a1 96 c7 bd 0a fa 24 3d
       -0.006538637 0.0871487 -0.09745527 0.04027752
000080 42 1c 97 3d 2c 21 36 3c 74 f4 e3 bd 5e 0d 61 bd
       0.073784366 0.011116307 -0.1113061 -0.05494439
000090 c8 bb 56 bd 3d ab b2 3d 5c 2c fc bc cc 50 85 bd
       -0.052425176 0.08724067 -0.030782871 -0.065095514
0000a0 74 87 a5 3c 4d 62 c8 3c 85 ea ea 3c e1 49 eb bd
       0.02020619 0.024460936 0.02867628 -0.11488701
0000b0 d4 99 e7 3c f8 c6 00 be 17 c8 d7 bd 58 df 40 bc
       0.028271593 -0.125759 -0.10536211 -0.011771999
0000c0 e1 3b d2 bd 1c 5a 9f bc 59 5c c3 bd df ab a0 3d
       -0.10265327 -0.019452147 -0.09539098 0.07845282
0000d0 10 96 33 3c bd cc af bc e7 d7 ea bd 41 d1 8a 3c
       0.010961071 -0.021459932 -0.11466961 0.016945483
0000e0 14 89 90 3d 40 28 b2 bc 66 74 9a 3d c1 72 65 bc
       0.070573956 -0.021747708 0.075417325 -0.01400441
0000f0 62 2f 16 3d ab a2 d9 3c c0 f2 a6 3d c5 0a ef 3d
       0.03666628 0.026566824 0.0815177 0.11671976
000100 6a 48 5b bd b1 2c c0 3d 69 ec 3f 3c 83 16 4a bd
       -0.053535856 0.09383524 0.011714079 -0.049337875
000110 39 6e 8a bd 99 45 bb bd 10 02 07 3d a1 78 59 bd
       -0.067593046 -0.09144134 0.03296095 -0.053093556
000120 a0 f3 a1 3d 22 42 56 3d ab 99 76 3d 86 8b 97 3d
       0.07907796 0.052309163 0.060205143 0.07399659
000130 4c 50 d8 3c c5 d1 f4 bd 5d 00 ea bd ad f4 9a bd
       0.026405476 -0.11954073 -0.114258505 -0.075661995
000140 c9 d0 f0 bd a0 e5 3d bc 8a 0a d3 3d c3 5d da 3d
       -0.117585726 -0.011590391 0.103047445 0.10662415
000150 01 1d 39 3c d8 6e 86 3d 82 5f e8 bd 21 e2 10 bd
       0.011298419 0.065641105 -0.11346342 -0.035371903
000160 cd 8f bb 3d 6f 7b e3 bd 70 a7 fa 3d 9c 96 03 bd
       0.09158287 -0.111075275 0.122389674 -0.032126054
000170 21 43 b8 3d 41 36 d3 bc fb 3a c0 bc 57 95 df 3d
       0.08997179 -0.025782706 -0.023465624 0.10917156
000180 96 7e ad bc 42 b1 9e 3d ca d1 9e bc a9 a5 9b 3d
       -0.021178525 0.07748653 -0.019387145 0.075999565
000190 70 6f 79 3c bc 58 7d 3c 80 ff 9e bd 5e 42 34 bd
       0.015224323 0.01546305 -0.077635765 -0.044008605
0001a0 59 8a c7 3d ad 5d a1 3d ec 85 f5 bc 6e d6 75 bd
       0.097431846 0.07879195 -0.029971085 -0.06001895
0001b0 0a dd 51 3c 5e a0 19 bd e7 68 aa bd 53 e6 a8 bd
       0.0128090475 -0.037506454 -0.0832079 -0.08247056
0001c0 68 d0 c1 bc 0e 9a 67 3d 79 2c e6 bd 1e e2 8e 3c
       -0.023658946 0.056543402 -0.11238951 0.017441805
0001d0 4c ac 5f bd 1a 7a ba bd ce 6d d7 3d b5 da 51 3d
       -0.054607674 -0.0910532 0.105189905 0.051233966
0001e0 91 29 a7 3b 7a 8b 44 3c 96 1c a3 3d cb 87 d6 3d
       0.0051013906 0.011996144 0.07964437 0.10475119
0001f0 2e a1 c7 3c 41 6d ea 3d 52 f8 75 3d fa 47 63 3d
       0.024368849 0.1144662 0.06005127 0.055488564
000200 f5 c0 9d bd 8d 89 e7 3d 40 6d 8f bc 91 0b e2 3d
       -0.07702819 0.113055326 -0.01750815 0.11037362
000210 6a e5 f0 bd 4c 65 77 bd d9 44 ce bd 75 5b 98 3d
       -0.11762507 -0.06039934 -0.100717254 0.07439319
000220 03 75 fc bd ef 80 5d bd 4f 34 a1 3d 9a 21 2a 3a
       -0.12327006 -0.05407804 0.07871305 0.00064899924
000230 45 0b ee 3d 21 60 d3 3c 5f 10 ef 3d 9d 34 c9 bd
       0.11623243 0.025802674 0.116730444 -0.09824488
000240 cd b7 ff bd 2c 73 fe 3d 41 19 0b bd aa 7a 0e 3d
       -0.12486229 0.12424311 -0.03395963 0.03478495
000250 c7 c4 b7 bd ed f6 20 bd 7c 31 3f bd 7d 62 8a 3c
       -0.08973079 -0.039297987 -0.04667805 0.016892666
000260 bc 32 ac bd 57 31 91 3d d3 69 40 bd 95 07 30 bd
       -0.08408114 0.07089489 -0.04697592 -0.04297598
000270 ad ea 82 3d 8c ce 85 3d 83 18 80 3d ef 86 f9 bd
       0.06392417 0.06533536 0.06254675 -0.1218394
000280 0c 3e bd 3d 70 5f 43 3c 8c 72 f8 bc 01 c3 4d 3d
       0.0924035 0.01192461 -0.030328058 0.0502348
000290 80 d6 ec bd 6b 3c e5 3d 36 24 98 bc ea f8 e7 3d
       -0.1156435 0.111931644 -0.018571954 0.113267735
0002a0 d4 be d5 bd e7 cf 01 3d cf 35 2c bc d3 63 1b 3d
       -0.10436788 0.03169241 -0.010510876 0.037936997
0002b0 9f 12 fc bd b1 a8 9f bd ea b5 2c bd 0d 23 98 bd
       -0.12308239 -0.07795847 -0.042165674 -0.074285604
0002c0 d9 d1 a8 bd c3 fe 6c 3d 55 72 64 bc 30 1c 81 bd
       -0.0824315 0.057860147 -0.0139432745 -0.063042045
0002d0 de ba d8 bd 61 8d 90 3d 75 d3 e8 3d 93 ca 0c 3d
       -0.10582517 0.07058216 0.11368457 0.034372877
0002e0 ee 92 9c bb 15 13 2c bd 2b 35 e4 bd 2d 94 12 bd
       -0.0047782576 -0.042010386 -0.111429535 -0.035785843
0002f0 81 0c 9f 3d 52 7b 0c bd 70 d8 a3 3d 11 24 de 3d
       0.07766057 -0.034297295 0.080002666 0.10846723
000300 5f 8b 8c bd 69 fd a2 3d f0 0f d3 3b f6 e0 14 bd
       -0.068625204 0.079584904 0.006441109 -0.036347352
000310 ba 44 bf 3d 52 9f e8 3d 60 e4 88 bd ab e4 c4 3a
       0.093392804 0.11358513 -0.06684184 0.0015021762
000320 85 7d 11 3d 1e 14 76 3d 45 b1 98 bd 69 9d e0 bd
       0.035520095 0.06007778 -0.074556865 -0.109675236
000330 fb 13 af 3c f7 43 00 be 15 20 8f bc 36 51 e7 bb
       0.021371832 -0.12525927 -0.017471353 -0.0070592416
000340 a4 93 dc bc dc 47 8c bd 37 80 f5 3d 41 2d e7 bd
       -0.02692587 -0.068496436 0.11987346 -0.112879284
000350 de e4 6a 3c bc 71 89 bd a6 05 81 bd 96 7d dd 3d
       0.014336793 -0.06711146 -0.062999055 0.10814969
000360 54 5c c2 bc 01 7a 10 bd 52 f1 ea 3c 54 7c 08 bc
       -0.023725666 -0.035272602 0.028679524 -0.008330423
000370 41 b6 57 3d 0b 24 aa 3d 45 d3 cc 3d 57 16 d8 3d
       0.052664045 0.08307656 0.10001234 0.10551136
000380 7e 97 ec 3d 49 d0 98 3d 3b d0 db 3d 6c e9 aa bc
       0.11552332 0.07461602 0.10733076 -0.020863257
000390 a8 fb 7a 3d bd 73 da 3d 81 28 cf 3c d5 b3 db bd
       0.061275154 0.106666066 0.025287868 -0.107276596
0003a0 fd c3 e3 3d 71 a3 aa 3d 3a 3c 94 3d 22 11 b5 3d
       0.11121366 0.08331955 0.0723805 0.088411584
0003b0 a9 9c c9 3d 29 cb f3 bd fd be 21 3d e5 1c dc 3d
       0.09844334 -0.11903984 0.03948878 0.10747699
0003c0 0e 44 f3 bd 4d d3 c0 3d 6e 2e 4b bd 94 7f ae 3d
       -0.11878215 0.094153024 -0.049604826 0.08520427
0003d0 c0 65 0a bc 94 4d a4 bd 6f d6 09 3d 81 6b fd 3d
       -0.008447111 -0.08022609 0.033651765 0.1237402
0003e0 4b 3b 92 bd fb cf f2 bd f7 59 55 3c ad e4 75 3d
       -0.071402155 -0.118560754 0.013021938 0.060032535
0003f0 62 f7 33 bd 43 2f 6f bd de 32 65 3d 07 60 85 3d
       -0.043937095 -0.05839468 0.055956714 0.065124564

2.bias f4 [64]
000000 62 e0 f2 3d 71 25 cf bc b3 1d 04 3d 83 34 7a bd
       0.11859204 -0.025286408 0.032254886 -0.061085235
000010 ca b6 9e bc dd 51 3e 3d 83 03 84 3d dd 15 1c bd
       -0.01937427 0.04646479 0.06445982 -0.038106788
000020 73 84 b5 bd f6 21 9e 3d 82 f5 e4 bd a4 87 10 bc
       -0.08863153 0.07721321 -0.111796394 -0.008821402
000030 5a 8f 85 bd 7e 6d 8c bc 7f 35 89 bd f3 24 1b 3c
       -0.06521483 -0.017142054 -0.06699657 0.009469259
000040 16 0f b1 3d 95 94 87 bd db b4 bb 3d ad 53 3e bc
       0.086454555 -0.06620137 0.09165355 -0.01161663
000050 f4 08 a7 bd 58 e4 94 bd 7c b1 a5 3d b9 f4 a5 3d
       -0.081560045 -0.072701156 0.08090493 0.08103318
000060 93 8d 1d bd 43 c7 04 3d 3a 94 e7 3d a5 0b e0 3d
       -0.038465094 0.032416593 0.11307569 0.10939721
000070 66 98 e9 3d b8 03 e5 3d 90 9b a8 3d 47 e1 b0 bb
       0.11406021 0.1118235 0.08232796 -0.005397949
000080 ee 32 a3 3d 5b a7 fa bc af 95 81 3d e6 27 83 bc
       0.079686984 -0.03059738 0.06327378 -0.016010236
000090 c6 8b df 3b 47 5b 5e 3c 8f 1f 9c 3d 34 62 c0 3d
       0.006822082 0.013571567 0.07623207 0.09393731
0000a0 b2 5c 9f 3c 00 b7 99 ba 98 04 cd 3d d3 4c 14 3d
       0.01945338 -0.0011727512 0.10010642 0.036206078
0000b0 db 27 d5 bd 11 89 ee 3d f4 b2 f3 bd 91 8d 22 bd
       -0.104079925 0.11647237 -0.11899367 -0.03968579
0000c0 bf f8 cf bd 03 bb cf 3d fc 4e aa 3d 14 ab 1b 3c
       -0.101548664 0.101430915 0.08315846 0.009501237
0000d0 2e 45 eb bd d2 30 e9 3c 72 65 cd bd 66 f2 99 bd
       -0.11487804 0.028465662 -0.10029115 -0.07516937
0000e0 cf f9 e0 3d e9 3f 01 bd bd 09 06 3c 1f 85 0d 3d
       0.10985147 -0.03155509 0.008181033 0.034550782
0000f0 8a 9c 51 bb f1 53 fe 3c 99 2c 89 3d 68 b0 c7 3d
       -0.0031984174 0.031045886 0.066979595 0.09750444

4.weight f4 [4, 64]
000000 95 93 fa bd e9 b1 83 bd 47 9e f8 bd 07 b8 1d 3c
       -0.1223518 -0.06430418 -0.12139564 0.009626395
000010 1a 71 0e bd 3f 11 98 3d 6b 14 39 bd c2 0f 8e 3c
       -0.03477583 0.074251644 -0.045185488 0.017341498
000020 72 0e f0 bd 23 f7 55 3c 72 ef b7 3d 40 dd d4 bb
       -0.11721505 0.01305941 0.089812174 -0.0064961016
000030 1c bb 38 3d 46 da 9d 3d e0 b6 80 3d 4f 00 dc bd
       0.045100316 0.07707648 0.06284881 -0.10742246
000040 ad a6 79 3d 22 ed 9d 3c c3 f1 ea bd 35 a1 01 3d
       0.06094997 0.019278113 -0.11471894 0.03164788
000050 30 c0 ce bd d7 b9 08 3d 2d 63 16 3d cc 0a 84 3d
       -0.100952506 0.033380356 0.036715675 0.06447372
000060 44 a4 b1 bd 8d 73 6d 3d dc f5 7e bc 68 0e 87 bd
       -0.08673909 0.057971526 -0.015561547 -0.06594545
000070 43 61 4a bd f2 4e a0 3d e7 1d 87 3b 8b 97 c1 3d
       -0.049409162 0.078275576 0.0041234377 0.09452733
000080 25 53 e2 bd f0 de 27 bc fb 5a ff bd 3b 63 11 bd
       -0.11051015 -0.010246024 -0.12468525 -0.035495024
000090 fe 8d e5 bd 37 e8 de bd e5 49 73 bd 44 0f 9e 3c
       -0.112087235 -0.10884135 -0.059396643 0.019294389
0000a0 55 29 b4 3d 60 03 db bc bf 62 71 bd cc 74 ce 3c
       0.08796946 -0.026735008 -0.058932062 0.025202177
0000b0 7e 09 c2 3d 27 5a b6 bc a8 54 b9 bc 6e 53 8e bc
       0.09474467 -0.022259785 -0.022623375 -0.017373767
0000c0 ec 3f 7a 3d 7b ff 75 bd cd c1 66 bc c3 22 01 bd
       0.061096117 -0.0600581 -0.014084292 -0.031527292
0000d0 73 49 9c 3d 03 34 13 bd 88 ad 4b 3d b8 33 76 bd
       0.07631197 -0.035938274 0.04972604 -0.060107917
0000e0 4d 58 3f bd f4 51 f0 bd e6 51 86 bc c9 0e 8b bd
       -0.04671507 -0.11734381 -0.016396474 -0.067899294
0000f0 cd 78 ab bd 02 38 a4 3c 2d 11 2f 3d 63 f9 09 3d
       -0.0837265 0.020046238 0.04274099 0.0336851
000100 d1 21 d7 bd 38 26 c7 bc ba 03 1d 3d e7 20 43 bd
       -0.10504497 -0.024310216 0.038333632 -0.0476388
000110 f3 b1 8e 3d 0f 85 01 bd dd d0 ad 3c 35 a8 b7 3d
       0.06967535 -0.031621035 0.021217758 0.0896763
000120 af a8 8b 3d 45 da b7 3c 3c be e2 bd 48 a8 a3 bc
       0.06819283 0.022442946 -0.110714406 -0.019977704
000130 6c 11 a1 3d 68 10 cd 3c b9 86 69 3d 61 72 90 3d
       0.07864651 0.025032237 0.057013247 0.07053066
000140 22 a4 ad bd 04 95 6b 3d 9f 06 92 bb 0c ed 30 3b
       -0.084785715 0.05751516 -0.0044563557 0.002699676
000150 c0 4e c4 3b 31 e5 b9 3d 39 f3 0c bd 11 05 c8 3d
       0.005990833 0.09076918 -0.034411643 0.09766591
000160 96 06 b4 3d 21 27 8b 3d b1 7e 8c 3d 80 11 e4 3d
       0.08790319 0.067945726 0.06860102 0.1113615
000170 8d bd 87 3d b2 b6 2d bd fc f6 e5 3c fc 64 39 3d
       0.06627951 -0.04241056 0.028071873 0.04526232
000180 af cd d3 bd 3a c1 59 3d bf 51 8f 3d e6 6a 97 3d
       -0.103419654 0.05316279 0.06998014 0.07393436
000190 86 47 45 3d b2 6c 8b bd 95 ba c8 3d 58 fa ec 3d
       0.048163913 -0.06807841 0.09801213 0.11571187
0001a0 ec 98 e3 3c f4 27 b7 bd 2b 4d f4 bc be 7e 96 bd
       0.02778288 -0.08943167 -0.029821953 -0.07348393
0001b0 ed ce 7e 3d 0b 23 c0 bc a4 68 fd bd ad a0 a8 3d
       0.06220906 -0.02345421 -0.12373474 0.082337715
0001c0 5c f3 08 bd 45 de c3 3d f5 48 a6 bd c6 90 f5 bd
       -0.03343521 0.09563879 -0.08119384 -0.11990504
0001d0 7d 20 2e 3d b7 bd d4 3d 1c 52 c1 3d e0 71 9f 3d
       0.042511452 0.10387748 0.09439489 0.07785392
0001e0 22 90 bc 3d 80 4c 8f bd 6c 3f 06 bd e9 46 bb bd
       0.09207179 -0.06997013 -0.032775328 -0.091443844
0001f0 43 f9 95 3d 39 7a 63 bd 12 78 2a bd bd f9 b6 bd
       0.073229335 -0.055536482 -0.041618414 -0.089343525
000200 41 2f 1f 3d 55 cb bd bd 2d ee df 3d f6 13 88 3d
       0.038863424 -0.09267298 0.109341 0.06644432
000210 b1 2f 9c 3d 55 ef 56 3d d5 47 19 3d f9 92 5e 3d
       0.07626284 0.05247434 0.03742202 0.054339383
000220 b2 47 48 3d a2 d8 a2 3d a8 92 c3 3c 9d b0 c4 bb
       0.0488965 0.07951476 0.023873642 -0.0060024993
000230 6a 4c 85 3d 30 8a a9 3c 58 e8 d3 bc 54 ab ae 3d
       0.065087155 0.020695776 -0.025867626 0.08528772
000240 2b 11 3b bd 17 66 55 bd 2e 0a dd 3d f4 31 c7 3d
       -0.04567067 -0.052099314 0.10792957 0.09726325
000250 b0 04 11 3d db 68 64 bd e5 21 e9 3b 5b 73 01 bd
       0.03540486 -0.05576406 0.0071146362 -0.031604152
000260 0b d2 ab bd 74 fa 46 bb 9a 19 96 bd 96 d8 fd 3d
       -0.08389672 -0.0030361684 -0.07329102 0.12394826
000270 2e 0b cb 3d 8f 65 4e bd d8 c3 cc bd 05 20 8b bd
       0.09914242 -0.050389823 -0.09998292 -0.067932166
000280 e7 b5 de 3b cd 5c c5 bd 32 68 65 bd a9 7c 89 3b
       0.006796587 -0.09636841 -0.05600757 0.004195769
000290 ca 6b 89 3d 5a 77 97 3c 5f 87 93 bd 95 fa e4 bd
       0.06710012 0.018489528 -0.07203554 -0.11180607
0002a0 1e 7c 8a bd a6 77 ef 3d 74 b4 90 bd af 0b 3d bd
       -0.06761955 0.11692743 -0.07065669 -0.04615372
0002b0 66 60 80 3d 7b d4 75 bd 92 32 a2 3d 94 60 b9 3d
       0.062683865 -0.06001709 0.07919802 0.09051624
0002c0 23 32 91 3d 44 5f d8 3d 29 6f 70 3d a3 2a 15 bd
       0.07089641 0.105650455 0.05869976 -0.036417615
0002d0 0b ba f9 3d ef 4f 41 bd a0 f9 8f bb 76 b6 de bd
       0.12193688 -0.04719537 -0.0043937713 -0.108746454
0002e0 63 8f 96 bd f0 65 d1 bd f0 20 fa bd 98 f2 f2 bd
       -0.073515676 -0.10224521 -0.122133136 -0.11862677
0002f0 d8 0b e5 bd d8 97 95 bb c2 f4 c8 3c 45 0b ec 3d
       -0.111839 -0.0045652203 0.024530772 0.11525587
000300 04 d5 e6 bd a8 b9 bb 3d 90 35 89 3d b2 d7 e3 bd
       -0.11271098 0.091662705 0.06699669 -0.11125125
000310 bc 8e 08 3a c3 cc 46 3d 53 f9 15 bc 15 f1 af 3d
       0.00052092574 0.04853512 -0.009153682 0.085909046
000320 6f 2e b5 3d 28 2a f8 3d 26 9c ac bd e6 6b c9 bd
       0.08846747 0.12117416 -0.084282205 -0.09835033
000330 df af e1 3c 2a d2 01 bd 92 7b 40 3c 40 09 da bd
       0.027549682 -0.03169457 0.011748211 -0.106462955
000340 22 ab c0 3d 2d 62 ac bd 76 87 c3 3c 32 20 20 ba
       0.09407641 -0.08417163 0.023868304 -0.0006108313
000350 a0 78 04 bc f6 27 d8 3d 32 8e 86 3d b6 11 c3 3c
       -0.0080854 0.10554497 0.0657009 0.023812156
000360 8a 52 df 3d ac ac e6 3d 83 6b 74 bc 2d 17 51 3c
       0.10904415 0.11263403 -0.014918211 0.012761873
000370 e9 f2 30 bd 6a a3 b8 3d 77 2c 73 3d b3 12 b4 3d
       -0.043200407 0.09015544 0.059368577 0.08792629
000380 76 67 e1 bd 9e 7f 2f 3d 95 d5 31 bd 0e 2c e3 bd
       -0.11006062 0.042846315 -0.04341658 -0.11092387
000390 c8 47 cd bd 61 80 b8 bd 23 a0 e6 bd 31 b9 bb 3d
       -0.10023457 -0.09008861 -0.112610124 0.09166182
0003a0 d5 80 5c bd 6e 06 d1 bd be 4f cf 3d 0e dc e5 3d
       -0.0538338 -0.102063045 0.101226315 0.11223613
0003b0 1b a0 a7 bd 35 f1 0c bd 88 bc 1b 3d e3 12 a7 3d
       -0.081848346 -0.03440972 0.038021594 0.08157899
0003c0 e6 22 1f bd 1b 6e 9d 3b 57 fd 34 3d c5 65 64 bd
       -0.03885164 0.0048043854 0.044186916 -0.055761117
0003d0 8f 9d a8 bd c6 4f ac bd 90 a1 28 3c 58 9b b6 3c
       -0.08233177 -0.08413653 0.010292426 0.02229087
0003e0 de 41 e5 bd 09 98 fa 3c 46 02 db 3d 6c 37 b9 bd
       -0.11194204 0.030590074 0.10693793 -0.09043774
0003f0 b8 29 ce 3d 60 cb fc bd bf a8 2a 3d 83 b1 a8 3d
       0.10066551 -0.12343478 0.041664835 0.08236983

4.bias f4 [4]
000000 da 38 a5 3d cd 73 55 bd 87 30 e9 bc be 88 f5 3d
       0.08067484 -0.05211239 -0.028465522 0.11988972
